crowd_nav/data/lstm-mamba/il_model.pth (torch, 95558 bytes, 13 tensors)

lstm.weight_ih_l0 f4 [200, 13]
0	0x3dbf8935	0.09352342
1	0x3c813daf	0.015776483
2	0xbb007303	-0.0019599802
3	0x3b32697b	0.0027223516
4	0xbd1f7514	-0.038930014
5	0x3dc68006	0.09692387
6	0xbd5b919e	-0.05360567
7	0x3c7beb28	0.01537589
8	0x3d999b1a	0.075002864
9	0xbe032488	-0.12806904
10	0xbd9913ae	-0.07474457
11	0x3dbe164c	0.092815965
12	0x3dda3db1	0.10656298
13	0xbda54d6d	-0.080714084
14	0x3e0d9ed7	0.13830124
15	0xbd1d8ccf	-0.038464364
16	0x3cd26947	0.025684966
17	0x3c9826ca	0.018573184
18	0x3d9b2b5f	0.07576632
19	0x3d953916	0.07286279
20	0x3df416da	0.11918421
21	0xbb2e572f	-0.0026602258
22	0x3df04c75	0.11733333
23	0x3e0fd66d	0.1404664
24	0x3d7d54d8	0.06184849
25	0xbd25dd84	-0.040494457
26	0xbe17d9ec	-0.14829224
27	0x3d8d53b1	0.069007285
28	0x3da01370	0.078162074
29	0xbcf99668	-0.030467227
30	0x3dbf92aa	0.09354146
31	0x3d2f1464	0.042744055
32	0x3e1410b4	0.14459497
33	0x3de77be0	0.11302924
34	0x3babf76e	0.005248002
35	0xbbe2c44c	-0.006920373
36	0x3c95d091	0.018287929
37	0x3d5fa703	0.054602634
38	0xbdb2ecd4	-0.08736578
39	0x3e027fc5	0.12744053
40	0x3de2b4b5	0.110696234
41	0x3d05e9f4	0.03269382
42	0x3e1161df	0.14197491
43	0x3dfbc4c7	0.12293392
44	0x3be031de	0.006841882
45	0x3dbb3318	0.09140605
46	0xbe29fefb	-0.16601174
47	0x3d8cfcdb	0.06884166
48	0x3d86e42e	0.065864906
49	0x3d1518a5	0.036400456
50	0xbcca28d4	-0.024677671
51	0xbdd961da	-0.10614367
52	0xbdb83063	-0.08993604
53	0xbd8e8a23	-0.06959941
54	0x3defc6c2	0.11707832
55	0xbce4e93a	-0.027943242
56	0x3dd5654c	0.104197115
57	0x3d9af298	0.07565802
58	0xbafb783e	-0.0019185615
59	0x3dbe2802	0.09284975
60	0xbbbbb430	-0.005728267
61	0x3e0d08c5	0.13772877
62	0x3ddabcef	0.106805675
63	0x3e06f47c	0.13179201
64	0x3da37dcb	0.079829775
65	0x3d62aba0	0.055339456
66	0x3decb2d2	0.11557545
67	0x3e104a22	0.1409078
68	0xbd3547b2	-0.044257827
69	0xbca4abfa	-0.020101536
70	0xbdf64f16	-0.12026803
71	0xbd63301a	-0.055465795
72	0xbda69fb8	-0.08135933
73	0xbd46fa67	-0.048578646
74	0xbcadab5b	-0.021199873
75	0xbd80c5ad	-0.06287704
76	0xbdb9af0c	-0.09066591
77	0x3dec5a3d	0.11540649
78	0x3d99f1a1	0.0751679
79	0x3dc735b0	0.09727037
80	0xbdfad021	-0.12246729
81	0x3d8e1444	0.06937459
82	0xbde9753d	-0.113993146
83	0xbdc03702	-0.09385492
84	0x3e803af5	0.2504498
85	0x3e10db8d	0.14146252
86	0x3e2fb250	0.17157865
87	0x3d9cc9bc	0.07655665
88	0x3dffd9c6	0.12492709
89	0x3c2cab80	0.010538936
90	0xbd6147de	-0.05500018
91	0xbdb9ea04	-0.09077838
92	0xbd92b53d	-0.07163475
93	0x3dc9898b	0.09840687
94	0x3cd4d288	0.025979295
95	0x3b8ede67	0.0043600085
96	0x3c5942ee	0.013260586
97	0x3dc98746	0.098402545
98	0xb9cdf9b1	-0.00039286682
99	0x3c554516	0.01301696
100	0xbd2ea881	-0.042641167
101	0xbd2b87bd	-0.041877497
102	0xbb9a74ae	-0.0047136163
103	0xbd29bc73	-0.041439485
104	0xbd8104e5	-0.06299762
105	0x3dd66ce8	0.10469991
106	0xbdce45c1	-0.10071898
107	0xbde0e527	-0.10981207
108	0xbe02d237	-0.12775503
109	0x3dd9c329	0.10632927
110	0xbc73f0d6	-0.014888963
111	0xbc95d9ac	-0.01829227
112	0x3e414060	0.18872213
113	0x3d3f2aef	0.046671804
114	0xbda34049	-0.07971246
115	0xbd8ff201	-0.070285805
116	0x3e0e7a0d	0.13913746
117	0x3c4eb387	0.012616045
118	0xbd2cf026	-0.04222121
119	0x3dd8e368	0.10590249
120	0x3e0a425b	0.13501875
121	0xbdb67a35	-0.08910028
122	0x3e058f42	0.1304293
123	0x3d23b6a3	0.039969098
124	0x3e0c6186	0.13709077
125	0xbd7f9e82	-0.062407024
126	0xbd0be6a5	-0.034155507
127	0x3de38de8	0.11111051
128	0x3d5127cc	0.051063344
129	0x3d2d203b	0.042267065
130	0xbc717a97	-0.0147387
131	0xbe0917d5	-0.13387997
132	0x3dd83288	0.10556513
133	0xbd89797e	-0.06712626
134	0x3dc72986	0.09724717
135	0x3db8a8e4	0.09016588
136	0x3d370a3b	0.04468749
137	0xbe1a2632	-0.15053633
138	0x3ddc6e30	0.10763204
139	0xbd47c14d	-0.04876833
140	0x3c81ff82	0.015868906
141	0x3bad0600	0.0052802563
142	0xbbcb8c5d	-0.006211801
143	0x3e064e95	0.13115914
144	0x3db1f6ec	0.08689675
145	0x3df5e4f0	0.12006557
146	0xbdae23f2	-0.0850295
147	0xbdbb0018	-0.09130877
148	0xbd4eaac6	-0.05045583
149	0x3efdd0ea	0.4957345
150	0xbecc9868	-0.39960027
151	0x3cd6c85e	0.02621859
152	0x3c8e6af4	0.017384984
153	0x3d2de573	0.042455148
154	0x3e1aad31	0.1510513
155	0xbdb49230	-0.088169456
156	0x3cef9b52	0.029248867
157	0x3e0daf62	0.13836434
158	0xbdcfb78e	-0.10142432
159	0x3ca256b7	0.01981674
160	0x3d850a7a	0.06496139
161	0x3e085bcd	0.13316269
162	0x3a8c06c6	0.0010683171
163	0xbd8889eb	-0.06666931
164	0xbdf75e4b	-0.12078532
165	0xbdac83d8	-0.08423585
166	0xbd07d76e	-0.033164434
167	0x3d059a2d	0.032617737
168	0xbdce0e4a	-0.10061319
169	0x3dfa7cbe	0.12230824
170	0xb9dff3e6	-0.00042715593
171	0xbd65a267	-0.056063082
172	0xbd6c7e31	-0.057737533
173	0x3e09b6f7	0.13448702
174	0x3df00904	0.117204696
175	0xbd008adc	-0.031382427
176	0xbccb3573	-0.02480576
177	0xbdd6324e	-0.104588136
178	0x3de4c68a	0.11170681
179	0x3cd221c0	0.025650859
180	0x3df4dcf0	0.11956203
181	0xbd4c4147	-0.04986694
182	0x3de13bf7	0.109977655
183	0xbe00f416	-0.12593111
184	0xbcf05b72	-0.02934048
185	0xbbc89356	-0.0061210794
186	0x3e03737e	0.12837026
187	0xbdeb8c06	-0.11501317
188	0xbd848675	-0.06470958
189	0xbdbef39a	-0.09323807
190	0xbdea62fb	-0.1144466
191	0x3c192ff0	0.009349808
192	0xbd86ba9e	-0.06578563
193	0xbd42d383	-0.047564995
194	0xbb66b187	-0.003520103
195	0xbd832b54	-0.064047486
196	0x3d0c0c21	0.034191255
197	0x3d25c7b8	0.04047367
198	0xbdfe3682	-0.1241274
199	0xbda25ff6	-0.07928459
200	0xbc2d5d0d	-0.010581267
201	0x3b18e69f	0.002333082
202	0x3c2ac12b	0.010422031
203	0x3df4e539	0.11957783
204	0xbca60e33	-0.020270443
205	0x3decd8f4	0.11564818
206	0xbd68ffe0	-0.056884646
207	0x3d9ec809	0.077529974
208	0x3d3b9b49	0.04580239
209	0x3ccf1f63	0.025283521
210	0xbd3ce948	-0.04612091
211	0xbdb021eb	-0.08600219
212	0xbc9b6d44	-0.018973
213	0x3df6c788	0.12049776
214	0xbdbeeba6	-0.0932229
215	0xbdbaea40	-0.09126711
216	0x3c5e1efd	0.013557193
217	0x3ccc3d2f	0.024931518
218	0xbdaba038	-0.08380169
219	0xbcd2b013	-0.025718724
220	0xbddaa4d7	-0.10675972
221	0xbba9f952	-0.005187192
222	0x3dc65880	0.09684849
223	0x3b65afe4	0.0035047466
224	0xbd969e25	-0.073543824
225	0x3d0b06b6	0.033941947
226	0x3de19aee	0.110158786
227	0xbd9f5284	-0.077794105
228	0x3d2464a3	0.040135037
229	0x3ce3ce4e	0.027808335
230	0xbccb70dc	-0.024834089
231	0x3dbd24a6	0.09235506
232	0xbd13ca5f	-0.036081668
233	0x3e0c7274	0.13715535
234	0x3e300330	0.17188716
235	0xbdb05e00	-0.08611679
236	0xbd9fc128	-0.078005135
237	0x3d615b2b	0.055018585
238	0xbd8f50e7	-0.06997853
239	0xbe00302a	-0.12518373
240	0x3cb6d073	0.022316193
241	0x3e1e81f0	0.15479255
242	0x3e526c48	0.20549119
243	0xbe8f307f	-0.27966687
244	0x3d40ca21	0.047067765
245	0x3ba2a0b7	0.0049630064
246	0xbc7487dc	-0.0149249695
247	0x3e40e209	0.18836226
248	0x3c8c7a7b	0.017148247
249	0xbdb8ab89	-0.09017093
250	0x3e012a29	0.12613739
251	0x3de9dc78	0.11419004
252	0x3cde8582	0.02716327
253	0xbeea07ca	-0.45709068
254	0x3db8a549	0.09015901
255	0x3e687081	0.22699167

lstm.weight_hh_l0 f4 [200, 50]
0	0xbdc82c3a	-0.097740605
1	0xbdf68d96	-0.12038724
2	0xbd0e4c9d	-0.034741033
3	0x3d87353d	0.06601951
4	0x3d1ef7ad	0.03881042
5	0x3d89c004	0.06726077
6	0x3d40e590	0.047093928
7	0x3e09b0c7	0.13446341
8	0x3dd6effb	0.104949914
9	0xbc656d8f	-0.014003172
10	0x3dc120bf	0.09430074
11	0xbdbfa2c2	-0.093572155
12	0x3d86a7e8	0.06574994
13	0xbd79fb30	-0.061030567
14	0xbbb86a5f	-0.005627915
15	0xbd90e843	-0.070755504
16	0xbd1ad66f	-0.037802156
17	0xbd4dc429	-0.0502359
18	0xbde9b302	-0.11411096
19	0xbd40432d	-0.046939064
20	0x3dbc0678	0.09180921
21	0xbd886263	-0.06659391
22	0xbccdb6fc	-0.025111668
23	0xbe0d5f94	-0.13805991
24	0x3ca6d7c9	0.020366566
25	0xbd8760ae	-0.06610237
26	0xbd8334bf	-0.06406545
27	0x3d3a48a5	0.045479435
28	0xbde7487b	-0.112931214
29	0xbd0ad8b9	-0.03389809
30	0x3e0571d1	0.13031699
31	0x3d84d9c8	0.06486851
32	0x3dc42472	0.09577264
33	0x3d0857a7	0.033286717
34	0xbd9e3384	-0.077246696
35	0x3dd9f1fc	0.10641858
36	0xbb23ea11	-0.002501134
37	0x3d5609e8	0.05225554
38	0xbc9cda42	-0.019147042
39	0x3dd80c56	0.10549228
40	0x3e069a7f	0.13144873
41	0x3e0892a1	0.13337184
42	0x3dece1b3	0.11566486
43	0xbdeb0358	-0.11475247
44	0x3df04ef3	0.11733808
45	0xbaed05c0	-0.0018083379
46	0xbb3f7f49	-0.0029220155
47	0x3dbfaf96	0.09359662
48	0xbc1ee1b4	-0.0096973665
49	0xbdfbc29c	-0.12292978
50	0x3cdb024a	0.02673449
51	0x3dc8b426	0.097999856
52	0xbe05224a	-0.13001361
53	0x3de5f211	0.11227811
54	0xbd4cedb2	-0.05003137
55	0xbd69f34f	-0.057116803
56	0x3c59b8f8	0.013288729
57	0x3ce2e471	0.02769682
58	0xbd69adca	-0.057050504
59	0xbdde8081	-0.10864354
60	0xbd7fa602	-0.062414177
61	0x3e0714a6	0.1319147
62	0xbe033f7f	-0.1281719
63	0xbca06de4	-0.01958365
64	0xbdbe8edd	-0.09304593
65	0xbd5059d9	-0.050866935
66	0x3d94f500	0.072732925
67	0x3dbd30e5	0.092378415
68	0xba0ff8b4	-0.0005492077
69	0xbcdace49	-0.026709693
70	0xbdca780b	-0.09886178
71	0xbc612cc6	-0.013743585
72	0x3cdbf0f4	0.026848294
73	0xbe0f1e88	-0.1397649
74	0xbde1e735	-0.11030427
75	0x3d595344	0.053057924
76	0x3d8a10f5	0.067415155
77	0x3daa2178	0.08307165
78	0xbe093d32	-0.1340225
79	0x3d89871a	0.06715222
80	0xbba1ac5d	-0.0049338774
81	0xbdc09c02	-0.09404756
82	0x3e0543ed	0.13014193
83	0xbda17862	-0.07884289
84	0x3d0babaf	0.034099277
85	0xbd9b6131	-0.07586897
86	0x3dccccb4	0.099999815
87	0x3d99390f	0.07481586
88	0xbc51922d	-0.012791199
89	0x3cb723f3	0.02235601
90	0xbc6bb7b9	-0.014387065
91	0x3ce8cc5e	0.028417762
92	0x3dd31aad	0.103078224
93	0xbe098172	-0.13428286
94	0xbdabb6b9	-0.08384461
95	0x3dd9b0c4	0.106294185
96	0x3da75a31	0.081714995
97	0xbc7da1ab	-0.015480439
98	0x3e0968f3	0.13418941
99	0xbc8844b7	-0.016634328
100	0xbc9555be	-0.018229362
101	0x3ddaaf5f	0.10677981
102	0x3c4e8be7	0.0126065975
103	0x3d66b38d	0.056323577
104	0x3ddc0b61	0.10744358
105	0x3dab623b	0.08368345
106	0xbaae0529	-0.0013276684
107	0xbad3504f	-0.0016121956
108	0x3e004177	0.12524973
109	0x3d42ca0e	0.047555976
110	0x3ded0a7d	0.11574266
111	0xbe018828	-0.12649596
112	0x3e0e6634	0.13906175
113	0xbc13d4c7	-0.009022898
114	0xbd9fe1be	-0.07806729
115	0xbe06b710	-0.1315577
116	0xbdada85f	-0.0847938
117	0xbdd0908d	-0.10183821
118	0x3ca484de	0.020082887
119	0x3d90386b	0.07042011
120	0xbc645db7	-0.013938359
121	0xbdb4b4c9	-0.088235445
122	0xbdeb3868	-0.11485368
123	0x3dce2c16	0.100670025
124	0x3d75c645	0.060003538
125	0x3df6f79b	0.12058946
126	0xbc90db74	-0.017682768
127	0x3c8e9e20	0.017409384
128	0xbd00177f	-0.031272408
129	0xbe0cc96e	-0.13748714
130	0x3dd3f99d	0.10350344
131	0xbd3d9d65	-0.04629268
132	0xbdc6d5d4	-0.09708753
133	0x3dfcb54b	0.123392664
134	0xbcbd63d7	-0.023118896
135	0x3c0e809f	0.008697658
136	0x3e0431ef	0.12909673
137	0x3c9f4202	0.019440655
138	0x3e003f29	0.12524094
139	0xbdea7df2	-0.114498034
140	0xbde42f46	-0.11141829
141	0xbe0e7913	-0.13913374
142	0xbaea4b41	-0.0017875211
143	0x3cd07064	0.025444217
144	0xbdd491c7	-0.10379367
145	0x3dee5e7f	0.116391174
146	0xbd6080ff	-0.05481052
147	0x3d816cc1	0.06319571
148	0x3df611b8	0.12015098
149	0xbd5ccb49	-0.053904805
150	0x3c149fe3	0.009071323
151	0xbde4ebe0	-0.11177802
152	0xbc6dfba1	-0.014525325
153	0x3cf76869	0.030201154
154	0x3d66b168	0.05632153
155	0x3dbf2734	0.09333649
156	0xbd853ea7	-0.065060906
157	0x3dd53c07	0.1041184
158	0xbc8ab6e9	-0.016932921
159	0x3c8da494	0.017290391
160	0xbe06e62c	-0.13173741
161	0xbd6845d1	-0.056707207
162	0x3d4306a5	0.04761376
163	0x3cd6e283	0.026231056
164	0xbd5aa798	-0.053382486
165	0x3dbb4960	0.091448545
166	0x3dffe030	0.12493932
167	0xbdf520cb	-0.119691454
168	0x3daf688e	0.08564864
169	0x3c46d667	0.012136078
170	0x3da2dc67	0.07952195
171	0xbd9e39d7	-0.07725876
172	0x3d057a46	0.032587312
173	0xbe0cdb9e	-0.13755652
174	0xbda66e77	-0.08126538
175	0x3d9e33e5	0.07724742
176	0xbdc76fed	-0.09738145
177	0x3d61084e	0.05493956
178	0xbd8dc29d	-0.06921885
179	0x3dffbcfd	0.124872185
180	0xbdff6cfc	-0.12471959
181	0xbc928b66	-0.017888736
182	0xbce85dce	-0.028365042
183	0x3da6b64b	0.081402384
184	0x3c63a09e	0.013893275
185	0x3d6885d3	0.05676825
186	0xbdcee2b7	-0.10101836
187	0x3df9190d	0.12162981
188	0x3da1d1a2	0.079013124
189	0xbcd8b4f3	-0.02645347
190	0xbd575d99	-0.052579496
191	0xbd7605bb	-0.06006406
192	0x3ca7245f	0.020403085
193	0x3cd2eb92	0.025747094
194	0x3c09946c	0.008397203
195	0xbe0e672e	-0.13906547
196	0x3c3366cb	0.010949801
197	0xbd21d034	-0.0395052
198	0xbd6cadd0	-0.057782948
199	0x3db80410	0.0898515
200	0x3dee7754	0.11643854
201	0xbd81d220	-0.06338906
202	0xbc47180d	-0.01215173
203	0x3d3265a0	0.04355395
204	0x3d26a385	0.040683288
205	0x3d8384fb	0.064218484
206	0xbd0580cd	-0.032593537
207	0x3c7eb39a	0.01554575
208	0xbdb71684	-0.089398414
209	0xbe02bd6b	-0.1276757
210	0xbd8cb652	-0.06870712
211	0xbde9f157	-0.11422985
212	0xbc3a286a	-0.0113621745
213	0x3bc6ff7f	0.006072938
214	0x3db687d5	0.08912627
215	0x3c27507b	0.010212059
216	0x3dc93964	0.098253995
217	0xbd97a2b2	-0.074040785
218	0xbc88465c	-0.016635112
219	0xbd9003a3	-0.07031944
220	0xbe0b7451	-0.1361859
221	0x3df085f6	0.11744301
222	0xbc027de5	-0.007964586
223	0x3e02d64c	0.1277706
224	0x3ceffc5f	0.029295145
225	0xbdb87656	-0.09006946
226	0x3ba76b82	0.0051092515
227	0xbdaf5955	-0.085619606
228	0xbda297a9	-0.07939083
229	0x3d391bdf	0.045192596
230	0x3d989e93	0.07452121
231	0xbda46bd0	-0.08028376
232	0x3e0bc257	0.13648354
233	0x3c71a898	0.014749669
234	0xbd4fb164	-0.050706282
235	0xbd4a217a	-0.049348332
236	0x3d98439d	0.07434771
237	0x3dd56fb7	0.104216985
238	0xbdc9c643	-0.098522685
239	0x3d29cb83	0.04145385
240	0x3d338d11	0.043835703
241	0x3d4ec173	0.050477456
242	0x3e0ccc25	0.1374975
243	0x3d24eb85	0.04026367
244	0x3de25988	0.11052233
245	0xbdd3324b	-0.10312327
246	0x3d1182b6	0.035525046
247	0xbdb85c7b	-0.09002014
248	0x3df00ab3	0.11720791
249	0x3c388d3f	0.011264144
250	0xbdd24fcc	-0.10269126
251	0x3dc1381e	0.09434532
252	0x3da5fa40	0.08104372
253	0xbda1dcbf	-0.07903432
254	0x3d84bf7d	0.06481836
255	0x3d6d81d6	0.05798515

lstm.bias_ih_l0 f4 [200]
0	0x3e04165b	0.12899153
1	0x3dd66363	0.10468175
2	0x3de66548	0.112497866
3	0x3dabcd70	0.083887935
4	0xbe052765	-0.13003309
5	0x3e0f94d7	0.14021622
6	0x3cf92005	0.030410776
7	0x3c839e40	0.01606667
8	0xbd62eaeb	-0.055399816
9	0xbdb59a64	-0.08867338
10	0xbde3f985	-0.111315764
11	0x3c882a14	0.016621627
12	0x3d615ae4	0.05501832
13	0x3cf1f18b	0.029534122
14	0x3e09e604	0.1346665
15	0x3d0267de	0.031837337
16	0xbcca1f13	-0.02467302
17	0x3d3cb28b	0.04606871
18	0xbd04e51a	-0.03244505
19	0xbc52a0a0	-0.012855679
20	0x3b2c48f3	0.0026288598
21	0xbd165385	-0.036700744
22	0xbddbb5bf	-0.10728025
23	0x3db4f68c	0.088360876
24	0xbd0ee5da	-0.034887172
25	0x3d5d1b5b	0.053981166
26	0x3d997edd	0.074949004
27	0x3d2f259c	0.042760476
28	0x3c9d617f	0.019211529
29	0x3e2a4f83	0.16631894
30	0xbd30d36c	-0.043170378
31	0xbcca473a	-0.024692167
32	0xbdd4a69a	-0.10383339
33	0x3ce56e7b	0.028006783
34	0xbc47dd10	-0.0121987015
35	0x3d711cea	0.058865465
36	0x3de4ded3	0.11175313
37	0xbd410ffb	-0.04713438
38	0xbdc1757f	-0.09446239
39	0x3c02bd16	0.007979652
40	0x3e006faf	0.12542604
41	0xbdef4baa	-0.11684354
42	0x3db699f6	0.089160845
43	0x3da199c0	0.078906536
44	0x3d0b91ba	0.034074523
45	0x3d8f930b	0.07010468
46	0xbc64dbdc	-0.013968434
47	0x3e0dd570	0.13850951
48	0x3d38e25a	0.04513774
49	0xbd3e06e7	-0.0463933
50	0x3dff9537	0.12479632
51	0x3de6977b	0.11259361
52	0x3e15f16d	0.14642878
53	0xbcd38002	-0.025817875
54	0xbde36277	-0.11102765
55	0xbdd75767	-0.105147175
56	0x3df8a960	0.12141681
57	0x3e08de41	0.13366033
58	0xbde337e4	-0.11094645
59	0x3c40fa14	0.011778373
60	0xbde39af7	-0.111135416
61	0x3e032a86	0.1280919
62	0x3d67b627	0.0565702
63	0xbd1c0628	-0.03809181
64	0x3d261440	0.040546656
65	0xbe0cc874	-0.13748342
66	0xbccec529	-0.025240498
67	0xbd1e8da1	-0.038709287
68	0x3cbcc219	0.023041772
69	0x3d9a8d3d	0.0754647
70	0x3d04c899	0.032417867
71	0x3e132517	0.14369617
72	0xbd8f7527	-0.07004767
73	0x3dac926b	0.084263645
74	0x3dd57836	0.10423319
75	0xbaabbad5	-0.0013101945
76	0x3e28a34a	0.1646854
77	0xbe02ca15	-0.127724
78	0xbdb5ac76	-0.08870785
79	0x3e03621f	0.12830399
80	0x3de7ae83	0.11312582
81	0xbcd8a247	-0.026444567
82	0xbd703ce6	-0.058651827
83	0xbd1af2a9	-0.037829075
84	0xbc307f85	-0.0107725905
85	0xbddaf7f4	-0.106918246
86	0xbc5bdaf0	-0.013418898
87	0xbd9e184d	-0.07719479
88	0x3cc728a2	0.024311367
89	0xbdb2e8dd	-0.087358214
90	0x3dfe3eb8	0.124143064
91	0xbd6ab2e3	-0.057299506
92	0x3d4e3c59	0.05035052
93	0x3de67764	0.11253241
94	0xbdf69629	-0.120403595
95	0x3da4c89c	0.08046076
96	0xbdc7f402	-0.09763338
97	0xbbd54d5c	-0.006509466
98	0xbd4d207b	-0.050079804
99	0xbdc6b52b	-0.09702524
100	0x3d73c2c4	0.059511915
101	0xbd91544b	-0.07096156
102	0x3da3354b	0.07969149
103	0x3c64060b	0.013917456
104	0x3de7b6b0	0.11314142
105	0xbdb68863	-0.089127325
106	0x3e15c9eb	0.14627807
107	0x3df794fe	0.12088965
108	0x3c9c97c7	0.019115342
109	0x3e1db627	0.15401517
110	0xbd868f43	-0.06570294
111	0x3e235347	0.15949737
112	0x3cf72538	0.030169114
113	0x3d9cc0f3	0.0765399
114	0xbda5bf9e	-0.08093189
115	0xbdf8379c	-0.12119982
116	0xbd3a6cef	-0.045514043
117	0x3d8703bb	0.065925084
118	0xbd10164d	-0.035177518
119	0xbe4009fa	-0.18753806
120	0xbe2d8cf0	-0.16948295
121	0xbd9ab272	-0.07553567
122	0xbad97bc6	-0.0016592673
123	0xbd27f27a	-0.041002728
124	0x3c456f14	0.012050409
125	0x3e026aa4	0.12735993
126	0x3e0bfb1f	0.13670014
127	0x3d5936e8	0.05303088
128	0xbd279ff0	-0.040924013
129	0x3d79104e	0.060806565
130	0xbbb85053	-0.00562481
131	0xbdc982a4	-0.09839371
132	0x3deb2303	0.11481287
133	0x3d701493	0.05861337
134	0x3d206c76	0.039165936
135	0x3b76da6e	0.0037666815
136	0xbe0ebe78	-0.13939846
137	0x3dc50123	0.096193574
138	0xbd93274b	-0.07185229
139	0xbddb8b4c	-0.10719928
140	0xbde2d71e	-0.110761866
141	0xbc908f22	-0.017646376
142	0xbd3eeefa	-0.046614625
143	0xbdb53871	-0.08848656
144	0x3da09954	0.07841745
145	0xbdaf5dfc	-0.08562848
146	0x3d4d73df	0.05015933
147	0xbd82cd7c	-0.06386849
148	0x3dd5a432	0.104317084
149	0xbb5d3f41	-0.0033759626
150	0x3cbc95db	0.023020675
151	0xbb6175c1	-0.0034402462
152	0xbddcf33b	-0.1078858
153	0xbdd805da	-0.10547991
154	0xbc9ca7c1	-0.01912296
155	0xbd530f38	-0.051528186
156	0x3df2ebbc	0.11861369
157	0xbdf1b1db	-0.11801501
158	0x3db7ed4d	0.089808084
159	0x3d32060b	0.043462794
160	0xbe054fb6	-0.13018689
161	0x3d9f0102	0.07763864
162	0xbdd2ea21	-0.10298563
163	0x3d7594f0	0.05995649
164	0xbd77c3ea	-0.060489573
165	0x3dda38d5	0.10655371
166	0xbd9a995a	-0.07548781
167	0x3d1ca36a	0.03824178
168	0x3d21c7c1	0.03949714
169	0xbc6f468c	-0.014604222
170	0x3d8a68f6	0.06758301
171	0x3e075a40	0.13218021
172	0x3bfd7122	0.0077344337
173	0xbd1df8f0	-0.038567483
174	0x3e23b971	0.15988709
175	0x3a597d8e	0.0008296602
176	0xbd62b503	-0.055348407
177	0xbd666cc0	-0.056256056
178	0x3b843c47	0.004035506
179	0x3e05770a	0.13033691
180	0xbdc9207f	-0.09820651
181	0x3e0dc741	0.1384554
182	0xbdc05fb7	-0.09393256
183	0x3d7eb083	0.062180053
184	0x3da55641	0.08073092
185	0x3e173886	0.14767656
186	0x3cda31f8	0.026635155
187	0xbdd94016	-0.106079265
188	0xbcf52477	-0.029924614
189	0x3e0b5040	0.13604832
190	0x3dcc4ec2	0.09975959
191	0x3d372431	0.04471225
192	0x3c869b5b	0.016431501
193	0xbde7a31e	-0.11310409
194	0x3d7d26f5	0.06180473
195	0x3cc7b989	0.024380462
196	0xbd19ea55	-0.037576992
197	0xbd6f4d9e	-0.05842363
198	0xbdb4a332	-0.088201895
199	0xbc999933	-0.018749809

lstm.bias_hh_l0 f4 [200]
0	0x3dee2226	0.11627607
1	0x3df0f1f2	0.117648974
2	0xbd67cdba	-0.05659268
3	0xbd7dd02c	-0.061966106
4	0x3c8b43ac	0.017000042
5	0x3e03f7d7	0.12887512
6	0xbdca68f5	-0.098833
7	0xbb35e7e9	-0.0027756637
8	0xbd693474	-0.05693479
9	0x3e1b3b12	0.15159252
10	0xbdea7d79	-0.11449713
11	0xbd8640ca	-0.06555326
12	0x3d787264	0.060655966
13	0x3dd2a545	0.10285429
14	0xbe02f0ab	-0.1278712
15	0xbe0741ce	-0.13208696
16	0x3d1595d9	0.03651986
17	0xbc51a2ef	-0.012795194
18	0x3d6709f8	0.05640599
19	0xbd76d400	-0.060260773
20	0x3e06b6e3	0.13155703
21	0xbce092cb	-0.027413746
22	0xba2b5950	-0.0006536441
23	0x3d5326fc	0.05155085
24	0xbd8bf3a5	-0.06833581
25	0x3db18311	0.08667577
26	0x3e2fbebe	0.17162606
27	0x3cc242a0	0.02371341
28	0x3dca863b	0.09888884
29	0x3d2ce004	0.042205825
30	0x3e0f51ba	0.1399602
31	0x3d108225	0.035280365
32	0xbdaf40e5	-0.085572995
33	0xbddaabaa	-0.106772736
34	0xbdd53beb	-0.10411819
35	0x3b94b825	0.0045385533
36	0x3d5db719	0.054129694
37	0xbdebe855	-0.11518923
38	0xbcbe70f4	-0.02324722
39	0x3e002413	0.12513761
40	0x3e0b646e	0.1361253
41	0x3e05a263	0.13050227
42	0xbdd84522	-0.10560061
43	0x3e0d7b12	0.13816479
44	0x3dc8c7a7	0.09803706
45	0xbd91ed9a	-0.07125397
46	0x3d257395	0.04039343
47	0xbdd907de	-0.10597204
48	0xbc918670	-0.0177643
49	0xbd806a2f	-0.06270253
50	0x3e1af46b	0.151323
51	0xbd8897c4	-0.06669572
52	0xbe08345c	-0.13301224
53	0x3dc60e8a	0.09670742
54	0x3d363ebb	0.04449342
55	0x3dfb01dd	0.12256215
56	0x3db8ac24	0.09017208
57	0xbcc94080	-0.024566889
58	0x3e0f6301	0.1400261
59	0x3c55cfdb	0.013050045
60	0xbde9e014	-0.11419693
61	0x3d07ce66	0.03315582
62	0xbcb984a0	-0.022646248
63	0xbdbe9148	-0.09305054
64	0xbd9ebdb6	-0.07751028
65	0xbd74c52c	-0.05975835
66	0x3cc5c46f	0.024141518
67	0x3d8dabb5	0.06917516
68	0x3d93c348	0.07214981
69	0x3df004aa	0.117196396
70	0x3d50dd81	0.050992493
71	0x3e03ce94	0.12871772
72	0xbd87c634	-0.06629601
73	0x3c9b1a3d	0.01893341
74	0x3d217b3c	0.039424166
75	0x3cae4135	0.021271328
76	0x3d99ed5d	0.075159766
77	0xbce63cbb	-0.02810513
78	0x3d2f10f4	0.042740777
79	0x3e2741be	0.16333672
80	0xbd84a7b7	-0.064773016
81	0xbdecedbe	-0.11568783
82	0xbdf8e2cd	-0.12152634
83	0xbd2493f3	-0.040180158
84	0xbdda3bd4	-0.106559426
85	0x3cf43883	0.029812103
86	0x3e1c0ccc	0.15239257
87	0xbd144d14	-0.03620632
88	0xbd8b7b14	-0.06810585
89	0x3d314256	0.043276154
90	0xbca0735f	-0.019586263
91	0x3de1d76f	0.11027419
92	0x3da55b93	0.08074107
93	0xbd444392	-0.047916003
94	0xbcfd8a1a	-0.030949641
95	0x3df9357d	0.12168405
96	0xbe09e988	-0.13467991
97	0x3e0e368a	0.13887993
98	0x3df8dd62	0.121516004
99	0x3dacfa0f	0.084461324
100	0xbd56c45d	-0.05243336
101	0xbd0c288b	-0.034218352
102	0x3c867ffc	0.01641845
103	0xbe082721	-0.13296176
104	0x3df56663	0.11982419
105	0xbe26f6e2	-0.16305116
106	0x3e2de963	0.16983561
107	0x3c7489b6	0.014925411
108	0x3db54dd0	0.08852732
109	0x3d89d646	0.067303225
110	0xbdba169f	-0.09086346
111	0x3da4e8fb	0.0805225
112	0xbd46c04e	-0.04852324
113	0xbaf7690d	-0.0018875912
114	0xbbb7f079	-0.0056133834
115	0x3ce083f0	0.027406663
116	0xbd6f7a3b	-0.058466177
117	0xbe2586ac	-0.16164654
118	0x3d7310e2	0.059342273
119	0xbe861bac	-0.26192987
120	0x3c96da5f	0.018414674
121	0xbd74d73a	-0.05977557
122	0x3dd83ed9	0.10558862
123	0x3e229e33	0.1588066
124	0xbd0e5212	-0.034746237
125	0x3e24c8db	0.16092245
126	0x3df13eef	0.11779582
127	0x3d7228d7	0.05912098
128	0x3d9d3294	0.07675663
129	0xbdb2a113	-0.08722129
130	0xbd82db5a	-0.06389494
131	0xbdede81e	-0.116165385
132	0xbdd1e273	-0.1024827
133	0x3e359aed	0.17734881
134	0xbe0b43a1	-0.13600017
135	0xbe0015b2	-0.12508276
136	0xbd3cb031	-0.046066467
137	0xbd99fd67	-0.07519036
138	0xbdcb23b7	-0.099189214
139	0x3cc1dcce	0.023664858
140	0xbe09d1da	-0.13458958
141	0xbd845271	-0.06461037
142	0x3ce330a9	0.027733164
143	0xbe1cb93a	-0.15305033
144	0xbd0ed7ce	-0.034873776
145	0xbe10eb84	-0.14152342
146	0x3d70058b	0.058599036
147	0xbe13cee3	-0.1443439
148	0x3c71d571	0.014760361
149	0xbe0e2a11	-0.13883235
150	0x3d935d35	0.07195512
151	0x3df63c90	0.1202327
152	0xbd0fa90a	-0.035073318
153	0xbdb4aa81	-0.088215835
154	0xbdf018f4	-0.117235094
155	0x3de5ba07	0.112171225
156	0xbdc6ef37	-0.09713595
157	0xbcb10345	-0.021608004
158	0xbdf861ee	-0.121280536
159	0xbd707a35	-0.058710296
160	0x3dc23048	0.09481865
161	0x3d99890c	0.07496843
162	0x3da3374e	0.07969533
163	0x3d26b385	0.040698547
164	0xbdb5a784	-0.08869842
165	0xbcd3ee9c	-0.025870614
166	0xbd27c5ee	-0.040960245
167	0x3e25c180	0.16187096
168	0x3dba143f	0.09085893
169	0xbcb2221e	-0.021744784
170	0x3e4293f1	0.19001748
171	0x3babf925	0.005248206
172	0xbdd75d92	-0.10515894
173	0xbdf84e3a	-0.121242955
174	0xbd330466	-0.043705367
175	0x3da3ee20	0.08004403
176	0x3dd9c1d9	0.10632677
177	0xbc96373c	-0.018336885
178	0xbd5a58c0	-0.053307295
179	0x3e4a4a1f	0.19754837
180	0x3e09e315	0.13465531
181	0x3cba4d6a	0.022741992
182	0xbca0a895	-0.019611636
183	0xbd7ffc8a	-0.0624967
184	0xbcc290a9	-0.02375062
185	0x3e077ad1	0.13230444
186	0x3e07c597	0.13258968
187	0x3d3f36fe	0.046683304
188	0x3dfa49d2	0.12221111
189	0x3e0aca31	0.13553692
190	0xbd19e91e	-0.037575833
191	0xbce72497	-0.02821569
192	0xbcb0aa5c	-0.021565609
193	0x3ab56bb9	0.0013841308
194	0x3ab94371	0.0014134479
195	0x3b354a1a	0.0027662576
196	0x3cb3cb33	0.021947479
197	0x3e186e63	0.14885859
198	0xbd583a0b	-0.05278973
199	0x3ccba0ab	0.024856886

mambaLayer.A_log f4 [56, 16]
0	0x00000000	0.0
1	0x3f317218	0.6931472
2	0x3f8c9f54	1.0986123
3	0x3fb17218	1.3862944
4	0x3fce0210	1.609438
5	0x3fe55860	1.7917595
6	0x3ff91396	1.9459102
7	0x40051592	2.0794415
8	0x400c9f54	2.1972246
9	0x40135d8e	2.3025851
10	0x4019771e	2.3978953
11	0x401f08b6	2.4849067
12	0x40242821	2.5649493
13	0x4028e651	2.6390574
14	0x402d50b2	2.7080503
15	0x40317218	2.7725887
16	0x00000000	0.0
17	0x3f317218	0.6931472
18	0x3f8c9f54	1.0986123
19	0x3fb17218	1.3862944
20	0x3fce0210	1.609438
21	0x3fe55860	1.7917595
22	0x3ff91396	1.9459102
23	0x40051592	2.0794415
24	0x400c9f54	2.1972246
25	0x40135d8e	2.3025851
26	0x4019771e	2.3978953
27	0x401f08b6	2.4849067
28	0x40242821	2.5649493
29	0x4028e651	2.6390574
30	0x402d50b2	2.7080503
31	0x40317218	2.7725887
32	0x00000000	0.0
33	0x3f317218	0.6931472
34	0x3f8c9f54	1.0986123
35	0x3fb17218	1.3862944
36	0x3fce0210	1.609438
37	0x3fe55860	1.7917595
38	0x3ff91396	1.9459102
39	0x40051592	2.0794415
40	0x400c9f54	2.1972246
41	0x40135d8e	2.3025851
42	0x4019771e	2.3978953
43	0x401f08b6	2.4849067
44	0x40242821	2.5649493
45	0x4028e651	2.6390574
46	0x402d50b2	2.7080503
47	0x40317218	2.7725887
48	0x00000000	0.0
49	0x3f317218	0.6931472
50	0x3f8c9f54	1.0986123
51	0x3fb17218	1.3862944
52	0x3fce0210	1.609438
53	0x3fe55860	1.7917595
54	0x3ff91396	1.9459102
55	0x40051592	2.0794415
56	0x400c9f54	2.1972246
57	0x40135d8e	2.3025851
58	0x4019771e	2.3978953
59	0x401f08b6	2.4849067
60	0x40242821	2.5649493
61	0x4028e651	2.6390574
62	0x402d50b2	2.7080503
63	0x40317218	2.7725887
64	0x00000000	0.0
65	0x3f317218	0.6931472
66	0x3f8c9f54	1.0986123
67	0x3fb17218	1.3862944
68	0x3fce0210	1.609438
69	0x3fe55860	1.7917595
70	0x3ff91396	1.9459102
71	0x40051592	2.0794415
72	0x400c9f54	2.1972246
73	0x40135d8e	2.3025851
74	0x4019771e	2.3978953
75	0x401f08b6	2.4849067
76	0x40242821	2.5649493
77	0x4028e651	2.6390574
78	0x402d50b2	2.7080503
79	0x40317218	2.7725887
80	0x00000000	0.0
81	0x3f317218	0.6931472
82	0x3f8c9f54	1.0986123
83	0x3fb17218	1.3862944
84	0x3fce0210	1.609438
85	0x3fe55860	1.7917595
86	0x3ff91396	1.9459102
87	0x40051592	2.0794415
88	0x400c9f54	2.1972246
89	0x40135d8e	2.3025851
90	0x4019771e	2.3978953
91	0x401f08b6	2.4849067
92	0x40242821	2.5649493
93	0x4028e651	2.6390574
94	0x402d50b2	2.7080503
95	0x40317218	2.7725887
96	0x00000000	0.0
97	0x3f317218	0.6931472
98	0x3f8c9f54	1.0986123
99	0x3fb17218	1.3862944
100	0x3fce0210	1.609438
101	0x3fe55860	1.7917595
102	0x3ff91396	1.9459102
103	0x40051592	2.0794415
104	0x400c9f54	2.1972246
105	0x40135d8e	2.3025851
106	0x4019771e	2.3978953
107	0x401f08b6	2.4849067
108	0x40242821	2.5649493
109	0x4028e651	2.6390574
110	0x402d50b2	2.7080503
111	0x40317218	2.7725887
112	0x00000000	0.0
113	0x3f317218	0.6931472
114	0x3f8c9f54	1.0986123
115	0x3fb17218	1.3862944
116	0x3fce0210	1.609438
117	0x3fe55860	1.7917595
118	0x3ff91396	1.9459102
119	0x40051592	2.0794415
120	0x400c9f54	2.1972246
121	0x40135d8e	2.3025851
122	0x4019771e	2.3978953
123	0x401f08b6	2.4849067
124	0x40242821	2.5649493
125	0x4028e651	2.6390574
126	0x402d50b2	2.7080503
127	0x40317218	2.7725887
128	0x00000000	0.0
129	0x3f317218	0.6931472
130	0x3f8c9f54	1.0986123
131	0x3fb17218	1.3862944
132	0x3fce0210	1.609438
133	0x3fe55860	1.7917595
134	0x3ff91396	1.9459102
135	0x40051592	2.0794415
136	0x400c9f54	2.1972246
137	0x40135d8e	2.3025851
138	0x4019771e	2.3978953
139	0x401f08b6	2.4849067
140	0x40242821	2.5649493
141	0x4028e651	2.6390574
142	0x402d50b2	2.7080503
143	0x40317218	2.7725887
144	0x00000000	0.0
145	0x3f317218	0.6931472
146	0x3f8c9f54	1.0986123
147	0x3fb17218	1.3862944
148	0x3fce0210	1.609438
149	0x3fe55860	1.7917595
150	0x3ff91396	1.9459102
151	0x40051592	2.0794415
152	0x400c9f54	2.1972246
153	0x40135d8e	2.3025851
154	0x4019771e	2.3978953
155	0x401f08b6	2.4849067
156	0x40242821	2.5649493
157	0x4028e651	2.6390574
158	0x402d50b2	2.7080503
159	0x40317218	2.7725887
160	0x00000000	0.0
161	0x3f317218	0.6931472
162	0x3f8c9f54	1.0986123
163	0x3fb17218	1.3862944
164	0x3fce0210	1.609438
165	0x3fe55860	1.7917595
166	0x3ff91396	1.9459102
167	0x40051592	2.0794415
168	0x400c9f54	2.1972246
169	0x40135d8e	2.3025851
170	0x4019771e	2.3978953
171	0x401f08b6	2.4849067
172	0x40242821	2.5649493
173	0x4028e651	2.6390574
174	0x402d50b2	2.7080503
175	0x40317218	2.7725887
176	0x00000000	0.0
177	0x3f317218	0.6931472
178	0x3f8c9f54	1.0986123
179	0x3fb17218	1.3862944
180	0x3fce0210	1.609438
181	0x3fe55860	1.7917595
182	0x3ff91396	1.9459102
183	0x40051592	2.0794415
184	0x400c9f54	2.1972246
185	0x40135d8e	2.3025851
186	0x4019771e	2.3978953
187	0x401f08b6	2.4849067
188	0x40242821	2.5649493
189	0x4028e651	2.6390574
190	0x402d50b2	2.7080503
191	0x40317218	2.7725887
192	0x00000000	0.0
193	0x3f317218	0.6931472
194	0x3f8c9f54	1.0986123
195	0x3fb17218	1.3862944
196	0x3fce0210	1.609438
197	0x3fe55860	1.7917595
198	0x3ff91396	1.9459102
199	0x40051592	2.0794415
200	0x400c9f54	2.1972246
201	0x40135d8e	2.3025851
202	0x4019771e	2.3978953
203	0x401f08b6	2.4849067
204	0x40242821	2.5649493
205	0x4028e651	2.6390574
206	0x402d50b2	2.7080503
207	0x40317218	2.7725887
208	0x00000000	0.0
209	0x3f317218	0.6931472
210	0x3f8c9f54	1.0986123
211	0x3fb17218	1.3862944
212	0x3fce0210	1.609438
213	0x3fe55860	1.7917595
214	0x3ff91396	1.9459102
215	0x40051592	2.0794415
216	0x400c9f54	2.1972246
217	0x40135d8e	2.3025851
218	0x4019771e	2.3978953
219	0x401f08b6	2.4849067
220	0x40242821	2.5649493
221	0x4028e651	2.6390574
222	0x402d50b2	2.7080503
223	0x40317218	2.7725887
224	0x00000000	0.0
225	0x3f317218	0.6931472
226	0x3f8c9f54	1.0986123
227	0x3fb17218	1.3862944
228	0x3fce0210	1.609438
229	0x3fe55860	1.7917595
230	0x3ff91396	1.9459102
231	0x40051592	2.0794415
232	0x400c9f54	2.1972246
233	0x40135d8e	2.3025851
234	0x4019771e	2.3978953
235	0x401f08b6	2.4849067
236	0x40242821	2.5649493
237	0x4028e651	2.6390574
238	0x402d50b2	2.7080503
239	0x40317218	2.7725887
240	0x00000000	0.0
241	0x3f317218	0.6931472
242	0x3f8c9f54	1.0986123
243	0x3fb17218	1.3862944
244	0x3fce0210	1.609438
245	0x3fe55860	1.7917595
246	0x3ff91396	1.9459102
247	0x40051592	2.0794415
248	0x400c9f54	2.1972246
249	0x40135d8e	2.3025851
250	0x4019771e	2.3978953
251	0x401f08b6	2.4849067
252	0x40242821	2.5649493
253	0x4028e651	2.6390574
254	0x402d50b2	2.7080503
255	0x40317218	2.7725887

mambaLayer.D f4 [56]
0	0x3f8046ff	1.0021666
1	0x3f7ff57c	0.99983954
2	0x3f7e1c68	0.99262094
3	0x3f81bd35	1.0135866
4	0x3f8139de	1.0095785
5	0x3f7fc16f	0.9990453
6	0x3f7fcb38	0.9991946
7	0x3f7efed9	0.99607617
8	0x3f82a9ab	1.0208029
9	0x3f800519	1.0001556
10	0x3f7ff289	0.99979454
11	0x3f87b912	1.0603354
12	0x3f7fee57	0.9997305
13	0x3f81a310	1.0127888
14	0x3f80071b	1.0002168
15	0x3f818387	1.0118264
16	0x3f9b3330	1.2124996
17	0x3f7fc6d8	0.99912786
18	0x3f8ad002	1.0844729
19	0x3f7f5224	0.9973471
20	0x3f802003	1.0009769
21	0x3f7fe96b	0.9996554
22	0x3f8494b9	1.0357887
23	0x3f7ee9ab	0.995753
24	0x3f806abd	1.0032574
25	0x3f7ff813	0.99987906
26	0x3f802da9	1.0013934
27	0x3f7e4cca	0.9933592
28	0x3f804e90	1.0023975
29	0x3f811e3f	1.0087355
30	0x3f8d7f2c	1.1054435
31	0x3f817f4f	1.0116976
32	0x3f80733f	1.003517
33	0x3f800e79	1.0004417
34	0x3f80ceef	1.0063151
35	0x3f811fc6	1.0087821
36	0x3f811671	1.0084974
37	0x3f7dd26c	0.99149203
38	0x3f7fe94e	0.9996537
39	0x3f8014e3	1.0006374
40	0x3f7fcc35	0.9992097
41	0x3f805489	1.0025798
42	0x3f80b0b1	1.0053922
43	0x3f7f5ad0	0.99747944
44	0x3f7feb37	0.99968284
45	0x3f809188	1.0044413
46	0x3f800a32	1.0003111
47	0x3f805a6f	1.0027598
48	0x3f81c903	1.0139469
49	0x3f81c61e	1.0138586
50	0x3f7ffe25	0.9999717
51	0x3f801cd8	1.0008802
52	0x3f8efea1	1.1171457
53	0x3f8099d0	1.004694
54	0x3f800009	1.0000011
55	0x3f95ed8e	1.1713121

mambaLayer.in_proj.weight f4 [112, 56]
0	0x3dc135d1	0.09434093
1	0x3c8b4cbd	0.017004365
2	0x3dbde928	0.09272987
3	0xbd7fd2ff	-0.06245708
4	0xbcdefab5	-0.027219156
5	0xbd2b77bc	-0.041862234
6	0xbd364130	-0.04449576
7	0x3da5621e	0.08075355
8	0xbd92a039	-0.07159466
9	0xbd96b7b8	-0.0735926
10	0x3c067043	0.008205476
11	0xbdcc8035	-0.09985391
12	0x3d409337	0.047015395
13	0xbda5346a	-0.08066638
14	0x3d56ca7d	0.0524392
15	0x3d68389d	0.056694616
16	0x3dfa2d57	0.12215679
17	0x3dc94de7	0.09829312
18	0x3deaa11b	0.1145651
19	0xbd792eb1	-0.060835544
20	0xbd700c26	-0.058605336
21	0xbd34b48c	-0.044117495
22	0xbd23f024	-0.040023938
23	0xbe049ee5	-0.12951238
24	0xbd80d495	-0.06290547
25	0xbc61d05a	-0.013782585
26	0xbd3d8d06	-0.04627707
27	0xbd2a0ef6	-0.041518174
28	0x3da595bc	0.080852
29	0x3c0ba484	0.00852311
30	0xbddd0b50	-0.10793173
31	0x3da075bb	0.07834955
32	0x3dea4320	0.11438584
33	0x3ce30ba2	0.027715508
34	0xbd9e51c4	-0.07730439
35	0xbdd14190	-0.10217583
36	0xbcfa7a6e	-0.030575957
37	0xbdce7538	-0.100809515
38	0xbd7f4017	-0.06231698
39	0xbddda173	-0.108218096
40	0x3cf626d9	0.03004782
41	0x3d5e94bd	0.054341067
42	0x3df4dd10	0.11956227
43	0xbda0746d	-0.078347065
44	0x3e0682a0	0.13135767
45	0xbdc1ba75	-0.09459392
46	0xbd184fe9	-0.037185583
47	0x3da5b741	0.080915935
48	0x3dfeb48a	0.12436779
49	0x3d9e1c6d	0.077202655
50	0x3d25301f	0.040329095
51	0x3d820e9d	0.063504435
52	0xbdbf2602	-0.09333421
53	0x3dd39280	0.10330677
54	0xbdec217f	-0.115298264
55	0xbd2386da	-0.039923526
56	0xbd301309	-0.042986903
57	0xbdff8463	-0.12476423
58	0xba7009c6	-0.000915673
59	0xbdcd57be	-0.10026501
60	0x3ddaca59	0.10683126
61	0x3dd4c7f5	0.10389701
62	0x3dc4dccb	0.096124254
63	0x3e032d0a	0.1281015
64	0xbdd32a19	-0.10310764
65	0x3c8c9b26	0.017163824
66	0x3ccf316a	0.025292117
67	0x3d781dba	0.060575224
68	0x3d5f0f48	0.054457933
69	0x3df88dca	0.12136419
70	0xbd40fa88	-0.047113925
71	0xbdb513c8	-0.088416636
72	0xbdbe01e3	-0.092777036
73	0xbd66d278	-0.056353062
74	0xbda725be	-0.081614956
75	0xbd21a21e	-0.039461248
76	0xbe036636	-0.12831959
77	0xbdd28a59	-0.10280294
78	0x3dbefc56	0.09325473
79	0xbd7580c7	-0.059937265
80	0x3e0464af	0.12929033
81	0x3da5b23d	0.08090637
82	0x3d2889f2	0.04114718
83	0x3db45271	0.08804787
84	0xbdbaae1a	-0.091152385
85	0x3b8162df	0.003948554
86	0xbdb2d993	-0.08732905
87	0x3cb9a3cd	0.022661114
88	0xbda90478	-0.082528055
89	0xbd8de16f	-0.06927764
90	0xbd1de1e8	-0.03854552
91	0xbd8d433f	-0.06897592
92	0x3dfdce65	0.12392882
93	0x3d116b62	0.0355028
94	0xbda12c51	-0.07869781
95	0xbd5794ed	-0.05263226
96	0x3ddc1b96	0.10747449
97	0x3dfc174d	0.12309132
98	0x3c40a104	0.011757139
99	0xbdb403a3	-0.08789756
100	0x3d8df83a	0.06932111
101	0xbd1170ed	-0.035508085
102	0xbdd424c1	-0.10358573
103	0xbd89aac8	-0.06722027
104	0x3dc1794a	0.09446962
105	0x3d8452eb	0.06461128
106	0xbcd33bf3	-0.025785422
107	0xbc5d703b	-0.013515527
108	0xbd5a4c64	-0.053295508
109	0xbd109548	-0.035298616
110	0xbe02b64b	-0.12764852
111	0xbe01d8ff	-0.12680434
112	0x3da8b0e7	0.082368664
113	0x3de9c9ef	0.11415469
114	0x3d0403c0	0.03223014
115	0x3dcdd3a8	0.10050136
116	0xbcd0a9da	-0.025471617
117	0x3de5c0af	0.11218392
118	0xbdef23b6	-0.11676733
119	0x3e082c2b	0.13298099
120	0xbd3d682b	-0.04624192
121	0x3dfdff5a	0.1240222
122	0x3ded17f2	0.11576833
123	0x3d5c701a	0.053817846
124	0xbd1c804a	-0.038208283
125	0x3c917b19	0.017758893
126	0xbe00d41f	-0.12580918
127	0x3d68aef6	0.05680748
128	0x3de6968f	0.112591855
129	0xbd8bd21c	-0.068271846
130	0x3d3f48ff	0.046700474
131	0x3dd1a30a	0.10236175
132	0xbca33520	-0.019922793
133	0x3d35ae2e	0.044355564
134	0xbd636811	-0.055519167
135	0x3ba0dbf5	0.0049090334
136	0xbd704562	-0.05865992
137	0xbbf79d9c	-0.0075566303
138	0x3d88d3ef	0.06681048
139	0x3d90a5a6	0.07062845
140	0xbda22802	-0.07917787
141	0x3d7671d3	0.060167145
142	0x3e010689	0.12600149
143	0xbdbf955a	-0.093546584
144	0xbd192573	-0.03738923
145	0x3d5bb2ae	0.0536372
146	0x3d116e06	0.035505317
147	0x3d334437	0.043766227
148	0x3ca3d1d2	0.019997511
149	0xbd979ab9	-0.07402558
150	0x3baf19d9	0.0053436575
151	0xbd97be5d	-0.07409356
152	0xbd2f60d3	-0.04281695
153	0x3d626fca	0.05528239
154	0x3cf901f5	0.030396441
155	0x3d7b2eca	0.06132392
156	0x3ce9b7c7	0.028530015
157	0x3de5d049	0.11221368
158	0xbe03e132	-0.12878874
159	0xbdaea6ba	-0.08527894
160	0xbe0240c6	-0.12720022
161	0x3db38ef2	0.08767499
162	0xbdf6b7ba	-0.12046762
163	0xbd60031f	-0.054690477
164	0xbdb680bf	-0.08911275
165	0x3dff595b	0.12468215
166	0xbd631007	-0.055435207
167	0x3d8355c6	0.06412844
168	0x3ddebd4a	0.10875948
169	0x3d95d6df	0.07316374
170	0xbd66945e	-0.056293838
171	0x3bd432db	0.006475789
172	0xbca44bc7	-0.020055665
173	0xbd7c98e3	-0.06166924
174	0xbc6aff8e	-0.014343156
175	0x3df87a5c	0.12132713
176	0xbcfbc05f	-0.030731378
177	0x3dee8da9	0.11648113
178	0xbd9f0a07	-0.077655844
179	0xbdc3010c	-0.09521684
180	0x3bb2857d	0.005448042
181	0x3dfdd829	0.12394745
182	0x3d95ae08	0.073085845
183	0x3dd1663e	0.10224579
184	0xbce58fd8	-0.028022692
185	0xbbb6c5c4	-0.0055777747
186	0xbdea1309	-0.11429412
187	0xbdc6a500	-0.0969944
188	0xbdc049fc	-0.093891114
189	0xbdb8b70c	-0.090192884
190	0x3d9b879d	0.075942256
191	0xbbdae353	-0.006679931
192	0xbd6eb2bb	-0.05827592
193	0x3c16b312	0.009197967
194	0xbd8e4785	-0.06947235
195	0xbdc0d82a	-0.0941623
196	0x3d31dc35	0.043422896
197	0xbc53ef4c	-0.012935471
198	0x3db2871b	0.087171756
199	0x3db6819f	0.08911442
200	0xbc8dd2d2	-0.017312441
201	0xbd1cf71f	-0.03832161
202	0xbd4324ca	-0.047642507
203	0x3d43e294	0.047823504
204	0xbcb377c3	-0.021907693
205	0x3dd579e3	0.10423639
206	0xbd0c98e3	-0.03432549
207	0x3dd9f91d	0.10643218
208	0x3d55b44b	0.052173894
209	0x3b54f802	0.0032496457
210	0xbdfa04be	-0.12207936
211	0xbc4cea92	-0.012507098
212	0xbcfe002c	-0.031005941
213	0x3db83b1b	0.089956485
214	0xbd92a749	-0.07160813
215	0x3cf4b6f7	0.0298724
216	0xbd9cc021	-0.07653833
217	0x3e06a275	0.1314791
218	0x3de8f456	0.113747284
219	0x3d72481a	0.059150793
220	0xbdd67156	-0.10470836
221	0xbd4fac5e	-0.05070149
222	0xbde601b9	-0.11230797
223	0x3d587e51	0.05285484
224	0xbc2a17fe	-0.010381697
225	0x3cb1075d	0.021609956
226	0x3d10027c	0.03515862
227	0x3d7bd82e	0.061485462
228	0xbceacc34	-0.028661825
229	0x3e0166dd	0.12636895
230	0xbdba8746	-0.091078326
231	0xbda5ede3	-0.08102014
232	0xbd24fe9b	-0.040281873
233	0xbdae439a	-0.08508988
234	0xbde5f91c	-0.112291545
235	0x3e049694	0.12948066
236	0x3c7cb928	0.015425004
237	0xbcf249c3	-0.029576188
238	0x3da52df1	0.08065403
239	0xbe035b17	-0.12827717
240	0x3d2062da	0.039156772
241	0xbdeca796	-0.11555402
242	0xbda0ab49	-0.0784517
243	0xbd9d6bdd	-0.07686589
244	0x3ccbd5c3	0.024882203
245	0xbd2d2626	-0.04227271
246	0xbd5f66d7	-0.054541435
247	0xbda4b44d	-0.08042202
248	0x3dda51a8	0.10660106
249	0x3d9f4dad	0.07778487
250	0x3d09ed45	0.033673543
251	0x3d326ecb	0.04356269
252	0x3cf4fc3a	0.029905427
253	0x3e01d73a	0.12679759
254	0x3d54ac5e	0.051922195
255	0x3dcc6c4e	0.09981595

mambaLayer.conv1d.weight f4 [56, 1, 4]
0	0x3e94f964	0.2909652
1	0x3eb9aa1a	0.3626259
2	0x3ea43582	0.32072073
3	0x3d5877af	0.052848514
4	0xbd9dc578	-0.0770368
5	0xbdb21dd8	-0.086970985
6	0x3e63c5c0	0.22243404
7	0xbc402a85	-0.011728887
8	0xbe6f3c34	-0.2336281
9	0xbe4bfba8	-0.19920218
10	0xbe72ec34	-0.23722917
11	0x3cbbcb15	0.022923985
12	0xbecf65c6	-0.40507334
13	0xbe356e6c	-0.17717904
14	0xbeed9ffa	-0.46411115
15	0xbd2e6e81	-0.042585853
16	0xbd82d658	-0.06388539
17	0xbefbec10	-0.4920354
18	0xbe379050	-0.17926145
19	0x3db8b0ad	0.09018073
20	0xbe0dd374	-0.13850194
21	0xbe2f9d6c	-0.17149895
22	0xbe3158ac	-0.17318982
23	0x3eaf8766	0.34282988
24	0xbe9ac242	-0.30226332
25	0xbec84506	-0.3911516
26	0x3efb984e	0.49139637
27	0x3ee3f149	0.44520023
28	0x3db9ff30	0.09081876
29	0x3e72a3b0	0.23695254
30	0x3ed937d8	0.42425418
31	0xbe91d423	-0.2848216
32	0xbdf840e0	-0.12121749
33	0xbeac6c44	-0.3367635
34	0x3dbce6c8	0.092237055
35	0x3e6a7121	0.22894718
36	0x3ef44d36	0.47715157
37	0xbea7a13e	-0.32740206
38	0xbec181c2	-0.3779431
39	0xbe8419ff	-0.25801083
40	0x3e298c9c	0.16557544
41	0xbeae9a0c	-0.34101903
42	0xbe6f08f0	-0.23343253
43	0x3ea929f4	0.3303982
44	0x3ef83abe	0.48482317
45	0xbe569d80	-0.20958519
46	0x3ea9e944	0.3318578
47	0x3e0c3d05	0.13695152
48	0xbec7a684	-0.3899423
49	0xbd431f30	-0.047637165
50	0xbde5b4e8	-0.11216146
51	0x3e9bf270	0.30458403
52	0xbdb93780	-0.09043789
53	0xbe26afe4	-0.16278034
54	0x3e1bc5d4	0.15212184
55	0x3e2cb9bf	0.16867732
56	0xbe765974	-0.24057561
57	0xbd9c3380	-0.0762701
58	0x3e86b7da	0.26312143
59	0x3dc6418f	0.09680473
60	0x3e4f3424	0.20234734
61	0xbe05de10	-0.13072991
62	0x3ee249f4	0.44197047
63	0xbe18aa6b	-0.1490876
64	0x3ee74eae	0.45177215
65	0x3ec5b752	0.38616425
66	0xbeffb026	-0.49939078
67	0x3f914d24	1.1351666
68	0x3e456778	0.19277751
69	0xbe942528	-0.28934598
70	0xbcb0a120	-0.021561205
71	0xbdd5282b	-0.10408052
72	0x3ed3cbba	0.4136637
73	0xbe50d648	-0.20394242
74	0x3e7f7b50	0.24949384
75	0xbe66f933	-0.22556
76	0x3d457480	0.048206806
77	0x3cb946c0	0.022616744
78	0xbea04798	-0.31304622
79	0xbda44d98	-0.08022612
80	0xbecc28ac	-0.3987478
81	0xbe439af8	-0.19102085
82	0xbde1f2b0	-0.11032617
83	0xbee61d0f	-0.44944045
84	0xbe082444	-0.13295084
85	0xbcf0ba40	-0.029385686
86	0xbe811284	-0.2520944
87	0xbe217601	-0.15767671
88	0x3eea6ab0	0.4578452
89	0x3cec10c0	0.02881658
90	0x3c394740	0.011308491
91	0xbe87632f	-0.2644286
92	0x3e07eb94	0.1327346
93	0xbe721318	-0.23640096
94	0x3eed32a8	0.4632771
95	0xbe51d6f3	-0.20492153
96	0x3ec47e4e	0.38377613
97	0x3e5401a8	0.20703757
98	0x3ef9183c	0.48651302
99	0x3ef841fe	0.48487848
100	0x3ee7575e	0.45183843
101	0x3e6be290	0.23035645
102	0xbdafb4e0	-0.08579421
103	0xbeab505f	-0.33459756
104	0xbe76ce7c	-0.24102205
105	0x3e11fb3c	0.14255995
106	0xbee1b46a	-0.44082958
107	0x3edb4e05	0.42832962
108	0xbd1fc290	-0.03900391
109	0x3d65c930	0.05610007
110	0xbe87223e	-0.26393312
111	0x3e212be0	0.15739393
112	0xbd647e90	-0.055784762
113	0x3e90d324	0.28286088
114	0xbdb67368	-0.08908731
115	0xbe83997c	-0.25703037
116	0xbed96c7a	-0.42465574
117	0xbe116d9c	-0.14201969
118	0xbe96673a	-0.2937563
119	0x3bd4a34f	0.0064891945
120	0xbbfa1580	-0.0076319575
121	0xbeca4e7a	-0.39512998
122	0xbec2457a	-0.3794363
123	0x3ee9da8d	0.45674554
124	0x3d92dcd8	0.07171029
125	0x3e75c984	0.24002653
126	0xbd1a0560	-0.037602782
127	0xbeb14a2d	-0.34626904
128	0xbebe38be	-0.37152666
129	0x3e8429a0	0.25813007
130	0x3e48cbb4	0.19608957
131	0xbe9e0a09	-0.3086703
132	0xbe1b2d7c	-0.1515407
133	0xbe0004e8	-0.12501872
134	0xbe8a52d6	-0.27016324
135	0x3dffcdec	0.12490448
136	0x3dbf58f0	0.09343135
137	0x3e97c5be	0.29643053
138	0xbe0a09d8	-0.13480318
139	0x3d7df66c	0.062002584
140	0xbe4b78cc	-0.19870299
141	0x3e597890	0.21237397
142	0x3ec80382	0.39065176
143	0xbb797d57	-0.0038069093
144	0xbe969ed2	-0.29418045
145	0xbe369154	-0.17828876
146	0xbe394c74	-0.18095571
147	0x3e49c8c4	0.19705492
148	0x3c83e660	0.016101062
149	0xbe74f2a4	-0.23920685
150	0xbe952116	-0.29126805
151	0xbece5ce6	-0.4030525
152	0x3ec6e004	0.38842785
153	0xbd82f3e0	-0.06394172
154	0x3ed47c26	0.41500968
155	0xbc9ce4ac	-0.019152008
156	0x3ebbadc0	0.36655998
157	0x3dc36060	0.095398664
158	0xbef18440	-0.4717121
159	0xbe353790	-0.17696977
160	0x3ee0cc22	0.4390574
161	0xbc84f9e0	-0.016232431
162	0xbe52427c	-0.20533174
163	0xbdaf8570	-0.08570373
164	0x3d044cd0	0.032299817
165	0x3ebbca4c	0.36677778
166	0xbe8170ea	-0.2528146
167	0x3ed0ba50	0.40767145
168	0xbeef2ebe	-0.4671535
169	0x3e973ec4	0.29540074
170	0xbefde762	-0.49590594
171	0x3e944b24	0.28963578
172	0x3d74c350	0.059756577
173	0x3da6acc0	0.08138418
174	0xbd2b01d0	-0.041749775
175	0xbebaad7b	-0.3646048
176	0xbd99c118	-0.07507533
177	0x3e698610	0.22805047
178	0x3e8eab80	0.2786522
179	0xbd27766c	-0.04088442
180	0xbcfc2ae0	-0.030782163
181	0xbe7c9bcc	-0.24668807
182	0x3e9b39b2	0.30317456
183	0x3e86543e	0.26236147
184	0x3e641110	0.22272134
185	0xbee6595c	-0.4499005
186	0xbe7f8c58	-0.2495588
187	0x3dcc1c45	0.099663295
188	0x3ea40b56	0.320399
189	0xbe622624	-0.22084862
190	0xbd7fed40	-0.06248212
191	0xbea7d511	-0.32779744
192	0x3d92bf18	0.071653545
193	0xbea714b0	-0.3263297
194	0x3eb1b970	0.3471179
195	0xbeb96f64	-0.36217797
196	0x3da61898	0.0811016
197	0x3e4c3514	0.19942123
198	0x3c428480	0.011872411
199	0xbdfd3b5c	-0.123648375
200	0xbc8dd280	-0.017312288
201	0x3d982780	0.07429409
202	0xbe5b32b8	-0.21406066
203	0x3d17debc	0.03707765
204	0x3a916a00	0.0011094213
205	0x3c091780	0.008367419
206	0x3eaf71dc	0.34266555
207	0x3ee3b8df	0.44476983
208	0x3e01ec3c	0.12687773
209	0xbec60228	-0.3867352
210	0xbef30bf4	-0.47470057
211	0xbf109b42	-0.56486905
212	0x3ed87e1a	0.42283708
213	0xbe4ed874	-0.20199758
214	0xbe390204	-0.18067175
215	0x3efb040f	0.49026534
216	0xbefd630c	-0.4948963
217	0xbdaad5b0	-0.08341539
218	0x3d88c8c0	0.06678915
219	0xbea6b664	-0.32561028
220	0xbe5357fc	-0.20639032
221	0x3d8010c8	0.06253201
222	0x3ceabc00	0.028654099
223	0xbf0ccfd9	-0.5500465

mambaLayer.conv1d.bias f4 [56]
0	0xbdbbc76f	-0.09168898
1	0xbeaddebe	-0.33959
2	0x3e9d2e0e	0.306992
3	0x3ee4d255	0.4469172
4	0xbeea23af	-0.4573035
5	0x3ede9e79	0.4348028
6	0x3e2f7fc2	0.1713858
7	0x3e75c116	0.23999438
8	0xbeccd83e	-0.4000873
9	0x3d4237b4	0.047416404
10	0x3db62dca	0.08895452
11	0x3f2424e5	0.64118797
12	0xbe0fc043	-0.14038186
13	0xbe5fd921	-0.21860172
14	0x3dd4f3a5	0.10398034
15	0x3ea46d84	0.32114804
16	0xbe9f83f9	-0.31155375
17	0xbd5e3e9f	-0.05425894
18	0x3f2286c6	0.634869
19	0x3e1b048f	0.15138458
20	0x3ee48c2e	0.446382
21	0xbe8f3d05	-0.27976242
22	0x3ef00814	0.46881163
23	0x3ebdbeb3	0.37059554
24	0x3e3a9761	0.18221809
25	0x3da95b74	0.082693964
26	0xbea35a60	-0.31904888
27	0x3e8b1250	0.2716241
28	0xbe7a2ef3	-0.24431972
29	0x3ecc988e	0.3996014
30	0x3f121ec0	0.5707817
31	0xbe05ad18	-0.13054311
32	0x3ee3742b	0.44424567
33	0x3dbf0611	0.09327329
34	0x3e61c710	0.22048593
35	0x3edaded9	0.42748144
36	0xbe52dbf1	-0.20591713
37	0x3e312550	0.1729939
38	0x3c720292	0.014771121
39	0xbd6a7d6f	-0.05724853
40	0x3d9b160d	0.07572565
41	0x3e96eaed	0.2947611
42	0xbe95fe34	-0.29295504
43	0xbec609f4	-0.3867947
44	0x3d45ed2b	0.048321884
45	0x3e4ba211	0.19886042
46	0x3ed50f58	0.4161327
47	0xbecbd896	-0.3981368
48	0xbe69ae04	-0.22820288
49	0x3ef51604	0.4786836
50	0x3c0513a2	0.008122357
51	0xbe72c720	-0.23708773
52	0x3f1418cd	0.57850343
53	0xbe79984c	-0.24374503
54	0x3d72bbcc	0.05926113
55	0x3f25ee10	0.6481638
