crowd_nav/data/lstm-mamba/rl_model.pth (torch, 95558 bytes, 13 tensors)

lstm.weight_ih_l0 f4 [200, 13]
0	0x3dfa62a4	0.122258455
1	0x3cb367fe	0.021900173
2	0xbb007303	-0.0019599802
3	0x3b956567	0.0045592072
4	0xbd0cbab3	-0.034357738
5	0x3dcb8842	0.099380985
6	0xbd4fee51	-0.050764386
7	0x3ccd8992	0.025090013
8	0x3dacd570	0.084391475
9	0xbe035ae3	-0.1282764
10	0xbd954fb3	-0.07290592
11	0x3dd44dac	0.10366377
12	0x3de1c4a8	0.11023837
13	0xbd91f5d5	-0.07126967
14	0x3e13d7f8	0.14437854
15	0xbd1d8ccf	-0.038464364
16	0x3ce15745	0.027507434
17	0x3cc91e10	0.024550468
18	0x3d91063c	0.07081267
19	0x3db95bf5	0.090507425
20	0x3dda12e3	0.106481336
21	0x3b405193	0.0029345497
22	0x3de2a795	0.1106712
23	0x3e11b3af	0.142287
24	0x3d8c1041	0.06839038
25	0xbd16ef86	-0.03684952
26	0xbe12edcb	-0.14348523
27	0x3d8e965a	0.06962271
28	0x3da01370	0.078162074
29	0xbcf812de	-0.030282434
30	0x3dcab79f	0.09898304
31	0x3d224563	0.039616954
32	0x3e16cca3	0.147265
33	0x3deb0201	0.114749916
34	0x3c246d34	0.010035802
35	0xbc1a9131	-0.00943403
36	0x3c97541b	0.018472722
37	0x3d7eaaa4	0.062174454
38	0xbdb22bca	-0.08699758
39	0x3e21e430	0.15809703
40	0x3de7617c	0.112978905
41	0x3d05e9f4	0.03269382
42	0x3e121578	0.14266002
43	0x3deeeeeb	0.11666664
44	0x3bcd1508	0.0062586106
45	0x3da6f00b	0.08151253
46	0xbe40968f	-0.18807434
47	0x3d8a53df	0.067542784
48	0x3d9e2b69	0.077231236
49	0x3d17e75e	0.037085883
50	0xbd24d02d	-0.040237594
51	0xbdd69321	-0.10477281
52	0xbd8aed90	-0.06783593
53	0xbd8329de	-0.0640447
54	0x3defc6c2	0.11707832
55	0xbcd740cb	-0.026276013
56	0x3dd78751	0.105238564
57	0x3d986087	0.07440286
58	0x3c22f84e	0.009946896
59	0x3db90117	0.09033411
60	0xbbca7188	-0.0061780848
61	0x3e0c48a6	0.13699588
62	0x3dde27e4	0.10847452
63	0x3e1c0b86	0.15238771
64	0x3daa51ff	0.08316421
65	0x3dcd4708	0.10023314
66	0x3defdefc	0.11712453
67	0x3e104a22	0.1409078
68	0xbd335eb7	-0.0437915
69	0xbcfebce3	-0.031095928
70	0xbdf7f0d0	-0.12106478
71	0xbd901285	-0.07034782
72	0xbdcab3e1	-0.098975904
73	0xbdac7f27	-0.0842269
74	0xbc7dd39c	-0.015492346
75	0xbd7fa4a0	-0.062412858
76	0xbded6340	-0.11591196
77	0x3dee4338	0.11633915
78	0x3c18b5a9	0.009320655
79	0x3da7a767	0.08186226
80	0xbdfad021	-0.12246729
81	0x3d849f3a	0.064756826
82	0xbdfa84f4	-0.1223239
83	0xbdd5112f	-0.10403668
84	0x3e891560	0.2677412
85	0x3e08b889	0.13351645
86	0x3e3bec26	0.18351802
87	0x3d99c1c5	0.07507662
88	0x3df664bc	0.12030932
89	0x3cb25d49	0.021772997
90	0xbd83924e	-0.0642439
91	0xbdb16ff3	-0.08663931
92	0xbd8ff9e3	-0.07030084
93	0x3dc9898b	0.09840687
94	0x3cd8198f	0.026379375
95	0x3bb655b0	0.005564414
96	0x3c6bfe86	0.014403945
97	0x3dd8deec	0.10589394
98	0x3a9fd594	0.0012194389
99	0x3c66046a	0.014039138
100	0xbd33eaec	-0.04392521
101	0xbd29e436	-0.041477405
102	0xbb6c90df	-0.0036097092
103	0xbd26756c	-0.040639326
104	0xbd97fec5	-0.0742164
105	0x3dcf9b0c	0.10136995
106	0xbdce45c1	-0.10071898
107	0xbde2f16d	-0.110812046
108	0xbdfc7705	-0.12327389
109	0x3dd02e44	0.101650745
110	0xbca9b47d	-0.020715946
111	0xbcbb058b	-0.022829792
112	0x3e49552d	0.19661398
113	0x3d3d6700	0.046240807
114	0xbda54c8f	-0.08071243
115	0xbd99cd33	-0.07509842
116	0x3e0c6dc7	0.13713752
117	0x3b1311eb	0.00224411
118	0xbd366269	-0.044527445
119	0x3dd8e368	0.10590249
120	0x3e098e11	0.134331
121	0xbdb60a0d	-0.08888636
122	0x3e02fa2b	0.12790744
123	0x3d163891	0.03667504
124	0x3e187c5c	0.1489119
125	0xbd7cf6d8	-0.061758846
126	0xbd194dde	-0.037427776
127	0x3de224ea	0.11042197
128	0x3d39ecfc	0.04539202
129	0x3d277494	0.040882662
130	0x3b961889	0.0045805615
131	0xbe06a1a3	-0.13147597
132	0x3dd83288	0.10556513
133	0xbd880028	-0.06640655
134	0x3dc819e7	0.097705655
135	0x3dbffeb1	0.093747504
136	0x3d49f78b	0.04930834
137	0xbe13845e	-0.14405963
138	0x3dce81ba	0.10083337
139	0xbd47163c	-0.04860519
140	0x3c87ec77	0.016592247
141	0x3c58e5b4	0.013238359
142	0xbb9c2b6b	-0.004765918
143	0x3d1e3752	0.038626976
144	0x3d972422	0.07379939
145	0x3df5e4f0	0.12006557
146	0xbdb631c0	-0.08896208
147	0xbd8c1303	-0.06839564
148	0xbd5e2dc6	-0.05424287
149	0x3efc8e0e	0.4932713
150	0xbed3619c	-0.41285408
151	0x3d3dc85d	0.04633366
152	0x3caf4ee2	0.021399919
153	0x3d1dcdaa	0.038526215
154	0x3dbe4c63	0.09291913
155	0xbdc4a9f9	-0.09602732
156	0x3c8fb297	0.017541213
157	0x3e0a3093	0.13495092
158	0xbdcfb78e	-0.10142432
159	0x3c99f34a	0.018792767
160	0x3d893ddc	0.06701252
161	0x3e08f3f8	0.13374317
162	0x39609179	0.00021416497
163	0xbd79c102	-0.060975082
164	0xbdf2e3e9	-0.11859877
165	0xbdac90de	-0.08426069
166	0xbd0c08b8	-0.034188002
167	0x3ca91442	0.020639542
168	0xbdd23f94	-0.10266033
169	0x3e044bc0	0.12919521
170	0x3b54bed0	0.0032462366
171	0xbd65a267	-0.056063082
172	0xbd67fab5	-0.056635577
173	0x3e10dfa7	0.14147817
174	0x3ded9ba7	0.11601954
175	0xbd090456	-0.0334514
176	0xbc94e7a1	-0.018176856
177	0xbdda8852	-0.10670532
178	0x3ddebe50	0.10876143
179	0x3cdb2896	0.026752751
180	0x3e00e09d	0.12585683
181	0xbd433a71	-0.047663156
182	0x3e0c1e72	0.13683489
183	0xbdfb0152	-0.12256111
184	0xbcf05b72	-0.02934048
185	0xbba77b4f	-0.005111135
186	0x3e058d48	0.13042176
187	0xbde7342c	-0.11289248
188	0xbd6dff43	-0.058104765
189	0xbdaf6aa4	-0.08565262
190	0xbdfe17e2	-0.12406899
191	0x3c299ffa	0.010353083
192	0xbd84a8ef	-0.06477534
193	0xbd4a457c	-0.04938267
194	0xbac49ad9	-0.0014999761
195	0xbd8bfd06	-0.0683537
196	0x3d0f83f5	0.035037953
197	0x3d25c7b8	0.04047367
198	0xbdfdb121	-0.123873
199	0xbdb0f5bc	-0.0864062
200	0xbc0658b3	-0.0081998585
201	0xba0c8689	-0.00053606235
202	0x3c659b96	0.014014145
203	0x3e063065	0.13104399
204	0xbcbfb479	-0.023401486
205	0x3ded5e55	0.11590258
206	0xbd5fa1e3	-0.054597747
207	0x3d9fd3a4	0.07804039
208	0x3d8a55e1	0.06754661
209	0x3cead79e	0.028667267
210	0xbd3ce948	-0.04612091
211	0xbdae0e7a	-0.08498855
212	0xbcc9d564	-0.024637885
213	0x3dfabe9d	0.12243388
214	0xbdaf6be2	-0.08565499
215	0xbdb0f453	-0.08640351
216	0x3c87e3e7	0.016588164
217	0x3cc1af01	0.023643019
218	0xbda98cc7	-0.08278804
219	0xbca2e6bf	-0.019885419
220	0xbdd67c4c	-0.104729265
221	0x3b1de8c3	0.0024095036
222	0x3dd08728	0.10182029
223	0x3b65afe4	0.0035047466
224	0xbd938fe0	-0.07205176
225	0x3cf4f4f4	0.029901959
226	0x3dcd7a5e	0.10033105
227	0xbd84b4e9	-0.064798184
228	0x3d35c519	0.04437742
229	0x3cb44343	0.02200473
230	0xbd284116	-0.041077696
231	0x3dc032eb	0.09384712
232	0xbced9019	-0.028999375
233	0x3e0f80b9	0.14013948
234	0x3e416f1a	0.18890038
235	0xbdafb208	-0.08578879
236	0xbd9fc128	-0.078005135
237	0x3d61c316	0.05511769
238	0xbda2adc3	-0.07943299
239	0xbe09e1d5	-0.13465054
240	0x3be5b65e	0.0070102653
241	0x3e0dba14	0.13840514
242	0x3e630ead	0.22173567
243	0xbe9d3db2	-0.30711132
244	0x3d41320c	0.04716687
245	0x3c4904cf	0.012269213
246	0xbc714e4a	-0.014728138
247	0x3e3447eb	0.1760556
248	0x3afc2de6	0.0019239753
249	0xbdb8ab89	-0.09017093
250	0x3df8f974	0.121569544
251	0x3de13595	0.10996548
252	0x3d28c7a3	0.041206013
253	0xbef30bbd	-0.47469893
254	0x3e4dd224	0.20099694
255	0x3e48acf1	0.19597222

lstm.weight_hh_l0 f4 [200, 50]
0	0xbdc80f14	-0.09768501
1	0xbdf4176f	-0.11918532
2	0xbd0f2f64	-0.034957305
3	0x3d84f5d7	0.06492203
4	0x3d1d37d0	0.038383305
5	0x3d8a9249	0.06766183
6	0x3d3f4810	0.046699584
7	0x3e0976b3	0.13424186
8	0x3dd904e9	0.1059664
9	0xbc4f0c0e	-0.012637151
10	0x3dbf37b9	0.093368
11	0xbdb9167a	-0.0903749
12	0x3d88c13e	0.06677483
13	0xbd71e57a	-0.059056737
14	0xbb75a882	-0.0037484472
15	0xbd935634	-0.07194176
16	0xbd160702	-0.036627777
17	0xbd52b97d	-0.051446427
18	0xbde843c0	-0.11341047
19	0xbd416708	-0.0472174
20	0x3dc00b57	0.09377163
21	0xbd86b201	-0.0657692
22	0xbcba69b4	-0.022755481
23	0xbe0d7772	-0.13815096
24	0x3caa8402	0.0208149
25	0xbd8216d5	-0.06352011
26	0xbd866a43	-0.065632366
27	0x3d38d5c2	0.04512573
28	0xbde915e9	-0.11381132
29	0xbd099135	-0.033585746
30	0x3e053e5b	0.13012068
31	0x3d830276	0.06396954
32	0x3dc3c463	0.09558942
33	0x3d0edec8	0.03488043
34	0xbd9eb8dd	-0.077501036
35	0x3dd73016	0.105072185
36	0xbb710835	-0.0036778573
37	0x3d58cd83	0.052930366
38	0xbc9cd825	-0.019146034
39	0x3dd778e7	0.10521107
40	0x3e09a909	0.13443388
41	0x3e07f05a	0.1327528
42	0x3de121a4	0.109927446
43	0xbdeebb00	-0.11656761
44	0x3df1889b	0.117936336
45	0xbb639398	-0.0034725424
46	0xbb023f07	-0.0019873993
47	0x3dbd1b24	0.09233692
48	0xbbe9422b	-0.0071184835
49	0xbdfd4089	-0.12365825
50	0x3cf2baac	0.029630028
51	0x3dcba58d	0.09943686
52	0xbe05172b	-0.12997119
53	0x3de09d80	0.10967541
54	0xbd525641	-0.05135179
55	0xbd66b1c2	-0.056321867
56	0x3c34c63f	0.011033594
57	0x3cdb9319	0.02680354
58	0xbd62f1cb	-0.055406373
59	0xbdd976e3	-0.10618379
60	0xbd82dc0e	-0.06389628
61	0x3e04a5e7	0.12953912
62	0xbe02baa5	-0.12766512
63	0xbc801c69	-0.015638547
64	0xbdbe3c18	-0.09288806
65	0xbd589632	-0.052877612
66	0x3d97cec3	0.074124835
67	0x3db6f8bc	0.08934161
68	0x3b272861	0.0025506245
69	0xbcdae656	-0.02672116
70	0xbdc03664	-0.09385374
71	0xbc47eaf3	-0.012202012
72	0x3cea9833	0.028637027
73	0xbe0e37d9	-0.13888492
74	0xbddc1987	-0.107470565
75	0x3d6a09a5	0.057138104
76	0x3d853338	0.0650391
77	0x3da881cf	0.08227884
78	0xbe0a9542	-0.135335
79	0x3d89edc1	0.06734801
80	0x3a4c4b3f	0.0007793195
81	0xbdc3fc9d	-0.095696665
82	0x3e055e1a	0.13024178
83	0xbd9b2b35	-0.075766005
84	0x3d04a48e	0.032383494
85	0xbd9f2e48	-0.07772499
86	0x3dc7cbc6	0.097556636
87	0x3d9abd8b	0.07555684
88	0xbc461347	-0.012089557
89	0x3cab5d9c	0.02091866
90	0xbbe987ae	-0.00712677
91	0x3cdb8b0a	0.026799697
92	0x3dd46c26	0.1037219
93	0xbe0bdad4	-0.13657695
94	0xbda8363f	-0.082134716
95	0x3dd32a49	0.103108
96	0x3dac3e95	0.08410374
97	0xbc8df131	-0.017326923
98	0x3e0cfc22	0.13768056
99	0xbc93735a	-0.01799934
100	0xbc8e0b71	-0.01733944
101	0x3dda6127	0.106630616
102	0x3c5979fa	0.01327371
103	0x3d62deed	0.05538838
104	0x3ddc742f	0.10764348
105	0x3daabf5c	0.0833728
106	0xbb400316	-0.0029298714
107	0xbabcc736	-0.0014402631
108	0x3e000e73	0.12505512
109	0x3d4243fb	0.047428112
110	0x3ded40d1	0.115846284
111	0xbe003932	-0.12521818
112	0x3e0e5a2e	0.13901588
113	0xbc0f4e15	-0.008746644
114	0xbd9eedc5	-0.07760195
115	0xbe06efe0	-0.13177443
116	0xbdadc87e	-0.084855065
117	0xbdd169b7	-0.10225242
118	0x3ca91dc7	0.020644082
119	0x3d8804f0	0.06641567
120	0xbc5dd4c7	-0.0135395
121	0xbdb4ac19	-0.088218875
122	0xbde9b496	-0.11411397
123	0x3dce7577	0.100809984
124	0x3d72b69d	0.059256185
125	0x3df868fd	0.121294
126	0xbc95aa51	-0.01826969
127	0x3c8e63d2	0.017381582
128	0xbcfc9279	-0.030831562
129	0xbe0cbc8c	-0.137438
130	0x3dd54a6d	0.10414586
131	0xbd3d69d1	-0.046243493
132	0xbdc63c56	-0.09679477
133	0x3dfc82e0	0.1232965
134	0xbcb7ef86	-0.02245308
135	0x3c110b98	0.008852862
136	0x3e052f3e	0.13006303
137	0x3c9ec0ca	0.019379038
138	0x3e004b19	0.12528647
139	0xbde9b4ed	-0.11411462
140	0xbde408be	-0.1113448
141	0xbe0e6572	-0.13905886
142	0xbab80d1b	-0.0014041992
143	0x3ccc98ae	0.024975147
144	0xbdd2b702	-0.10288812
145	0x3dedf552	0.11619057
146	0xbd6165f9	-0.05502889
147	0x3d81ab0d	0.063314535
148	0x3df6090b	0.120134436
149	0xbd5be615	-0.05368622
150	0x3b7101b2	0.0036774692
151	0xbde422c8	-0.111394465
152	0xbc7e6e79	-0.015529268
153	0x3cd591c0	0.026070476
154	0x3d6ecdb5	0.058301646
155	0x3dcf5f03	0.10125544
156	0xbd8a0826	-0.067398354
157	0x3dd3bfa1	0.10339285
158	0xbc64adc1	-0.013957442
159	0x3c903140	0.01760161
160	0xbe0968ff	-0.13418959
161	0xbd7f7950	-0.062371552
162	0x3d5de86f	0.054176744
163	0x3cdead36	0.027182203
164	0xbd342c72	-0.0439877
165	0x3db5b008	0.08871466
166	0x3e0224d2	0.12709358
167	0xbdf5e04a	-0.1200567
168	0x3dbeddfe	0.093196854
169	0x3cd56bba	0.026052345
170	0x3daa91b6	0.083285734
171	0xbd9cdcb4	-0.07659283
172	0x3d048320	0.032351613
173	0xbe0d35bf	-0.13790034
174	0xbd8921d9	-0.06695909
175	0x3da54d5a	0.08071394
176	0xbdccb351	-0.099951394
177	0x3d5e8e99	0.05433521
178	0xbd8f4c29	-0.06996948
179	0x3e05146a	0.12996069
180	0xbdf66dd8	-0.1203267
181	0xbc95441f	-0.01822096
182	0xbcf2b55e	-0.029627498
183	0x3da5e477	0.08100217
184	0x3c102002	0.008796694
185	0x3d55cc27	0.052196648
186	0xbdd9390c	-0.10606584
187	0x3df830f2	0.121187106
188	0x3da0f8d6	0.07859962
189	0xbcfa3e7f	-0.030547379
190	0xbd4b14ba	-0.049580313
191	0xbd76dd70	-0.060269773
192	0x3c224aef	0.009905561
193	0x3c7642cb	0.015030573
194	0x3c241442	0.010014595
195	0xbe202c03	-0.15641789
196	0x3ba62717	0.005070578
197	0xbd311694	-0.043234423
198	0xbd560bea	-0.052257456
199	0x3db7af86	0.08969025
200	0x3df0f74c	0.11765918
201	0xbd7e2b5c	-0.06205307
202	0xbc4df6a2	-0.012571009
203	0x3d2cceae	0.042189293
204	0x3d2511d8	0.04030022
205	0x3d863f82	0.06555082
206	0xbd01572d	-0.031577278
207	0x3c75a532	0.014992999
208	0xbdb5b64e	-0.088726625
209	0xbe01c5df	-0.12673138
210	0xbd8f3aed	-0.06993661
211	0xbdeb38c4	-0.114854366
212	0xbc339726	-0.01096133
213	0x3c04fcbd	0.008116898
214	0x3db68793	0.089125775
215	0x3c1bfb3f	0.009520351
216	0x3dc9c749	0.09852464
217	0xbd9986a9	-0.074963875
218	0xbc5a15a6	-0.013310825
219	0xbd8d0611	-0.06885923
220	0xbe081f25	-0.1329313
221	0x3df169f6	0.117877886
222	0xbc05e9cb	-0.008173416
223	0x3e035d9f	0.12828682
224	0x3cf40e8f	0.029792098
225	0xbdb5b1a8	-0.08871776
226	0x3b9d1d44	0.0047947485
227	0xbdafa3c7	-0.0857616
228	0xbda4c0e0	-0.080446005
229	0x3d407146	0.046983026
230	0x3d9bfb66	0.0761631
231	0xbda5c9db	-0.080951415
232	0x3e0b4092	0.1359885
233	0x3c85ab72	0.016317103
234	0xbd519653	-0.05116875
235	0xbd4f3bc7	-0.050594117
236	0x3d962d5c	0.0733287
237	0x3dd578b9	0.10423417
238	0xbdc99351	-0.098425515
239	0x3d21df98	0.039519876
240	0x3d3fa8de	0.046791904
241	0x3d4db1be	0.050218336
242	0x3e0cab68	0.13737261
243	0x3d21ee25	0.039533753
244	0x3de239af	0.110461585
245	0xbdd6bb30	-0.10484922
246	0x3d158ec4	0.036513105
247	0xbdbc54f5	-0.09195892
248	0x3df39e4b	0.11895426
249	0x3c2798cc	0.010229301
250	0xbdcb6b90	-0.09932625
251	0x3dc6c91e	0.09706329
252	0x3da0380a	0.078231886
253	0xbd93ad09	-0.07210738
254	0x3d845484	0.064614326
255	0x3d8cb655	0.068707146

lstm.bias_ih_l0 f4 [200]
0	0x3e0a5c2c	0.13511723
1	0x3de2d2de	0.11075376
2	0x3de7a7f2	0.1131133
3	0x3db07a38	0.086170614
4	0xbdfeee53	-0.124478005
5	0x3e112c10	0.14176965
6	0x3c75c9cb	0.0150017245
7	0x3c8e883c	0.017398946
8	0xbd708ff1	-0.058731023
9	0xbdba512f	-0.09097516
10	0xbddf0b2a	-0.10890801
11	0x3b66ca04	0.0035215626
12	0x3d53614a	0.051606454
13	0x3d080303	0.033205997
14	0x3e0d5acd	0.13804169
15	0x3d05dfb0	0.03268403
16	0xbcae66d6	-0.02128927
17	0x3d510e44	0.051038995
18	0xbd038d42	-0.032117136
19	0xbce6079e	-0.028079804
20	0x3d0992a8	0.033587128
21	0xbd0a0fc9	-0.03370646
22	0xbdd84b85	-0.10561279
23	0x3db66765	0.0890644
24	0xbd1de25a	-0.038545944
25	0x3d6b02a4	0.057375565
26	0x3d918d23	0.07106998
27	0x3d36c292	0.04461915
28	0x3c94067a	0.018069495
29	0x3e24e667	0.16103517
30	0xbd1b3f52	-0.037902184
31	0xbccfa4ad	-0.025347078
32	0xbdd93510	-0.10605824
33	0x3cf7504b	0.030189654
34	0xbc099c97	-0.00839915
35	0x3d77ebfc	0.060527787
36	0x3ddd8a83	0.10817435
37	0xbd322455	-0.04349168
38	0xbdc09a0f	-0.09404384
39	0x3c7b6379	0.01534354
40	0x3e0ecdcf	0.13945697
41	0xbde6ade2	-0.11263634
42	0x3db67eab	0.08910879
43	0x3dad2789	0.08454806
44	0x3d236d9d	0.039899457
45	0x3db9cb87	0.09072023
46	0xbc53d43d	-0.0129290195
47	0x3e15c698	0.14626539
48	0x3d36312c	0.044480488
49	0xbd3642a3	-0.044497143
50	0x3e003fa2	0.12524274
51	0x3de98da2	0.114039674
52	0x3e152368	0.14564288
53	0xbce27e1f	-0.02764803
54	0xbddc32b9	-0.10751862
55	0xbdded841	-0.10881091
56	0x3de60c29	0.11232788
57	0x3e0921a4	0.13391739
58	0xbdeb3ac3	-0.11485817
59	0x3c2521ea	0.0100788865
60	0xbde14b0b	-0.110006414
61	0x3dc470cb	0.09591826
62	0x3d594962	0.0530485
63	0xbd083f1a	-0.033263303
64	0x3d434f74	0.047683194
65	0xbe0e38aa	-0.13888803
66	0xbcbb2659	-0.022845434
67	0xbd12e94c	-0.03586702
68	0x3c97a839	0.018512832
69	0x3d2d0240	0.042238474
70	0xbcd7736a	-0.02630015
71	0x3e15b12b	0.14618365
72	0xbd8bb6ae	-0.06821953
73	0x3daf753a	0.08567281
74	0x3dc5b2b9	0.09653229
75	0x3ac0bbaa	0.0014704366
76	0x3e26db2f	0.1629455
77	0xbe0129d9	-0.1261362
78	0xbdb81387	-0.089880995
79	0x3db98d37	0.09060138
80	0x3ddc9876	0.10771267
81	0xbce43ad2	-0.027860079
82	0xbd6aedbf	-0.05735564
83	0xbd0c2f0e	-0.034224562
84	0xbcb3949c	-0.021921448
85	0xbddea86e	-0.10871969
86	0xbceb5c9d	-0.028730685
87	0xbd99ca11	-0.07509244
88	0x3ccb8cd7	0.024847431
89	0xbdb0b25a	-0.08627768
90	0x3dea281e	0.11433433
91	0xbd5bf595	-0.053701002
92	0x3be1cbc1	0.0068907444
93	0x3deccae6	0.11562137
94	0xbde16d1a	-0.110071376
95	0x3d5e2b1c	0.05424033
96	0xbdc41707	-0.095747046
97	0x39014d4e	0.00012331197
98	0xbd531ad9	-0.051539276
99	0xbdc617da	-0.09672518
100	0x3d7a4c39	0.061107848
101	0xbd4703ab	-0.048587482
102	0x3d9a20c9	0.075257845
103	0x3d640795	0.055671293
104	0x3dcb0de9	0.099147625
105	0xbdb559cf	-0.0885502
106	0x3df379f4	0.11888495
107	0x3de9b9b0	0.1141237
108	0x3c481234	0.012211371
109	0x3e16ae58	0.14714944
110	0xbd6a1a91	-0.057154242
111	0x3e4f32f0	0.20234275
112	0x3d33e619	0.04392061
113	0x3da1d77b	0.07902428
114	0xbd98f8ae	-0.07469307
115	0xbdfe992d	-0.1243156
116	0xbd48ddd9	-0.049039695
117	0x3d824ac6	0.06361918
118	0xbd81769a	-0.063214496
119	0xbe71e366	-0.23621902
120	0xbe6413c3	-0.22273163
121	0xbdaf5334	-0.085607916
122	0x3acca574	0.0015613274
123	0xbd249327	-0.040179398
124	0xbcbcfbd1	-0.023069294
125	0x3e0cb464	0.13740689
126	0x3e301807	0.17196666
127	0x3d44dff7	0.048065152
128	0xbd2dec53	-0.042461704
129	0x3da04a0a	0.07826622
130	0xbd1cfd06	-0.03832724
131	0xbdba0048	-0.09082085
132	0x3dfb7fcc	0.12280235
133	0x3d795d33	0.060879897
134	0x3cde2b04	0.02712012
135	0x3b912def	0.0044305245
136	0xbe09828b	-0.13428704
137	0x3dbb0625	0.09132031
138	0xbd964611	-0.07337583
139	0xbd9db8a0	-0.0770123
140	0xbe0ca881	-0.13736154
141	0xbcbeb504	-0.023279674
142	0xbdf94703	-0.121717475
143	0xbdb4a7b6	-0.08821051
144	0x3dcb4c9d	0.09926722
145	0xbe09b00f	-0.13446067
146	0x3d2c4cc4	0.042065397
147	0xbd866f61	-0.065642126
148	0x3dd0fe7c	0.10204789
149	0xbaf451ed	-0.0018640138
150	0x3cd367b7	0.025806291
151	0xba99bb16	-0.001172873
152	0xbddcfd48	-0.10790497
153	0xbdc756a6	-0.09733324
154	0xbc64b245	-0.013958518
155	0xbd360a81	-0.04444361
156	0x3dde738c	0.108618826
157	0xbdecfe4d	-0.115719415
158	0x3db35fe4	0.08758524
159	0x3d312ff3	0.04325862
160	0xbe02e38d	-0.12782116
161	0x3d9f5968	0.07780725
162	0xbddb6815	-0.107132114
163	0x3d860a6d	0.06544957
164	0xbd61d466	-0.0551342
165	0x3de00d2d	0.10940013
166	0xbd8d6fbb	-0.069060765
167	0x3d2dc3e4	0.042423144
168	0x3d2fb3d9	0.042896125
169	0xba08c0e4	-0.0005216731
170	0x3d970faa	0.073760346
171	0x3e0b29ce	0.13590166
172	0x3c16e505	0.009209876
173	0xbd162b95	-0.036662657
174	0x3e28e28f	0.16492675
175	0x3be7e9a6	0.0070774136
176	0xbd5b20fe	-0.05349826
177	0xbd5929da	-0.05301843
178	0x3a3b2877	0.00071395136
179	0x3e0572bc	0.13032049
180	0xbdaa27d5	-0.083083786
181	0x3e0cacd2	0.137378
182	0xbdc1d510	-0.094644666
183	0x3d7e98c2	0.0621574
184	0x3da29975	0.07939426
185	0x3e170ce4	0.14751011
186	0x3cde28b6	0.027119022
187	0xbdd096a9	-0.10184986
188	0xbcf0a212	-0.029374156
189	0x3e0c6670	0.13710952
190	0x3dccc88c	0.09999189
191	0x3d46ceec	0.04853718
192	0x3cb2b349	0.021814005
193	0xbde08bc1	-0.10964156
194	0x3d8d036c	0.06885418
195	0x3d2e0e77	0.042494263
196	0xbd0cdaa9	-0.034388218
197	0xbd4b4d95	-0.049634535
198	0xbdbef75a	-0.09324522
199	0xbc90f438	-0.017694578

lstm.bias_hh_l0 f4 [200]
0	0x3dfaadeb	0.122402035
1	0x3dfd616d	0.12372098
2	0xbd6549e9	-0.05597869
3	0xbd74763b	-0.059683066
4	0x3cb8c70b	0.022555849
5	0x3e058f10	0.13042855
6	0xbde9f73c	-0.11424109
7	0xbabd2d1f	-0.0014433003
8	0xbd76d97a	-0.060265996
9	0x3e18e051	0.1492932
10	0xbde58f1e	-0.11208938
11	0xbda11393	-0.078650616
12	0x3d6a78ca	0.0572441
13	0x3dda2923	0.106523775
14	0xbdfef7d6	-0.12449615
15	0xbe06642f	-0.13124155
16	0x3d2373ae	0.039905243
17	0xbc002c21	-0.007823021
18	0x3d686108	0.05673316
19	0xbd9a9810	-0.07548535
20	0x3e2669e7	0.16251336
21	0xbcc806c6	-0.024417292
22	0x3a852e2b	0.0010160854
23	0x3d56087e	0.052254193
24	0xbd936f77	-0.071989946
25	0x3db87a18	0.090076625
26	0x3e2bc6e9	0.16775097
27	0x3cd17ed1	0.025573166
28	0x3dc82ef1	0.09774578
29	0x3d173d12	0.036923476
30	0x3e14b614	0.14522582
31	0x3d0dd1ac	0.034623787
32	0xbdb3cf5b	-0.08779784
33	0xbdd63329	-0.10458977
34	0xbdcd6fd0	-0.10031092
35	0x3bcb2b1b	0.006200207
36	0x3d4f0de4	0.050550357
37	0xbde47333	-0.11154785
38	0xbcbb09a2	-0.022831742
39	0x3e07af1d	0.13250394
40	0x3e19c28e	0.15015623
41	0x3e09f0b8	0.13470733
42	0xbdd8606d	-0.10565267
43	0x3e134242	0.14380744
44	0x3dd4b4d9	0.103860565
45	0xbd4f6a48	-0.050638467
46	0x3d29b601	0.041433338
47	0xbdc92cab	-0.09822973
48	0xbc96e605	-0.018420229
49	0xbd79108b	-0.060806792
50	0x3e1b695a	0.15176907
51	0xbd85a0c5	-0.06524805
52	0xbe090261	-0.13379814
53	0x3dc24e25	0.09487561
54	0x3d44a212	0.048006125
55	0x3df38103	0.118898414
56	0x3da60eed	0.081083156
57	0xbcc71c76	-0.024305563
58	0x3e0b61cf	0.1361153
59	0x3c39f7b1	0.011350558
60	0xbde79028	-0.113067925
61	0x3a81ad6e	0.0009893605
62	0xbcd65aaf	-0.026166288
63	0xbdb4acaf	-0.08821999
64	0xbd902030	-0.07037389
65	0xbd7a8401	-0.061161045
66	0x3cd9633f	0.026536582
67	0x3d937d69	0.072016545
68	0x3d8a7c00	0.067619324
69	0x3dabfaf7	0.08397477
70	0xbbfd20b5	-0.0077248462
71	0x3e065aa8	0.1312052
72	0xbd8407a0	-0.06446767
73	0x3ca6a771	0.020343514
74	0x3d01eeed	0.031721998
75	0x3cc50ab4	0.024052955
76	0x3d965c13	0.073417805
77	0xbcd93e0f	-0.02651885
78	0x3d2a451d	0.041569818
79	0x3e00a60a	0.12563339
80	0xbd8fbdc4	-0.07018617
81	0xbdefd376	-0.11710255
82	0xbdf63a31	-0.12022818
83	0xbd15d058	-0.036575645
84	0xbdf10f6b	-0.11770519
85	0x3ce577b1	0.028011175
86	0x3e0c5edf	0.13708065
87	0xbd0bb0fb	-0.03410433
88	0xbd8a6236	-0.067570135
89	0x3d35ae50	0.04435569
90	0xbcf0d00c	-0.02939608
91	0x3de93156	0.11386363
92	0x3d18b69b	0.03728352
93	0xbd37a461	-0.0448345
94	0xbca8de44	-0.020613797
95	0x3dc38370	0.09546554
96	0xbe07f9cd	-0.13278885
97	0x3e150054	0.14550906
98	0x3df5e0f4	0.12005797
99	0x3dad9760	0.08476138
100	0xbd5039b2	-0.050836273
101	0xbc42151c	-0.011845853
102	0x3c445594	0.011983294
103	0xbdbacb87	-0.09120851
104	0x3dd8bd9c	0.1058304
105	0xbe265f92	-0.16247395
106	0x3e11dc8e	0.14244291
107	0x3c05bf19	0.008163237
108	0x3da72864	0.08162001
109	0x3d7785cf	0.060430344
110	0xbda89484	-0.08231452
111	0x3dfca7be	0.12336682
112	0xbd0e6e72	-0.034773298
113	0x3a1d0110	0.0005989233
114	0x3a244e88	0.00062678056
115	0x3cc7079d	0.024295622
116	0xbd7deb02	-0.0619917
117	0xbe27e1c6	-0.1639472
118	0x3d003a99	0.031305883
119	0xbe9f081c	-0.31060874
120	0xbd0eae50	-0.034834206
121	0xbd8f0c7f	-0.06984805
122	0x3dded6f8	0.10880846
123	0x3e237660	0.15963125
124	0xbd8f14f1	-0.06986416
125	0x3e2f129b	0.17096941
126	0x3e1cbc1a	0.1530613
127	0x3d5dd1e6	0.054155253
128	0x3d9a0b8d	0.075217344
129	0xbd8edf21	-0.06976152
130	0xbdc5d56e	-0.09659849
131	0xbdde65c2	-0.108592525
132	0xbdc185aa	-0.094493225
133	0x3e37ec91	0.17961337
134	0xbe1799db	-0.14804785
135	0xbdfecf7f	-0.124419205
136	0xbd27b874	-0.040947393
137	0xbda3f865	-0.08006362
138	0xbdce427d	-0.100712754
139	0x3d5c90f1	0.053849164
140	0xbe250f27	-0.16119061
141	0xbd8fdcf4	-0.07024565
142	0xbd42075e	-0.047370307
143	0xbe1c7235	-0.15277942
144	0xbc65c359	-0.014023625
145	0xbe42e97b	-0.19034378
146	0x3d4ede70	0.0505051
147	0xbe159f8d	-0.14611645
148	0x3c4cac41	0.01249224
149	0xbe0c9d53	-0.1373189
150	0x3d991096	0.07473867
151	0x3dfae0c1	0.122499
152	0xbd0fb626	-0.03508582
153	0xbda3fb4d	-0.08006916
154	0xbde58436	-0.11206858
155	0x3df43916	0.11924951
156	0xbddb6767	-0.10713082
157	0xbc9e356c	-0.019312583
158	0xbdfcef57	-0.12350338
159	0xbd71504d	-0.05891447
160	0x3dc70bfa	0.09719081
161	0x3d99e172	0.075137034
162	0x3d9ab95a	0.07554884
163	0x3d3d33dd	0.04619204
164	0xbdaaad2d	-0.08333812
165	0xbcbc9f4f	-0.023025183
166	0xbd0d7091	-0.03453118
167	0x3e2a0a0d	0.16605397
168	0x3dc10b4e	0.09425984
169	0xbbfb112e	-0.00766196
170	0x3e48e738	0.19619453
171	0x3c130165	0.0089725
172	0xbdd45843	-0.10368397
173	0xbdf467bd	-0.11933849
174	0xbd1e5b7d	-0.03866147
175	0x3db0bbfa	0.08629604
176	0x3ddd8ce9	0.10817892
177	0xbc776020	-0.015098602
178	0xbd67f332	-0.056628413
179	0x3e4a45d1	0.19753195
180	0x3e196147	0.14978515
181	0x3cb16c66	0.021658134
182	0xbca6819d	-0.020325476
183	0xbd800a8c	-0.06252012
184	0xbccd80fb	-0.025085917
185	0x3e074f2f	0.132138
186	0x3e0844f6	0.13307557
187	0x3d508912	0.05091197
188	0x3dfb6ad8	0.12276238
189	0x3e0be061	0.13659813
190	0xbd18f564	-0.037343398
191	0xbcc7cb3e	-0.024388906
192	0xbc8492c4	-0.016183265
193	0x3b9ed92d	0.0048476667
194	0x3c0a9e18	0.008460544
195	0x3cab11ff	0.020882605
196	0x3ccde0c0	0.025131583
197	0x3e216fc4	0.15765291
198	0xbd6ce71d	-0.057837594
199	0x3cd445a6	0.025912117

mambaLayer.A_log f4 [56, 16]
0	0x00000000	0.0
1	0x3f317218	0.6931472
2	0x3f8c9f54	1.0986123
3	0x3fb17218	1.3862944
4	0x3fce0210	1.609438
5	0x3fe55860	1.7917595
6	0x3ff91396	1.9459102
7	0x40051592	2.0794415
8	0x400c9f54	2.1972246
9	0x40135d8e	2.3025851
10	0x4019771e	2.3978953
11	0x401f08b6	2.4849067
12	0x40242821	2.5649493
13	0x4028e651	2.6390574
14	0x402d50b2	2.7080503
15	0x40317218	2.7725887
16	0x00000000	0.0
17	0x3f317218	0.6931472
18	0x3f8c9f54	1.0986123
19	0x3fb17218	1.3862944
20	0x3fce0210	1.609438
21	0x3fe55860	1.7917595
22	0x3ff91396	1.9459102
23	0x40051592	2.0794415
24	0x400c9f54	2.1972246
25	0x40135d8e	2.3025851
26	0x4019771e	2.3978953
27	0x401f08b6	2.4849067
28	0x40242821	2.5649493
29	0x4028e651	2.6390574
30	0x402d50b2	2.7080503
31	0x40317218	2.7725887
32	0x00000000	0.0
33	0x3f317218	0.6931472
34	0x3f8c9f54	1.0986123
35	0x3fb17218	1.3862944
36	0x3fce0210	1.609438
37	0x3fe55860	1.7917595
38	0x3ff91396	1.9459102
39	0x40051592	2.0794415
40	0x400c9f54	2.1972246
41	0x40135d8e	2.3025851
42	0x4019771e	2.3978953
43	0x401f08b6	2.4849067
44	0x40242821	2.5649493
45	0x4028e651	2.6390574
46	0x402d50b2	2.7080503
47	0x40317218	2.7725887
48	0x00000000	0.0
49	0x3f317218	0.6931472
50	0x3f8c9f54	1.0986123
51	0x3fb17218	1.3862944
52	0x3fce0210	1.609438
53	0x3fe55860	1.7917595
54	0x3ff91396	1.9459102
55	0x40051592	2.0794415
56	0x400c9f54	2.1972246
57	0x40135d8e	2.3025851
58	0x4019771e	2.3978953
59	0x401f08b6	2.4849067
60	0x40242821	2.5649493
61	0x4028e651	2.6390574
62	0x402d50b2	2.7080503
63	0x40317218	2.7725887
64	0x00000000	0.0
65	0x3f317218	0.6931472
66	0x3f8c9f54	1.0986123
67	0x3fb17218	1.3862944
68	0x3fce0210	1.609438
69	0x3fe55860	1.7917595
70	0x3ff91396	1.9459102
71	0x40051592	2.0794415
72	0x400c9f54	2.1972246
73	0x40135d8e	2.3025851
74	0x4019771e	2.3978953
75	0x401f08b6	2.4849067
76	0x40242821	2.5649493
77	0x4028e651	2.6390574
78	0x402d50b2	2.7080503
79	0x40317218	2.7725887
80	0x00000000	0.0
81	0x3f317218	0.6931472
82	0x3f8c9f54	1.0986123
83	0x3fb17218	1.3862944
84	0x3fce0210	1.609438
85	0x3fe55860	1.7917595
86	0x3ff91396	1.9459102
87	0x40051592	2.0794415
88	0x400c9f54	2.1972246
89	0x40135d8e	2.3025851
90	0x4019771e	2.3978953
91	0x401f08b6	2.4849067
92	0x40242821	2.5649493
93	0x4028e651	2.6390574
94	0x402d50b2	2.7080503
95	0x40317218	2.7725887
96	0x00000000	0.0
97	0x3f317218	0.6931472
98	0x3f8c9f54	1.0986123
99	0x3fb17218	1.3862944
100	0x3fce0210	1.609438
101	0x3fe55860	1.7917595
102	0x3ff91396	1.9459102
103	0x40051592	2.0794415
104	0x400c9f54	2.1972246
105	0x40135d8e	2.3025851
106	0x4019771e	2.3978953
107	0x401f08b6	2.4849067
108	0x40242821	2.5649493
109	0x4028e651	2.6390574
110	0x402d50b2	2.7080503
111	0x40317218	2.7725887
112	0x00000000	0.0
113	0x3f317218	0.6931472
114	0x3f8c9f54	1.0986123
115	0x3fb17218	1.3862944
116	0x3fce0210	1.609438
117	0x3fe55860	1.7917595
118	0x3ff91396	1.9459102
119	0x40051592	2.0794415
120	0x400c9f54	2.1972246
121	0x40135d8e	2.3025851
122	0x4019771e	2.3978953
123	0x401f08b6	2.4849067
124	0x40242821	2.5649493
125	0x4028e651	2.6390574
126	0x402d50b2	2.7080503
127	0x40317218	2.7725887
128	0x00000000	0.0
129	0x3f317218	0.6931472
130	0x3f8c9f54	1.0986123
131	0x3fb17218	1.3862944
132	0x3fce0210	1.609438
133	0x3fe55860	1.7917595
134	0x3ff91396	1.9459102
135	0x40051592	2.0794415
136	0x400c9f54	2.1972246
137	0x40135d8e	2.3025851
138	0x4019771e	2.3978953
139	0x401f08b6	2.4849067
140	0x40242821	2.5649493
141	0x4028e651	2.6390574
142	0x402d50b2	2.7080503
143	0x40317218	2.7725887
144	0x00000000	0.0
145	0x3f317218	0.6931472
146	0x3f8c9f54	1.0986123
147	0x3fb17218	1.3862944
148	0x3fce0210	1.609438
149	0x3fe55860	1.7917595
150	0x3ff91396	1.9459102
151	0x40051592	2.0794415
152	0x400c9f54	2.1972246
153	0x40135d8e	2.3025851
154	0x4019771e	2.3978953
155	0x401f08b6	2.4849067
156	0x40242821	2.5649493
157	0x4028e651	2.6390574
158	0x402d50b2	2.7080503
159	0x40317218	2.7725887
160	0x00000000	0.0
161	0x3f317218	0.6931472
162	0x3f8c9f54	1.0986123
163	0x3fb17218	1.3862944
164	0x3fce0210	1.609438
165	0x3fe55860	1.7917595
166	0x3ff91396	1.9459102
167	0x40051592	2.0794415
168	0x400c9f54	2.1972246
169	0x40135d8e	2.3025851
170	0x4019771e	2.3978953
171	0x401f08b6	2.4849067
172	0x40242821	2.5649493
173	0x4028e651	2.6390574
174	0x402d50b2	2.7080503
175	0x40317218	2.7725887
176	0x00000000	0.0
177	0x3f317218	0.6931472
178	0x3f8c9f54	1.0986123
179	0x3fb17218	1.3862944
180	0x3fce0210	1.609438
181	0x3fe55860	1.7917595
182	0x3ff91396	1.9459102
183	0x40051592	2.0794415
184	0x400c9f54	2.1972246
185	0x40135d8e	2.3025851
186	0x4019771e	2.3978953
187	0x401f08b6	2.4849067
188	0x40242821	2.5649493
189	0x4028e651	2.6390574
190	0x402d50b2	2.7080503
191	0x40317218	2.7725887
192	0x00000000	0.0
193	0x3f317218	0.6931472
194	0x3f8c9f54	1.0986123
195	0x3fb17218	1.3862944
196	0x3fce0210	1.609438
197	0x3fe55860	1.7917595
198	0x3ff91396	1.9459102
199	0x40051592	2.0794415
200	0x400c9f54	2.1972246
201	0x40135d8e	2.3025851
202	0x4019771e	2.3978953
203	0x401f08b6	2.4849067
204	0x40242821	2.5649493
205	0x4028e651	2.6390574
206	0x402d50b2	2.7080503
207	0x40317218	2.7725887
208	0x00000000	0.0
209	0x3f317218	0.6931472
210	0x3f8c9f54	1.0986123
211	0x3fb17218	1.3862944
212	0x3fce0210	1.609438
213	0x3fe55860	1.7917595
214	0x3ff91396	1.9459102
215	0x40051592	2.0794415
216	0x400c9f54	2.1972246
217	0x40135d8e	2.3025851
218	0x4019771e	2.3978953
219	0x401f08b6	2.4849067
220	0x40242821	2.5649493
221	0x4028e651	2.6390574
222	0x402d50b2	2.7080503
223	0x40317218	2.7725887
224	0x00000000	0.0
225	0x3f317218	0.6931472
226	0x3f8c9f54	1.0986123
227	0x3fb17218	1.3862944
228	0x3fce0210	1.609438
229	0x3fe55860	1.7917595
230	0x3ff91396	1.9459102
231	0x40051592	2.0794415
232	0x400c9f54	2.1972246
233	0x40135d8e	2.3025851
234	0x4019771e	2.3978953
235	0x401f08b6	2.4849067
236	0x40242821	2.5649493
237	0x4028e651	2.6390574
238	0x402d50b2	2.7080503
239	0x40317218	2.7725887
240	0x00000000	0.0
241	0x3f317218	0.6931472
242	0x3f8c9f54	1.0986123
243	0x3fb17218	1.3862944
244	0x3fce0210	1.609438
245	0x3fe55860	1.7917595
246	0x3ff91396	1.9459102
247	0x40051592	2.0794415
248	0x400c9f54	2.1972246
249	0x40135d8e	2.3025851
250	0x4019771e	2.3978953
251	0x401f08b6	2.4849067
252	0x40242821	2.5649493
253	0x4028e651	2.6390574
254	0x402d50b2	2.7080503
255	0x40317218	2.7725887

mambaLayer.D f4 [56]
0	0x3f80461c	1.0021396
1	0x3f7ff57c	0.99983954
2	0x3f7e2dc7	0.992886
3	0x3f80a39a	1.0049927
4	0x3f811d6b	1.0087103
5	0x3f7fd173	0.9992897
6	0x3f7ffa43	0.99991244
7	0x3f7f028b	0.99613255
8	0x3f837f8c	1.0273299
9	0x3f800519	1.0001556
10	0x3f7ff289	0.99979454
11	0x3f8d0695	1.1017634
12	0x3f800010	1.0000019
13	0x3f81a129	1.0127307
14	0x3f800b94	1.0003533
15	0x3f818271	1.0117933
16	0x3f9f9cbc	1.2469707
17	0x3f7fbfc1	0.9990197
18	0x3f94e99c	1.1633792
19	0x3f7f844d	0.9981125
20	0x3f7fff3d	0.9999884
21	0x3f7fb624	0.998873
22	0x3f832847	1.0246667
23	0x3f7ed184	0.99538445
24	0x3f80c92a	1.006139
25	0x3f7ff80e	0.99987876
26	0x3f805122	1.002476
27	0x3f7e56d0	0.99351215
28	0x3f7f9383	0.9983446
29	0x3f8147c9	1.0100032
30	0x3f8bb188	1.0913553
31	0x3f8164d3	1.0108894
32	0x3f8150f5	1.0102831
33	0x3f800e79	1.0004417
34	0x3f80b319	1.0054656
35	0x3f80bf08	1.0058298
36	0x3f8173e0	1.0113487
37	0x3f7dc5df	0.9913005
38	0x3f7fe94e	0.9996537
39	0x3f8014e3	1.0006374
40	0x3f7fcc3e	0.99921024
41	0x3f8031e6	1.0015228
42	0x3f80e605	1.0070196
43	0x3f7f5a6a	0.99747336
44	0x3f7fe91b	0.99965066
45	0x3f807258	1.0034895
46	0x3f7fe38d	0.9995659
47	0x3f802384	1.0010839
48	0x3f82c379	1.0215904
49	0x3f80f451	1.007456
50	0x3f7ffe25	0.9999717
51	0x3f804107	1.0019845
52	0x3f8f7cd2	1.1209967
53	0x3f809447	1.0045251
54	0x3f800009	1.0000011
55	0x3f977cdb	1.1834978

mambaLayer.in_proj.weight f4 [112, 56]
0	0x3dc3d633	0.0956234
1	0x3c8bf5d5	0.017084995
2	0x3dbde928	0.09272987
3	0xbd7fb056	-0.062424026
4	0xbcdca9d9	-0.026936458
5	0xbd298a54	-0.041391686
6	0xbd352138	-0.044221133
7	0x3da5dd04	0.08098796
8	0xbd92cd61	-0.07168079
9	0xbd9626d8	-0.073316276
10	0x3c04be78	0.008102052
11	0xbdcb94c5	-0.09940485
12	0x3d4308ee	0.047615938
13	0xbda534d0	-0.08066714
14	0x3d57633e	0.05258488
15	0x3d688f07	0.056777027
16	0x3dfa1f50	0.12213004
17	0x3dca2d3b	0.09871908
18	0x3dea56be	0.11442326
19	0xbd78bc59	-0.060726497
20	0xbd701c3e	-0.058620684
21	0xbd34da1d	-0.04415332
22	0xbd24040e	-0.04004293
23	0xbe049fc3	-0.1295157
24	0xbd8109a7	-0.06300669
25	0xbc65df2f	-0.014030262
26	0xbd3a5cfb	-0.04549883
27	0xbd2a339a	-0.041553117
28	0x3da4fd95	0.080561794
29	0x3c0a603a	0.008445794
30	0xbddc906d	-0.107697345
31	0x3da08ade	0.07838987
32	0x3de8fff7	0.113769464
33	0x3ce2d207	0.02768804
34	0xbd9ea817	-0.07746904
35	0xbdd2d7cb	-0.102950655
36	0xbcfae36e	-0.030626025
37	0xbdce8ce8	-0.100854695
38	0xbd7ef32c	-0.062243626
39	0xbddd59c7	-0.10808139
40	0x3cf21def	0.02955529
41	0x3d5e664e	0.054296784
42	0x3df4d49a	0.11954613
43	0xbda067ca	-0.07832296
44	0x3e0682a0	0.13135767
45	0xbdc20011	-0.09472669
46	0xbd17989f	-0.037010785
47	0x3da5bb80	0.080924034
48	0x3dffae9b	0.12484475
49	0x3d9e653f	0.07734155
50	0x3d245b8f	0.04012638
51	0x3d829613	0.06376281
52	0xbdbf0b0a	-0.093282774
53	0x3dd32fc0	0.10311842
54	0xbdec0acc	-0.11525497
55	0xbd241387	-0.040057685
56	0xbd301459	-0.042988155
57	0xbdff8463	-0.12476423
58	0xba7009c6	-0.000915673
59	0xbdcd57be	-0.10026501
60	0x3ddaca59	0.10683126
61	0x3dd4c7f5	0.10389701
62	0x3dc4dccb	0.096124254
63	0x3e032d0a	0.1281015
64	0xbdd32a19	-0.10310764
65	0x3c8c9b26	0.017163824
66	0x3ccf316a	0.025292117
67	0x3d781dba	0.060575224
68	0x3d5f0f48	0.054457933
69	0x3df88dca	0.12136419
70	0xbd40fa88	-0.047113925
71	0xbdb513c8	-0.088416636
72	0xbdbe01e3	-0.092777036
73	0xbd66d278	-0.056353062
74	0xbda725be	-0.081614956
75	0xbd21a21e	-0.039461248
76	0xbe036636	-0.12831959
77	0xbdd28a59	-0.10280294
78	0x3dbefc56	0.09325473
79	0xbd7580c7	-0.059937265
80	0x3e0464af	0.12929033
81	0x3da5b23d	0.08090637
82	0x3d2889f2	0.04114718
83	0x3db45271	0.08804787
84	0xbdbaae1a	-0.091152385
85	0x3b8162df	0.003948554
86	0xbdb2d993	-0.08732905
87	0x3cb9a3cd	0.022661114
88	0xbda90478	-0.082528055
89	0xbd8de16f	-0.06927764
90	0xbd1de1e8	-0.03854552
91	0xbd8d433f	-0.06897592
92	0x3dfdce65	0.12392882
93	0x3d116b62	0.0355028
94	0xbda12c51	-0.07869781
95	0xbd5794ed	-0.05263226
96	0x3ddc1b96	0.10747449
97	0x3dfc174d	0.12309132
98	0x3c40a104	0.011757139
99	0xbdb403a3	-0.08789756
100	0x3d8df83a	0.06932111
101	0xbd1170ed	-0.035508085
102	0xbdd424c1	-0.10358573
103	0xbd89aac8	-0.06722027
104	0x3dc1794a	0.09446962
105	0x3d8452eb	0.06461128
106	0xbcd33bf3	-0.025785422
107	0xbc5d703b	-0.013515527
108	0xbd5a4c64	-0.053295508
109	0xbd109548	-0.035298616
110	0xbe02b64b	-0.12764852
111	0xbe01d8ff	-0.12680434
112	0x3da81d98	0.082087696
113	0x3de9cea0	0.11416364
114	0x3d0403c0	0.03223014
115	0x3dcdd3a4	0.10050133
116	0xbccff15a	-0.02538364
117	0x3de5c150	0.11218512
118	0xbdef248e	-0.11676894
119	0x3e082c2b	0.13298099
120	0xbd3d681f	-0.046241876
121	0x3dfdfefd	0.12402151
122	0x3ded17f2	0.11576833
123	0x3d5c6c7b	0.053814393
124	0xbd1c89be	-0.0382173
125	0x3c917aff	0.017758844
126	0xbe00d41f	-0.12580918
127	0x3d68b097	0.056809034
128	0x3de6968f	0.112591855
129	0xbd8bd746	-0.068281695
130	0x3d3f4bc1	0.046703104
131	0x3dd1a246	0.10236029
132	0xbca30489	-0.019899623
133	0x3d35adff	0.04435539
134	0xbd636880	-0.05551958
135	0x3ba24ab1	0.0049527516
136	0xbd706903	-0.058693897
137	0xbbf8e31d	-0.0075954334
138	0x3d88d2b1	0.06680811
139	0x3d90a5a6	0.07062845
140	0xbda22839	-0.07917828
141	0x3d7671d3	0.060167145
142	0x3e01068b	0.12600152
143	0xbdbf9527	-0.093546204
144	0xbd1945d6	-0.037420116
145	0x3d5bb2ae	0.0536372
146	0x3d116fb4	0.03550692
147	0x3d338d34	0.043835834
148	0x3ca387a5	0.019962141
149	0xbd979ab9	-0.07402558
150	0x3bafb9c2	0.00536272
151	0xbd97be82	-0.07409383
152	0xbd2f5edd	-0.042815078
153	0x3d62721b	0.0552846
154	0x3cf9113c	0.030403726
155	0x3d7b2eca	0.06132392
156	0x3ce9b7c7	0.028530015
157	0x3de5d086	0.11221413
158	0xbe03e133	-0.12878875
159	0xbdaea6ba	-0.08527894
160	0xbe0240cb	-0.12720029
161	0x3db38e8b	0.08767422
162	0xbdf6b7ba	-0.12046762
163	0xbd600db7	-0.05470058
164	0xbdb680c2	-0.08911277
165	0x3dff59a1	0.12468267
166	0xbd62f29c	-0.05540715
167	0x3d8355c6	0.06412844
168	0x3de91c1c	0.113823146
169	0x3d98c9a4	0.07460335
170	0xbd66945e	-0.056293838
171	0x3be25c5e	0.0069079837
172	0xbca14dcc	-0.019690417
173	0xbd822bdc	-0.06356022
174	0xbc5570fc	-0.013027426
175	0x3df9bae6	0.12193851
176	0xbcf61b2f	-0.030042259
177	0x3deb4ed1	0.114896424
178	0xbda050fc	-0.078279465
179	0xbdca0ced	-0.09865747
180	0x3b94e0b1	0.004543387
181	0x3dfdd8c3	0.1239486
182	0x3d9570d4	0.07296911
183	0x3dd1dc9e	0.102471575
184	0xbce7baf5	-0.02828739
185	0xbbcdec98	-0.0062843077
186	0xbde8b002	-0.11361696
187	0xbdc4741d	-0.09592459
188	0xbdbf82e9	-0.09351141
189	0xbdb969a4	-0.090533525
190	0x3d9b9c48	0.07598168
191	0xbbf8443c	-0.0075764935
192	0xbd71db63	-0.059047114
193	0x3c0e8a5a	0.008699978
194	0xbd93de0a	-0.07220085
195	0xbdc0d24c	-0.09415111
196	0x3d39b907	0.04534247
197	0xbc4910ec	-0.012272101
198	0x3dafd472	0.085854426
199	0x3db86365	0.09003333
200	0xbc6ef237	-0.014584116
201	0xbd1d1e22	-0.038358815
202	0xbd445e81	-0.04794169
203	0x3d468c89	0.04847387
204	0xbcbeb350	-0.023278862
205	0x3dd56464	0.104195386
206	0xbd0972de	-0.03355681
207	0x3ddb96dc	0.107221335
208	0x3d5351dd	0.051591743
209	0x3b26a5f2	0.00254285
210	0xbdfc35be	-0.12314938
211	0xbc513efc	-0.012771364
212	0xbcfdaf18	-0.03096728
213	0x3db4fbd0	0.08837092
214	0xbd91ee2b	-0.07125505
215	0x3cf3b03f	0.029747127
216	0xbd99730f	-0.07492649
217	0x3e05863f	0.13039492
218	0x3de99216	0.11404817
219	0x3d715e94	0.058928087
220	0xbdd5834d	-0.10425434
221	0xbd530eac	-0.051527664
222	0xbde4b823	-0.11167934
223	0x3d575744	0.052573457
224	0xbc2cc7bf	-0.01054567
225	0x3cb17a7a	0.021664847
226	0x3d10027c	0.03515862
227	0x3d7be89b	0.061501127
228	0xbce54f21	-0.027991833
229	0x3e00fd5f	0.12596653
230	0xbdb9ff59	-0.09081907
231	0xbda5b022	-0.08090235
232	0xbd24ac43	-0.040203344
233	0xbdae36c3	-0.08506539
234	0xbde6406e	-0.11242758
235	0x3e036451	0.12831236
236	0x3c7c23a6	0.015389359
237	0xbcf19a0f	-0.029492406
238	0x3da4f68a	0.08054836
239	0xbe03526f	-0.12824415
240	0x3d2043c4	0.039127126
241	0xbdecb714	-0.11558357
242	0xbda063d6	-0.07831542
243	0xbd9d1187	-0.07669359
244	0x3ccb617f	0.024826763
245	0xbd2d2b0c	-0.04227738
246	0xbd5fcba1	-0.054637555
247	0xbda51dd7	-0.08062332
248	0x3dd9a9c7	0.106280856
249	0x3d9ead3f	0.07747888
250	0x3d058ecb	0.03260688
251	0x3d325dc1	0.043546442
252	0x3cf6221a	0.030045558
253	0x3e01dda5	0.12682207
254	0x3d54d370	0.051959455
255	0x3dcc9d2d	0.099909164

mambaLayer.conv1d.weight f4 [56, 1, 4]
0	0x3e94f964	0.2909652
1	0x3eb9aa1a	0.3626259
2	0x3ea43582	0.32072073
3	0x3d5846b0	0.052801788
4	0xbd9dc578	-0.0770368
5	0xbdb21dd8	-0.086970985
6	0x3e63c5c0	0.22243404
7	0xbc4438a2	-0.011976393
8	0xbe6f3c34	-0.2336281
9	0xbe4bfba8	-0.19920218
10	0xbe72ec34	-0.23722917
11	0x3caefdbe	0.021361228
12	0xbecf65c6	-0.40507334
13	0xbe356e6c	-0.17717904
14	0xbeed9ffa	-0.46411115
15	0xbd71aea5	-0.059004445
16	0xbd82d658	-0.06388539
17	0xbefbec10	-0.4920354
18	0xbe379050	-0.17926145
19	0x3db314dc	0.08744213
20	0xbe0dd374	-0.13850194
21	0xbe2f9d6c	-0.17149895
22	0xbe3158ac	-0.17318982
23	0x3eafe73c	0.34356105
24	0xbe9ac242	-0.30226332
25	0xbec84506	-0.3911516
26	0x3efb984e	0.49139637
27	0x3ee42e65	0.44566646
28	0x3db9ff30	0.09081876
29	0x3e72a3b0	0.23695254
30	0x3ed937d8	0.42425418
31	0xbe9295db	-0.28629956
32	0xbdf840e0	-0.12121749
33	0xbeac6c44	-0.3367635
34	0x3dbce6c8	0.092237055
35	0x3e7edcbb	0.2488889
36	0x3ef44d36	0.47715157
37	0xbea7a13e	-0.32740206
38	0xbec181c2	-0.3779431
39	0xbe839f80	-0.25707626
40	0x3e298c9c	0.16557544
41	0xbeae9a0c	-0.34101903
42	0xbe6f08f0	-0.23343253
43	0x3ea9254f	0.33036277
44	0x3ef83abe	0.48482317
45	0xbe569d80	-0.20958519
46	0x3ea9e944	0.3318578
47	0x3e414614	0.18874389
48	0xbec7a684	-0.3899423
49	0xbd431f30	-0.047637165
50	0xbde5b4e8	-0.11216146
51	0x3e9bd614	0.30436766
52	0xbdb93780	-0.09043789
53	0xbe26afe4	-0.16278034
54	0x3e1bc5d4	0.15212184
55	0x3e2bcde2	0.16777757
56	0xbe765974	-0.24057561
57	0xbd9c3380	-0.0762701
58	0x3e86b7da	0.26312143
59	0x3dc23ab6	0.094838545
60	0x3e4f3424	0.20234734
61	0xbe05de10	-0.13072991
62	0x3ee249f4	0.44197047
63	0xbe189af9	-0.14902867
64	0x3ee74eae	0.45177215
65	0x3ec5b752	0.38616425
66	0xbeffb026	-0.49939078
67	0x3fa4ee69	1.2885257
68	0x3e456778	0.19277751
69	0xbe942528	-0.28934598
70	0xbcb0a120	-0.021561205
71	0xbdcca38c	-0.099921316
72	0x3ed3cbba	0.4136637
73	0xbe50d648	-0.20394242
74	0x3e7f7b50	0.24949384
75	0xbeb159b7	-0.3463876
76	0x3d457480	0.048206806
77	0x3cb946c0	0.022616744
78	0xbea04798	-0.31304622
79	0xbda8946b	-0.082314335
80	0xbecc28ac	-0.3987478
81	0xbe439af8	-0.19102085
82	0xbde1f2b0	-0.11032617
83	0xbee63d34	-0.4496857
84	0xbe082444	-0.13295084
85	0xbcf0ba40	-0.029385686
86	0xbe811284	-0.2520944
87	0xbe2103a5	-0.15724047
88	0x3eea6ab0	0.4578452
89	0x3cec10c0	0.02881658
90	0x3c394740	0.011308491
91	0xbe7ae284	-0.24500471
92	0x3e07eb94	0.1327346
93	0xbe721318	-0.23640096
94	0x3eed32a8	0.4632771
95	0xbe51ba78	-0.20481288
96	0x3ec47e4e	0.38377613
97	0x3e5401a8	0.20703757
98	0x3ef9183c	0.48651302
99	0x3efa0fe3	0.48840246
100	0x3ee7575e	0.45183843
101	0x3e6be290	0.23035645
102	0xbdafb4e0	-0.08579421
103	0xbeab28f3	-0.3342968
104	0xbe76ce7c	-0.24102205
105	0x3e11fb3c	0.14255995
106	0xbee1b46a	-0.44082958
107	0x3edbc2de	0.4292211
108	0xbd1fc290	-0.03900391
109	0x3d65c930	0.05610007
110	0xbe87223e	-0.26393312
111	0x3e200f69	0.15630879
112	0xbd647e90	-0.055784762
113	0x3e90d324	0.28286088
114	0xbdb67368	-0.08908731
115	0xbe82e946	-0.25568599
116	0xbed96c7a	-0.42465574
117	0xbe116d9c	-0.14201969
118	0xbe96673a	-0.2937563
119	0x3c48a1ad	0.012245578
120	0xbbfa1580	-0.0076319575
121	0xbeca4e7a	-0.39512998
122	0xbec2457a	-0.3794363
123	0x3f058f16	0.52171457
124	0x3d92dcd8	0.07171029
125	0x3e75c984	0.24002653
126	0xbd1a0560	-0.037602782
127	0xbeb04358	-0.3442638
128	0xbebe38be	-0.37152666
129	0x3e8429a0	0.25813007
130	0x3e48cbb4	0.19608957
131	0xbea48121	-0.32129768
132	0xbe1b2d7c	-0.1515407
133	0xbe0004e8	-0.12501872
134	0xbe8a52d6	-0.27016324
135	0x3dfe6036	0.124206945
136	0x3dbf58f0	0.09343135
137	0x3e97c5be	0.29643053
138	0xbe0a09d8	-0.13480318
139	0x3d82934c	0.06375751
140	0xbe4b78cc	-0.19870299
141	0x3e597890	0.21237397
142	0x3ec80382	0.39065176
143	0xbc8a686e	-0.0168955
144	0xbe969ed2	-0.29418045
145	0xbe369154	-0.17828876
146	0xbe394c74	-0.18095571
147	0x3e6d4aa6	0.23173007
148	0x3c83e660	0.016101062
149	0xbe74f2a4	-0.23920685
150	0xbe952116	-0.29126805
151	0xbece01cc	-0.40235746
152	0x3ec6e004	0.38842785
153	0xbd82f3e0	-0.06394172
154	0x3ed47c26	0.41500968
155	0xbca37b21	-0.019956173
156	0x3ebbadc0	0.36655998
157	0x3dc36060	0.095398664
158	0xbef18440	-0.4717121
159	0xbe35e37a	-0.17762557
160	0x3ee0cc22	0.4390574
161	0xbc84f9e0	-0.016232431
162	0xbe52427c	-0.20533174
163	0xbda3cd91	-0.07998193
164	0x3d044cd0	0.032299817
165	0x3ebbca4c	0.36677778
166	0xbe8170ea	-0.2528146
167	0x3eced163	0.40394124
168	0xbeef2ebe	-0.4671535
169	0x3e973ec4	0.29540074
170	0xbefde762	-0.49590594
171	0x3e91038d	0.28323022
172	0x3d74c350	0.059756577
173	0x3da6acc0	0.08138418
174	0xbd2b01d0	-0.041749775
175	0xbebabb4d	-0.36471024
176	0xbd99c118	-0.07507533
177	0x3e698610	0.22805047
178	0x3e8eab80	0.2786522
179	0xbd29768e	-0.04137283
180	0xbcfc2ae0	-0.030782163
181	0xbe7c9bcc	-0.24668807
182	0x3e9b39b2	0.30317456
183	0x3e868346	0.2627203
184	0x3e641110	0.22272134
185	0xbee6595c	-0.4499005
186	0xbe7f8c58	-0.2495588
187	0x3dcd7398	0.100318134
188	0x3ea40b56	0.320399
189	0xbe622624	-0.22084862
190	0xbd7fed40	-0.06248212
191	0xbea768a4	-0.32697022
192	0x3d92bf18	0.071653545
193	0xbea714b0	-0.3263297
194	0x3eb1b970	0.3471179
195	0xbeb9cd85	-0.3628961
196	0x3da61898	0.0811016
197	0x3e4c3514	0.19942123
198	0x3c428480	0.011872411
199	0xbe06b31d	-0.13154264
200	0xbc8dd280	-0.017312288
201	0x3d982780	0.07429409
202	0xbe5b32b8	-0.21406066
203	0x3d17b1ce	0.037034802
204	0x3a916a00	0.0011094213
205	0x3c091780	0.008367419
206	0x3eaf71dc	0.34266555
207	0x3ee55561	0.447917
208	0x3e01ec3c	0.12687773
209	0xbec60228	-0.3867352
210	0xbef30bf4	-0.47470057
211	0xbf1ae697	-0.605081
212	0x3ed87e1a	0.42283708
213	0xbe4ed874	-0.20199758
214	0xbe390204	-0.18067175
215	0x3efc6ed5	0.49303308
216	0xbefd630c	-0.4948963
217	0xbdaad5b0	-0.08341539
218	0x3d88c8c0	0.06678915
219	0xbea6df8c	-0.32592428
220	0xbe5357fc	-0.20639032
221	0x3d8010c8	0.06253201
222	0x3ceabc00	0.028654099
223	0xbf01205a	-0.5043999

mambaLayer.conv1d.bias f4 [56]
0	0xbdb89fab	-0.09014829
1	0xbeadc73e	-0.33941072
2	0x3e9ca17d	0.30591956
3	0x3ed7fd2f	0.4218535
4	0xbee9d28f	-0.45668456
5	0x3edf064a	0.43559486
6	0x3e305367	0.17219315
7	0x3e75bbf5	0.23997481
8	0xbece81b4	-0.4033333
9	0x3d3c3a7e	0.04595422
10	0x3db618e6	0.08891468
11	0x3f366716	0.71251047
12	0xbe100145	-0.14062984
13	0xbe60d08c	-0.21954554
14	0x3ddd5a84	0.1080828
15	0x3ea46e22	0.32115275
16	0xbe8598a9	-0.26093033
17	0xbd68e887	-0.05686238
18	0x3f3fb02b	0.74878186
19	0x3e1f71bc	0.1557073
20	0x3ee479f4	0.44624293
21	0xbe8e4ee9	-0.2779458
22	0x3ee5d2e4	0.4488746
23	0x3ebd60d2	0.3698793
24	0x3e400c98	0.18754804
25	0x3da9fb06	0.08299832
26	0xbea42cbb	-0.32065377
27	0x3e8baf8b	0.27282366
28	0xbe6d6edb	-0.2318682
29	0x3ece733f	0.403223
30	0x3eeea096	0.46606892
31	0xbe038c41	-0.12846471
32	0x3ee8a0d5	0.45435205
33	0x3dc1da77	0.09465497
34	0x3e5dbf1f	0.21654938
35	0x3ed68be3	0.419036
36	0xbe40e95e	-0.18839023
37	0x3e30d98e	0.1727049
38	0x3c857fc0	0.016296268
39	0xbd698967	-0.057015803
40	0x3da2dec4	0.079526454
41	0x3e957543	0.29191026
42	0xbe9b8f5b	-0.3038281
43	0xbec5f69f	-0.3866472
44	0x3d471096	0.048599802
45	0x3e46204d	0.1934826
46	0x3ed3f74f	0.4139962
47	0xbeca93cc	-0.39565885
48	0xbe5b38fc	-0.21408457
49	0x3eec6851	0.46173337
50	0x3c0740dc	0.00825521
51	0xbe6e9fbc	-0.23303121
52	0x3f0c4a49	0.5480085
53	0xbe74dad8	-0.23911607
54	0x3d7114ef	0.058857854
55	0x3f32c4ad	0.69831353
