crowd_nav/data/lstmrl-copy/il_model.pth (torch, 191490 bytes, 11 tensors)

mlp.0.weight f4 [150, 56]
-0.030106781 -0.09577474 0.023211619 0.101376176 -0.0700893 -0.14728521 0.030807303 -0.048064835
0.037629873 0.13034563 0.013651653 -0.030570006 0.036203977 -0.09672733 -0.050179865 -0.026664399
-0.009776963 0.005069309 -0.05824736 0.12812005 -0.11098518 0.09812199 -0.08392713 -0.08591462
-0.10414729 0.13346782 0.009251533 -0.0020821413 0.019710084 0.012382202 -0.049887307 -0.060792807
0.029947314 0.0953044 0.012267089 -0.025144657 0.031500116 0.10785133 0.03789032 -0.05666376
0.102846526 -0.064448506 0.008001506 -0.041616544 -0.041820154 -0.045803454 0.08165702 0.08566077
-0.06400298 -0.020435143 -0.0884258 -0.055974375 -0.03754464 0.07598456 0.0039507975 0.10068259
0.06454885 0.022841278 -0.0534323 -0.08489945 0.020925188 0.2482643 0.05535248 0.011340652
-0.056553077 0.051485423 -0.17165153 -0.12621596 0.040518884 -0.1349836 0.0084702 -0.07294897
-0.11636944 0.03404679 -0.047972467 0.02828074 0.021171626 0.026294192 -0.07563495 0.023926122
-0.0009891612 -0.04503827 0.035432365 -0.05683076 0.10786693 -0.04382386 0.06091581 -0.14013901
-0.06984039 -0.052722946 0.07203518 -0.04260972 -0.093921065 0.06793238 -0.1188758 -0.1384772
0.014349974 0.037531685 0.10343082 -0.08223516 -0.059793454 0.08301595 -0.127819 -0.082496546
0.09719206 0.10992599 -0.04333601 -0.004893029 0.08340031 0.07081821 0.05004262 -0.10380848
-0.16898215 0.1245697 -0.06976963 -0.023196734 0.016016467 0.10446791 0.051608276 0.0015150558
-0.0041210908 0.09074766 0.05265021 0.09784687 0.08539908 0.0720307 0.059847955 0.04048256
-0.027941305 0.07464847 -0.11101296 0.05860287 0.104837 0.112772286 -0.04183487 0.11330889
0.04606703 -0.064729184 0.04021438 -0.063561104 0.08513054 -0.096106455 0.038158733 0.06413806
-0.12461115 -0.050456848 -0.06967033 -0.06126734 -0.05075223 0.08768585 -0.06283882 0.0066513754
-0.11400262 0.017697325 0.108196445 0.08299291 0.07709745 0.0031619777 0.09566174 0.12428439
-0.11282166 -0.009976856 -0.035858482 0.030658402 0.080255754 -0.0062977173 -0.07019004 -0.039237306
0.072716236 0.055414848 -0.1324885 -0.0044228197 -0.17331643 -0.06524183 0.03717256 -0.14056002
-0.075313926 -0.046168897 -0.11244858 -0.1079933 0.035748977 0.0047535505 0.05575611 -0.13912572
-0.07624301 0.029446125 -0.069211945 -0.0555501 -0.0150963245 0.037262727 -0.036731347 -0.005103834
-0.11796439 -0.055841632 0.066754535 -0.06259837 0.018968271 -0.04514525 -0.09957023 -0.068926595
-0.048046358 0.04513416 -0.0798206 0.0783849 -0.09767254 -0.06814411 -0.014657391 -0.11321821
-0.054963812 0.04430442 -0.118895926 0.11799795 -0.09652733 0.02921151 0.10787332 -0.049249724
0.120339006 -0.09952601 -0.091226436 -0.026781887 0.053706117 0.019624058 0.036568563 0.086471334
0.06935408 0.014213568 -0.06469362 0.020461032 -0.11183861 -0.03484053 0.1949681 0.03981011
0.060660124 0.0025356563 0.14315137 0.03184305 0.056799736 -0.12814683 -0.07339137 0.025955329
-0.043864004 0.06967852 0.05665843 -0.0105535 -0.12699755 -0.032364037 -0.0002976636 -0.084932014
0.08985804 0.048204634 0.002996918 0.10092271 0.08289227 -0.10394434 0.059811693 -0.083586395
00000000: 7fa2 f6bc 8c25 c4bd 4b26 be3c 509e cf3d
00000010: fb8a 8fbd efd1 16be 995f fc3c a2df 44bd
00000020: c821 1a3d 5379 053e 2fab 5f3c f36d fabc
00000030: 9f4a 143d fa18 c6bd 6789 4dbd 4c6f dabc
00000040: 8e2f 20bc 721c a63b c994 6ebd e731 033e
00000050: 334c e3bd 2ff4 c83d fde1 abbd 01f4 afbd
00000060: 2d4b d5bd caab 083e be93 173c 8974 08bb
00000070: 0b77 a13c b8de 4a3c a256 4cbd e101 79bd
00000080: 1254 f53c f42e c33d e7fb 483c 2bfc cdbc
00000090: 4406 013d 28e1 dc3d e132 1b3d 4218 68bd
000000a0: 33a1 d23d 94fd 83bd c018 033c 1c76 2abd
000000b0: 9c4b 2bbd 679c 3bbd cc3b a73d ea6e af3d
000000c0: ff13 83bd 9a67 a7bc 9618 b5bd 6345 65bd
000000d0: 69c8 19bd cb9d 9b3d b175 813b ac32 ce3d
000000e0: 3032 843d a21d bb3c d4db 5abd c3df adbd
000000f0: 4d6b ab3c ff38 7e3e 48b9 623d 24ce 393c
00000100: 33a4 67bd 61e2 523d 6bc5 2fbe c23e 01be
00000110: 21f7 253d 2439 0abe 98c6 0a3c 4566 95bd
00000120: 1a53 eebd a674 0b3d c77e 44bd 03ad e73c
00000130: 1e70 ad3c eb66 d73c 7fe6 9abd b700 c43c
00000140: bea6 81ba 0d7a 38bd 8721 113d 5fc7 68bd
00000150: 56e9 dc3d a680 33bd db82 793d 9a80 0fbe
00000160: 7a08 8fbd 04f4 57bd 2e87 933d 8887 2ebd
00000170: b059 c0bd 2220 8b3d 2875 f3bd f8cc 0dbe
00000180: 271c 6b3c d3ba 193d 8ad3 d33d e86a a8bd
00000190: fbe9 74bd 4404 aa3d fce2 02be f3f3 a8bd
000001a0: a10c c73d e120 e13d 1a81 31bd b455 a0bb
000001b0: c8cd aa3d 2309 913d 7ef9 4c3d 8a99 d4bd
000001c0: a809 2dbe 661e ff3d 61e3 8ebd 1407 bebc
000001d0: f734 833c 46f3 d53d 3363 533d d694 c63a
000001e0: 370a 87bb e9d9 b93d bfa7 573d f163 c83d
000001f0: b6e5 ae3d d584 933d 2123 753d 0ad1 253d
00000200: 2ae5 e4bc 4ce1 983d c35a e3bd 9009 703d
00000210: c8b4 d63d 28f5 e63d 0a5b 2bbd 7e0e e83d
00000220: c8b0 3c3d bc90 84bd d5b7 243d 532c 82bd
00000230: ec58 ae3d 76d3 c4bd 554c 1c3d d15a 833d
00000240: 2134 ffbd d7ab 4ebd 51af 8ebd 76f3 7abd
00000250: 92e1 4fbd a494 b33d a4b1 80bd c8f3 d93b
00000260: 357a e9bd fbf9 903c 1996 dd3d 30f8 a93d
00000270: 45e5 9d3d 2f39 4f3b 4dea c33d d088 fe3d
00000280: 0b0f e7bd f875 23bc 58e0 12bd 5427 fb3c
00000290: 215d a43d 155d cebb ccbf 8fbd 4cb7 20bd
000002a0: 40ec 943d aefa 623d 11ab 07be 4ded 90bb
000002b0: dd79 31be 829d 85bd 4142 183d f7ee 0fbe
000002c0: 303e 9abd 991b 3dbd 714b e6bd 972b ddbd
000002d0: 856d 123d acc3 9b3b 8560 643d f976 0ebe
000002e0: 4c25 9cbd 0039 f13c febe 8dbd 8088 63bd
000002f0: 9356 77bc cda0 183d 9c73 16bd 103e a7bb
00000300: 5097 f1bd 32ba 64bd 9ab6 883d 9333 80bd
00000310: 5963 9b3c 3aea 38bd 7aeb cbbd 6329 8dbd
00000320: 42cc 44bd 99de 383d fc78 a3bd 4388 a03d
00000330: 8a08 c8bd 248f 8bbd 8e25 70bc f3de e7bd
00000340: bc21 61bd 8d78 353d b57f f3bd e9a8 f13d
00000350: 1fb0 c5bd fa4c ef3c b0ec dc3d 14ba 49bd
00000360: 4c74 f63d 4bd4 cbbd edd4 babd b065 dbbc
00000370: f2fa 5b3d a2c2 a03c ebc8 153d e217 b13d
00000380: 8309 8e3d 06e0 683c 177e 84bd e59d a73c
00000390: a40b e5bd f2b4 0ebd b8a5 473e ed0f 233d
000003a0: c076 783d 412d 263b 4696 123e dc6d 023d
000003b0: d7a6 683d ec38 03be 374e 96bd 45a0 d43c
000003c0: beaa 33bd 9db3 8e3d ab12 683d 96e8 2cbc
000003d0: a50b 02be 2790 04bd bb0f 9cb9 d6f0 adbd
000003e0: 7e07 b83d 3972 453d f167 443b 91b0 ce3d
000003f0: 6cc3 a93d c5e0 d4bd 1bfd 743d 582f abbd

mlp.0.bias f4 [150]
0.04306349 -0.12366059 -0.011683965 -0.11141531 0.015526594 0.088797845 -0.07987184 0.13041614
-0.04842082 0.12201839 0.07149102 -0.107202984 -0.07655549 -0.07648883 -0.032044698 0.08694655
-0.0959783 -0.045589175 0.09187787 -0.0015482072 -0.041294422 0.07133774 -0.017021101 0.061514877
-0.07890532 0.11361779 0.044676855 -0.08925584 0.051794965 -0.08754524 -0.07181274 -0.06889529
-0.003220226 0.05847416 0.1146856 -0.025932465 0.0027801455 -0.040703047 0.0557294 -0.08162886
-0.13849314 -0.13032784 0.04976041 -0.07765452 -0.030792333 -0.048329588 0.052702922 0.098502375
-0.09070239 -0.10620092 -0.046844896 0.063044734 -0.032646097 -0.12935679 0.14211641 0.068391114
-0.07549267 -0.018782927 -0.04749242 0.1388581 -0.074721806 0.08162782 -0.10994101 0.05308382
-0.05023873 -0.08269311 0.18767163 0.07696707 -0.0051228404 -0.13316636 -0.056141194 -0.08247175
-0.009651452 0.083612055 -0.13189644 -0.019390626 -0.07917001 -0.040750913 0.022716701 -0.023254044
0.048462942 0.10258807 -0.067617945 -0.017891617 0.022743214 -0.107931845 0.1273905 -0.0760798
0.039580207 -0.06205058 0.022571575 -0.06654015 -0.021129977 -0.060198847 -0.010415701 -0.018193034
-0.09937251 -0.1328409 -0.103586465 -0.03946384 -0.062982544 -0.06539093 -0.11441904 0.10621452
-0.08272004 0.08920784 0.10139382 -0.084287435 -0.05970779 0.05395208 0.03918852 -0.107416734
0.10188194 0.0757826 -0.013567155 0.013372141 0.12840083 -0.06784342 0.10525899 0.11519051
0.056976527 0.08297815 0.027031582 0.113005444 -0.056071877 -0.033560377 0.027200263 0.05916454
0.08994139 0.0289776 0.09533565 -0.014789253 0.039350837 -0.13017705 -0.07491645 -0.01720834
0.052088633 -0.07756156 0.09918568 -0.009956276 -0.061584353 -0.14793676 -0.13130867 0.11160286
-0.057243276 0.002887113 -0.06572414 0.10580056 0.014049695 -0.06280642
00000000: 5863 303d c341 fdbd 1a6e 3fbc b62d e4bd
00000010: 4163 7e3c a5db b53d d993 a3bd cf8b 053e
00000020: e954 46bd c7e4 f93d e269 923d 3d8d dbbd
00000030: 20c9 9cbd 2da6 9cbd 4d41 03bd 0811 b23d
00000040: 4590 c4bd b7bb 3abd 772a bc3d 37ed caba
00000050: 5724 29bd 8519 923d d66f 8bbc 06f7 7b3d
00000060: 1d99 a1bd 72b0 e83d 14ff 363d c4cb b6bd
00000070: f526 543d eb4a b3bd 8f12 93bd f918 8dbd
00000080: 6d0a 53bb 9a82 6f3d 49e0 ea3d 5270 d4bc
00000090: 1a33 363b 3db8 26bd 8344 643d 082d a7bd
000000a0: 25d1 0dbe a974 05be 92d1 4b3d 5509 9fbd
000000b0: 3440 fcbc 3ff5 45bd 05df 573d 9dbb c93d
000000c0: 2dc2 b9bd de7f d9bd 6fe0 3fbd 991d 813d
000000d0: eab7 05bd 1b76 04be f786 113e a410 8c3d
000000e0: e79b 9abd a7de 99bc 6987 42bd d130 0e3e
000000f0: bf07 99bd 7d2c a73d c128 e1bd 6b6e 593d
00000100: 20c7 4dbd 015b a9bd fe2c 403e e9a0 9d3d
00000110: 80dd a7bb c35c 08be 4ff4 65bd f3e6 a8bd
00000120: 2021 1ebc cc3c ab3d dc0f 07be 17d9 9ebc
00000130: e323 a2bd 6eea 26bd 6018 ba3c 447f bebc
00000140: 1481 463d b219 d23d 477b 8abd 7191 92bc
00000150: fa4f ba3c 5f0b ddbd a872 023e bacf 9bbd
00000160: db1e 223d c028 7ebd 06e8 b83c 3446 88bd
00000170: c618 adbc 1193 76bd 9ea6 2abc 8f09 95bc
00000180: d183 cbbd 7207 08be 2425 d4bd d6a4 21bd
00000190: fefc 80bd aeeb 85bd 8854 eabd 0087 d93d
000001a0: 2069 a9bd 9ab2 b63d 90a7 cf3d e49e acbd
000001b0: 2890 74bd dbfc 5c3d 2484 203d 4efd dbbd
000001c0: 7ba7 d03d e833 9b3d c648 5ebc d316 5b3c
000001d0: 827b 033e 7ef1 8abd 0692 d73d 01e9 eb3d
000001e0: 3860 693d 73f0 a93d 5671 dd3c 666f e73d
000001f0: a0ab 65bd 9b76 09bd 16d3 de3c 8456 723d
00000200: 3133 b83d 6f62 ed3c 563f c33d 9f4e 72bc
00000210: 582e 213d 224d 05be cc6d 99bd 81f8 8cbc
00000220: e45a 553d 98d8 9ebd dd21 cb3d a61f 23bc
00000230: e03f 7cbd bc7c 17be c875 06be 0a90 e43d
00000240: ed77 6abd b835 3d3b 619a 86bd f7ad d83d
00000250: b130 663c a7a0 80bd

mlp.2.weight f4 [100, 150]
0.07832946 0.035259098 0.06318553 0.052972138 -0.047007643 0.052093126 0.029438866 0.034954082
-0.079719484 0.0088722985 0.07800924 0.07593795 0.06797039 -0.067243665 0.059321232 -0.028677892
-0.08152827 0.062886894 0.043037754 0.03254942 -0.014133351 0.055783838 0.024845887 0.05067611
-0.072276995 0.047489405 0.032175325 -0.039041534 0.039622825 0.01683104 0.024592228 -0.0032783505
0.035529524 -0.081311695 0.047492936 -0.03149415 0.07882351 -0.024676505 -0.06269571 -0.018957868
-0.057150844 -0.03918995 -0.06654702 -0.030065902 -0.018572094 0.0707241 -0.066882394 -0.03297588
-0.043096285 0.009855757 -0.058618207 -0.060910426 -0.034359127 -0.07065574 -0.011121856 -0.0079943715
0.0565426 0.018610407 0.013073079 0.025009321 -0.03829945 -0.05540117 -0.028277831 0.0040337923
-0.08508363 -0.026243674 -0.046057094 0.07391776 -0.081335075 -0.0050258595 -0.06886232 -0.02449419
0.0632878 0.0480969 -0.027195679 0.06383372 0.06697967 -0.013718597 0.027919823 -0.05736338
-0.025223603 -0.03431035 -0.061574895 -0.038183693 -0.04301718 0.054136254 -0.01857361 0.06355142
0.066096574 0.07385613 0.06394623 -0.059844065 -0.03606635 -0.06988416 0.039822213 0.067700304
-0.045655735 -0.013721658 0.041476242 0.04229043 -0.027316665 -0.033346124 -0.053836048 -0.043049302
-0.042547546 -0.05431137 -0.067167275 0.07202295 -0.07646548 -0.02284734 -0.020941049 0.06810679
0.023367954 0.007329754 -0.07589638 -0.07191763 -0.06878517 0.022126792 -0.020889102 -0.072348684
-0.027612032 -0.012336399 0.011425061 0.01415771 0.037382945 -0.08127341 -0.05780551 -0.074552104
0.006371345 -0.0008422774 -0.02806527 -0.011374973 6.466642e-05 0.044617333 0.015117966 0.025522143
-0.068533644 0.00023390526 -0.04538792 -0.0071391924 0.061312903 0.058632776 0.0030181408 -0.0044083255
0.037504874 0.035965674 0.026762748 -0.04166041 -0.061187707 0.003369252 -0.05344971 0.06979558
-0.06692257 0.03833785 -0.059588607 0.0054625487 -0.00090783316 0.0024877358 0.07614045 -0.045137484
-0.067802675 -0.01211041 0.030412726 -0.005271391 0.04073577 0.006285249 -0.046543572 0.068327285
0.041307796 0.0082935365 -0.058060817 -0.06806394 0.030057235 0.0049489103 0.04066129 0.00800489
-0.05808311 0.0567107 -0.052606754 -0.07479595 0.017924288 -0.07383905 0.00092077366 -0.031566385
-0.034172457 -0.07309434 -0.077004425 0.058409344 0.06650595 -0.0060106255 0.01840847 0.004865616
-0.06900247 0.030105295 -0.022848649 0.016820753 0.018747564 -0.03704144 0.0729759 -0.048154373
-0.03600474 -0.017483743 -0.05701293 0.050739735 -0.0013854683 0.069980726 -0.012836722 -0.010838359
0.03086348 0.039701708 0.05829953 -0.022773627 -0.018886734 -0.06833851 -0.02332376 0.006665929
-0.04256168 -0.045197953 0.027981415 0.07177105 0.015006474 -0.022704536 0.045946397 0.04686492
0.055921778 -0.049224585 -0.06002173 -0.022308776 -0.040430207 0.0049610096 -0.07439817 -0.036594
0.0608012 0.017052708 -0.052051403 -0.06700398 -0.07471542 0.032886755 0.02443283 -0.05302915
0.06483776 -0.080690525 0.023949541 -0.010730815 -0.08065378 -0.05316554 -0.03645713 0.05284922
-0.05244976 0.062531024 -0.017284222 0.048600726 0.025221484 0.060667895 0.037302848 -0.042280544
00000000: 326b a03d d86b 103d 6a67 813d 50f9 583d
00000010: 168b 40bd 9a5f 553d c729 f13c 032c 0f3d
00000020: f843 a3bd 1e5d 113c 4fc3 9f3d 5b85 9b3d
00000030: 0f34 8b3d 0cb7 89bd d2fa 723d e6ed eabc
00000040: 4bf8 a6bd d8ca 803d 5b48 303d 8a52 053d
00000050: 928f 67bc 987d 643d 9a89 cb3c c191 4f3d
00000060: f605 94bd 4084 423d 46ca 033d 04ea 1fbd
00000070: 8b4b 223d 40e1 893c a475 c93c 98d9 56bb
00000080: 6887 113d bf86 a6bd f487 423d 0300 01bd
00000090: 386e a13d 6226 cabc 9c66 80bd 884d 9bbc
000000a0: 0117 6abd a485 20bd ce49 88bd c44c f6bc
000000b0: 8124 98bc ccd7 903d a3f9 88bd b711 07bd
000000c0: bb85 30bd 0a7a 213c a519 70bd 367d 79bd
000000d0: 28bc 0cbd f5b3 90bd 7238 36bc d3fa 02bc
000000e0: 3799 673d da74 983c 7830 563c 59e0 cc3c
000000f0: e2df 1cbd 56ec 62bd e9a6 e7bc e72d 843b
00000100: 5440 aebd f9fc d6bc 5da6 3cbd 3262 973d
00000110: 0193 a6bd f7af a4bb b007 8dbd 0aa8 c8bc
00000120: 099d 813d 4101 453d 79c9 debc 41bb 823d
00000130: a32c 893d f7c3 60bc 1db8 e43c ddf5 6abd
00000140: bba1 cebc 0289 0cbd f535 7cbd 8166 1cbd
00000150: c832 30bd fabd 5d3d af27 98bc 3f27 823d
00000160: a45d 873d e241 973d 3ef6 823d 0d1f 75bd
00000170: 4fba 13bd 6d1f 8fbd 9e1c 233d 75a6 8a3d
00000180: 8201 3bbd ced0 60bc fee2 293d bb38 2d3d
00000190: 33c7 dfbc f295 08bd 3083 5cbd 7754 30bd
000001a0: 5646 2ebd 9975 5ebd ff8e 89bd c580 933d
000001b0: ef99 9cbd 582a bbbc 908c abbc 937b 8b3d
000001c0: 276e bf3c 6f2e f03b 906f 9bbd 8d49 93bd
000001d0: 3ddf 8cbd 3f43 b53c 9f1f abbc 8c2b 94bd
000001e0: a132 e2bc 9c1e 4abc 2e30 3b3c bdf5 673c
000001f0: dc1e 193d ac72 a6bd 78c5 6cbd c6ae 98bd
00000200: b7c6 d03b 48cc 5cba 23e9 e5bc 185e 3abc
00000210: 859d 8738 aac0 363d 58b1 773c d013 d13c
00000220: 5e5b 8cbd 7744 7539 afe8 39bd e3ef e9bb
00000230: 3d23 7b3d ec28 703d 00cc 453b b773 90bb
00000240: b69e 193d be50 133d 8d3d db3c 1ba4 2abd
00000250: f69f 7abd abce 5c3b 15ee 5abd fcf0 8e3d
00000260: b30e 89bd 2608 1d3d 2f13 74bd 2eff b23b
00000270: a7fb 6dba 4809 233b 86ef 9b3d 15e2 38bd
00000280: 21dc 8abd be6a 46bc 1c24 f93c a2bb acbb
00000290: 8dda 263d 7df4 cd3b 79a4 3ebd 2def 8b3d
000002a0: 5d32 293d 9de1 073c 2ed1 6dbd 1b65 8bbd
000002b0: 973a f63c 782a a23b 748c 263d f126 033c
000002c0: 8ee8 6dbd 7b49 683d 2e7a 57bd 9e2e 99bd
000002d0: f5d5 923c ee38 97bd 1360 713a c14b 01bd
000002e0: 6bf8 0bbd 7cb2 95bd 7fb4 9dbd a33e 6f3d
000002f0: 4634 883d c8f4 c4bb 5ccd 963c bf6f 9f3b
00000300: 2b51 8dbd 619f f63c 172d bbbc adcb 893c
00000310: 7e94 993c c4b8 17bd 6374 953d 853d 45bd
00000320: b579 13bd 113a 8fbc 6486 69bd 78d4 4f3d
00000330: 9a98 b5ba 0e52 8f3d 1d51 52bc 5f93 31bc
00000340: 69d5 fc3c 429e 223d 7dcb 6e3d c28f babc
00000350: 5ab8 9abc 10f5 8bbd 7811 bfbc de6d da3b
00000360: 2855 2ebd 7d21 39bd 4839 e53c b3fc 923d
00000370: b7dd 753c ddfe b9bc 4a32 3c3d 6ef5 3f3d
00000380: 3c0e 653d b89f 49bd 58d9 75bd e5c0 b6bc
00000390: 259a 25bd f78f a23b 115e 98bd 97e3 15bd
000003a0: ae0a 793d 1fb2 8b3c da33 55bd 6239 89bd
000003b0: 6604 99bd 43b4 063d 5c27 c83c 1835 59bd
000003c0: a9c9 843d 1341 a5bd d431 c43c 4dd0 2fbc
000003d0: cf2d a5bd 1cc4 59bd 1254 15bd 6c78 583d
000003e0: 8fd5 56bd 4410 803d a497 8dbc 8e11 473d
000003f0: 499d ce3c e67e 783d dfca 183d 5d2e 2dbd

mlp.2.bias f4 [100]
-0.053819828 0.0014704284 -0.038015313 -0.011394459 0.01678615 0.085567005 -0.01881026 -0.010683618
0.031168733 0.03163852 0.034069914 -0.059205294 0.104970895 -0.058650356 0.06741576 0.16894841
0.010695041 -0.01851895 -0.015431386 -0.057394486 0.033903927 -0.054979324 -0.012577192 -0.084381476
0.0983313 -0.06676902 0.124878466 0.02846092 0.053870283 -0.0048535555 0.010266262 0.017238691
0.0594915 0.015789246 0.040351827 0.06081607 0.05285263 0.076875925 0.11320544 0.0005786822
0.107733496 -0.019230891 0.06072844 -0.07521001 -0.07484985 -0.032635294 0.08427728 0.015911447
-0.036783572 0.06972581 -0.06256748 -0.057992846 -0.013873541 -0.017227303 -0.050172556 0.09980487
0.041508466 0.035602286 -0.065966494 -0.07328287 -0.13545625 0.01677058 0.027427368 0.088796325
0.08891659 -0.1314253 -0.0044165207 -0.07337412 0.06156876 0.012180934 -0.04774233 0.03404373
-0.05870568 0.028809488 -0.033012312 0.04161186 -0.119288966 -0.020114426 0.0007663881 0.0678793
0.001383646 -0.00074029417 0.012000381 0.020095486 0.038194563 -0.0011364622 -0.049233843 -0.04102529
0.023404986 0.058935888 0.022564165 0.069562696 -0.05515245 0.0033487936 -0.02420333 0.046413857
-0.09564681 0.04499053 -0.015394933 0.06709679
00000000: 2e72 5cbd 64bb c03a f2b5 1bbd d3af 3abc
00000010: 1c83 893c c13d af3d f917 9abc 570a 2fbc
00000020: 9255 ff3c 6597 013d e58c 0b3d 4081 72bd
00000030: fbfa d63d 5b3b 70bd 4611 8a3d d000 2d3e
00000040: 413a 2f3c 0eb5 97bc edd3 7cbc 7b16 6bbd
00000050: d8de 0a3d 0032 61bd 9110 4ebc 32d0 acbd
00000060: ec61 c93d 32be 88bd 48c0 ff3d e026 e93c
00000070: 16a7 5c3d 930a 9fbb d333 283c 2838 8d3c
00000080: 5cad 733d 7358 813c f547 253d 451a 793d
00000090: 007c 583d 2071 9d3d 41d8 e73d b4b2 173a
000000a0: 61a3 dc3d 1a8a 9dbc 62be 783d b507 9abd
000000b0: e14a 99bd 96ac 05bd 9199 ac3d b958 823c
000000c0: 5faa 16bd 68cc 8e3d 6123 80bd e889 6dbd
000000d0: d94d 63bc 4620 8dbc bd81 4dbd 7f66 cc3d
000000e0: c804 2a3d b4d3 113d 7119 87bd 5415 96bd
000000f0: 0bb5 0abe 7562 893c 5caf e03c d9da b53d
00000100: e719 b63d 5b94 06be 76b8 90bb 2c45 96bd
00000110: 862f 7c3d 8a92 473c 768d 43bd 7071 0b3d
00000120: 5e75 70bd e001 ec3c eb37 07bd 3371 2a3d
00000130: c64d f4bd 02c7 a4bc 6fe7 483a 4d04 8b3d
00000140: 755b b53a 4d10 42ba 3f9d 443c 4a9f a43c
00000150: e771 1c3d 58f5 94ba 6da9 49bd 220a 28bd
00000160: d0bb bf3c c266 713d 7cd8 b83c e376 8e3d
00000170: 89e7 61bd 6f77 5b3b 1046 c6bc 751c 3e3d
00000180: 7ae2 c3bd fd47 383d 073b 7cbc 0b6a 893d

mlp.4.weight f4 [100, 100]
-0.038567748 0.053915024 0.09403246 0.057279814 0.01993997 0.107130826 -0.068287194 -0.0046983487
0.010760177 0.08343951 -0.068158165 0.08437243 0.0002805205 0.07609643 -0.049259488 -0.025060976
-0.074288584 0.061776754 0.023711797 0.00852794 0.011281674 -0.0631469 0.0496737 -0.037716955
0.012798176 0.02862138 0.035266105 -0.07965302 -0.04033976 0.052576806 -0.10001639 -0.08787103
-0.08280719 -0.019151643 0.05772137 0.07171047 0.071025334 0.013002387 0.059188645 0.07276054
-0.0034668122 0.08094601 -0.0119798435 0.034855116 0.08372995 -0.03966254 -0.059031874 0.026214054
-0.011193781 0.018113978 -0.0005686618 -0.056214217 -0.038395487 -0.0008330118 -0.011446527 0.046478238
0.03699911 -0.024111839 0.029030781 -0.091915734 0.030703068 0.009160015 -0.015103129 0.016569827
-0.022308987 0.02738546 0.094060406 -0.052564174 0.028001234 0.030845398 -0.06940555 0.038039073
-0.004752486 -0.08225483 -0.01855899 -0.0817242 -0.0067982725 -0.09687917 0.006777229 0.069493264
0.06331939 -0.09862457 -0.03309746 0.017219711 0.054350257 0.03669962 0.041747972 0.04937829
0.09037774 -0.053521026 -0.02470225 -0.05469081 0.027236199 0.07782959 -0.07534116 0.024302341
0.023526242 -0.09902027 0.044969615 -0.045355752 0.05799617 -0.04165137 0.058888037 0.014783132
-0.0060268845 -0.086208954 -0.09059211 0.008150321 0.060299885 0.021856152 -0.040137418 -0.07888627
-0.09049653 -0.05886039 -0.10614798 0.07974799 -0.09027026 -0.02461604 0.09354238 0.016911684
-0.01949707 -0.100186326 0.059235178 0.047173455 -0.0009986297 0.099856704 -0.03653809 0.07710552
-0.049582705 -0.027657328 -0.1134105 -0.05933931 -0.0924571 -0.042594243 0.050797563 -0.04842059
-0.07038086 0.025099827 -0.043130316 0.07921823 0.06270683 0.07837871 0.07444737 -0.012184763
-0.0044790693 -0.0823745 0.017400915 0.09815128 -0.011982986 0.037260264 -0.058286667 -0.038990192
-0.06814611 0.04061261 0.048379272 0.09703236 0.0787527 -0.037451323 0.06970621 -0.07429077
-0.05407344 0.07817593 -0.012695828 -0.09004087 0.018205157 0.034677148 0.050783314 -0.03815322
-0.003736994 0.078155376 -0.09781525 -0.011016537 -0.060818605 0.061283365 0.035454016 -0.016763624
-0.057636578 -0.059045617 0.05358423 -0.012970225 0.0672924 -0.008668941 0.08445144 0.05775211
0.077762306 -0.06526828 -0.06804827 0.06899264 0.07905833 -0.020583708 -0.091248825 -0.019903712
-0.03576623 -0.06090372 -0.016703676 0.033676088 -0.06235522 -0.104920655 -0.04059697 -0.062333673
-0.069371514 -0.08197995 -0.01054286 0.07029093 -0.040063217 0.08988306 -0.02651329 0.0005570757
0.037787825 0.03823343 -0.04529953 -0.014455509 -0.07368875 0.048008103 -0.028533014 -0.007607989
-0.045834813 0.032525934 0.0057082716 -0.06399694 0.05529338 0.04150749 0.0880157 -0.04107913
-0.05126385 -0.04106398 0.028953739 -0.088729694 0.06460016 -0.051586974 0.0132429795 0.048792735
0.08991121 0.10921666 -0.023708591 -0.053563125 -0.065194994 -0.009538597 0.08772854 0.049310956
0.09115308 0.028450342 -0.016650809 -0.0016943216 0.06406865 -0.024149122 -0.104636356 -0.097200945
0.030771255 0.04100305 0.08376289 0.032668136 -0.003023839 0.07379481 -0.057602704 -0.054510843
00000000: 37f9 1dbd 00d6 5c3d 1794 c03d 3d9e 6a3d
00000010: 2659 a33c 6867 db3d 28da 8bbd 9bf4 99bb
00000020: 744b 303c 55e2 aa3d 8296 8bbd 74cb ac3d
00000030: d312 9339 72d8 9b3d 51c4 49bd ad4c cdbc
00000040: 9d24 98bd 9f09 7d3d 3e3f c23c c6b8 0b3c
00000050: c5d6 383c 2953 81bd a676 4b3d 187d 1abd
00000060: 71af 513c 6277 ea3c 3173 103d 1f21 a3bd
00000070: 4e3b 25bd c75a 573d 65d5 ccbd baf5 b3bd
00000080: d196 a9bd e8e3 9cbc 3e6d 6c3d f0dc 923d
00000090: bb75 913d f707 553c cb6f 723d 7a03 953d
000000a0: 7533 63bb 06c7 a53d 1b47 44bc 3dc4 0e3d
000000b0: 9c7a ab3d 3075 22bd 68cb 71bd dbbe d63c
000000c0: 1f66 37bc c463 943c 3f12 15ba e140 66bd
000000d0: 9644 1dbd 7a5e 5aba 378a 3bbc f75f 3e3d
000000e0: 618c 173d 3186 c5bc f6d1 ed3c 513e bcbd
000000f0: 0085 fb3c e313 163c 1d73 77bc 72bd 873c
00000100: 56c1 b6bc 7957 e03c bea2 c03d 884d 57bd
00000110: d862 e53c 7daf fc3c 7f24 8ebd dcce 1b3d
00000120: beba 9bbb 3875 a8bd 0609 98bc 045f a7bd
00000130: 0bc4 debb 9668 c6bd 8413 de3b 7c52 8e3d
00000140: 99ad 813d aefb c9bd 3491 07bd 5a10 8d3c
00000150: 609e 5e3d 5752 163d ecff 2a3d e440 4a3d
00000160: f717 b93d dd38 5bbd 5f5c cabc 7903 60bd
00000170: 731e df3c 1f65 9f3d 774c 9abd b415 c73c
00000180: 1bba c03c 24cb cabd 0f32 383d f4c6 39bd
00000190: 648d 6d3d a09a 2abd 9534 713d f334 723c
000001a0: 2c7d c5bb 528e b0bd 5b88 b9bd ed88 053c
000001b0: 03fd 763d ac0b b33c 2267 24bd 208f a1bd
000001c0: 3f56 b9bd 9817 71bd 1d64 d9bd ea52 a33d
000001d0: 9ddf b8bd 94a7 c9bc 2693 bf3d 5f8a 8a3c
000001e0: 52b8 9fbc 7d2e cdbd 96a0 723d f438 413d
000001f0: 74e4 82ba ac81 cc3d f7a8 15bd 80e9 9d3d
00000200: 3c17 4bbd 9f91 e2bc c443 e8bd c70d 73bd
00000210: 265a bdbd 4d77 2ebd 1b11 503d ab54 46bd
00000220: d723 90bd 279e cd3c 6aa9 30bd 2b3d a23d
00000230: 706c 803d 0485 a03d dd77 983d 9aa2 47bc
00000240: 28c5 92bb f6b3 a8bd 5d8c 8e3c 8a03 c93d
00000250: 4954 44bc 389e 183d 00be 6ebd 2eb4 1fbd
00000260: 3090 8bbd 6859 263d 5829 463d e7b8 c63d
00000270: 1849 a13d 8f66 19bd 21c2 8e3d c225 98bd
00000280: 1d7c 5dbd b41a a03d 2a02 50bc 5967 b8bd
00000290: fb22 953c a009 0e3d 2a02 503d 8d46 1cbd
000002a0: 5be8 74bb ed0f a03d 5d53 c8bd b57e 34bc
000002b0: ee1c 79bd 4404 7b3d 3b38 113d de53 89bc
000002c0: 5514 6cbd d1d9 71bd 237b 5b3d 1181 54bc
000002d0: 99d0 893d 2d08 0ebc e0f4 ac3d 7a8d 6c3d
000002e0: d841 9f3d 60ab 85bd e45c 8bbd 034c 8d3d
000002f0: 55e9 a13d 2a9f a8bc aae0 babd 1c0d a3bc
00000300: 9c7f 12bd 2e76 79bd 26d6 88bc f0ef 093d
00000310: 3068 7fbd a4e0 d6bd 0249 26bd 9851 7fbd
00000320: a712 8ebd 1be5 a7bd f6bb 2cbc b1f4 8f3d
00000330: 5419 24bd 9c14 b83d 6632 d9bc b808 123a
00000340: 68c7 1a3d a89a 1c3d 008c 39bd cdd6 6cbc
00000350: 21ea 96bd 25a4 443d 11be e9bc 704c f9bb
00000360: 49bd 3bbd ea39 053d 740c bb3b d410 83bd
00000370: 507b 623d c203 2a3d 9341 b43d 9742 28bd
00000380: 0bfa 51bd b432 28bd 6430 ed3c eab7 b5bd
00000390: 174d 843d dd4c 53bd 15f9 583c e4da 473d
000003a0: 5e23 b83d fcac df3d 8538 c2bc 0265 5bbd
000003b0: f484 85bd c747 1cbc 05ab b33d 49fa 493d
000003c0: 77ae ba3d b110 e93c 4767 88bc 0014 deba
000003d0: 6d36 833d 61d4 c5bc 964b d6bd 4a11 c7bd
000003e0: 0014 fc3c d0f2 273d e18b ab3d 06cf 053d
000003f0: 9a2b 46bb bc21 973d d0f0 6bbd c346 5fbd

mlp.4.bias f4 [100]
0.07270181 0.021370914 -0.0043909266 -0.016918166 0.17870231 0.05779344 0.04423482 -0.0543258
-0.041469865 0.0955232 0.060067493 0.029268032 0.017593602 0.037291765 0.010005613 -0.07819858
-0.07276221 -0.05828071 0.020678097 0.058074832 0.03378343 0.04631441 0.08527695 -0.021455608
0.0055830264 0.07433245 0.008398984 0.074505076 0.035807397 0.028138231 0.005878865 -0.08634348
0.07239439 -0.08599032 0.0014054538 0.0788129 0.019833548 0.070153765 0.058141407 0.0519423
-0.1011622 0.08665425 0.050487988 0.06557542 0.08234647 -0.039581567 -0.05034283 0.10564661
0.026983049 0.022761235 -0.051541135 -0.083728716 0.05221963 0.040823974 0.06007879 -0.10006457
-0.08730271 0.065967456 0.06834357 0.079871416 0.0012141146 -0.011467286 -0.07525231 -0.07500657
-0.01569661 -0.03347091 0.026132628 0.08008825 -0.064714745 -0.013283172 0.0654854 0.06110581
0.027700689 -0.0054722973 0.12775245 -0.005060719 0.06183666 0.10996431 -0.007923128 0.0981354
-0.037633818 0.08505487 -0.027387487 0.074892044 -0.05983643 0.056513786 0.05624508 -0.04652191
0.06203074 -0.018896813 0.007979998 -0.04057131 0.07182446 -0.07872579 -0.07727193 0.0031432034
0.05510664 0.07299065 -0.036576215 0.022968968
00000000: b0e4 943d 0e12 af3c c3e1 8fbb f797 8abc
00000010: bdfd 363e d0b8 6c3d 922f 353d bb84 5ebd
00000020: 4edc 29bd aba1 c33d 5509 763d 83c3 ef3c
00000030: 7520 903c 40bf 183d 95ee 233c 9426 a0bd
00000040: 5b04 95bd c1b7 6ebd 1d65 a93c e0df 6d3d
00000050: 7e60 0a3d 2eb4 3d3d aea5 ae3d acc3 afbc
00000060: d2f1 b63b 9d3b 983d e49b 093c 1e96 983d
00000070: c7aa 123d 2682 e63c 7ea3 c03b dad4 b0bd
00000080: 8343 943d b11b b0bd 3437 b83a a868 a13d
00000090: f779 a23c c7ac 8f3d af25 6e3d 73c1 543d
000000a0: 212e cfbd c977 b13d 7ecc 4e3d 684c 863d
000000b0: 44a5 a83d 4820 22bd 4934 4ebd 405d d83d
000000c0: 8e0b dd3c c575 ba3c cc1c 53bd f679 abbd
000000d0: 40e4 553d 0a37 273d 2d15 763d a7ee ccbd
000000e0: c3cb b2bd f219 873d b7f7 8b3d a093 a33d
000000f0: ed22 9f3a 49e1 3bbc e21d 9abd 0b9d 99bd
00000100: 2d96 80bc cb18 09bd 1814 d63c 4f05 a43d
00000110: 2a89 84bd a9a1 59bc 361d 863d 164a 7a3d
00000120: 8eec e23c f550 b3bb 8ad1 023e 63d4 a5bb
00000130: 7048 7d3d f834 e13d 02d0 01bc 36fb c83d
00000140: eb25 1abd 3f31 ae3d b95b e0bc 0061 993d
00000150: 0b17 75bd 007b 673d 3e61 663d c28d 3ebd
00000160: f213 7e3d 7dcd 9abc 8abe 023c 1a2e 26bd
00000170: b418 933d fd3a a1bd bf40 9ebd 34fe 4d3b
00000180: 80b7 613d 1f7c 953d f1d0 15bd 6b29 bc3c

mlp.6.weight f4 [1, 100]
0.054822404 -0.08153606 -0.14402564 0.17627259 0.37061897 -0.087621845 0.25764602 -0.061256893
0.06751933 0.15266056 -0.25070557 -0.17984094 -0.19433166 -0.2144476 0.0054925606 -0.014587538
0.09921236 -0.06266894 0.30867338 0.13702829 0.10750067 -0.18901953 0.13720995 0.17422158
-0.081906535 0.03733124 -0.09150545 -0.025938904 -0.077279925 -0.024005178 -0.015688436 -0.02605856
0.25719935 0.090353794 0.19140495 0.20236298 -0.14644119 -0.25841865 -0.25106144 -0.26273957
0.09509236 -0.14077681 0.15380546 -0.26618233 -0.07436147 0.12719804 -0.062467076 -0.1712445
-0.07130272 0.14529556 -0.023026375 0.0051519405 0.10610386 -0.41583735 0.21030697 -0.060436342
0.071139306 0.06557745 0.24075468 0.20890805 0.047642257 0.21011227 -0.086971454 0.08588666
-0.12654978 0.03606321 -0.086501665 -0.034618467 -0.08973241 0.033990327 -0.08590522 0.13460392
-0.18977182 -0.06900162 -0.6981154 0.065177016 -0.19313468 -0.1126919 -0.051082544 0.31320703
-0.08398645 -0.04660987 0.06892626 -0.17201687 0.05989139 -0.09723459 0.19044672 -0.19030826
-0.08073266 -0.13038841 -0.12456796 -0.06804337 0.11833429 -0.2013537 -0.067805745 0.10156592
0.12793486 0.057921346 -0.17151763 -0.046452414
00000000: 758d 603d 61fc a6bd 757b 13be cd80 343e
00000010: c5c1 bd3e 1573 b3bd 2eea 833e 82e8 7abd
00000020: 9347 8a3d 0d53 1c3e 7b5c 80be 3928 38be
00000030: e1fe 46be 2798 5bbe f0fa b33b 9200 6fbc
00000040: da2f cb3d 9358 80bd 700a 9e3e 2551 0c3e
00000050: 5029 dc3d 568e 41be c480 0c3e 2467 323e
00000060: 9dbe a7bd a4e8 183d 3667 bbbd d37d d4bc
00000070: f044 9ebd 82a6 c4bc 0985 80bc c378 d5bc
00000080: a2af 833e 690b b93d a9ff 433e 3e38 4f3e
00000090: aef4 15be 734f 84be 208b 80be cd85 86be
000000a0: c9bf c23d cc27 10be 2e7f 1d3e 0d49 88be
000000b0: d44a 98bd 3440 023e 7add 7fbd b85a 2fbe
000000c0: 2907 92bd 5cc8 143e cfa1 bcbc 9cd1 a83b
000000d0: fb4c d93d a2e8 d4be b65a 573e 198c 77bd
000000e0: 7cb1 913d 784d 863d 6588 763e feeb 553e
000000f0: 8724 433d ac27 573e 171e b2bd 58e5 af3d
00000100: 4496 01be 04b7 133d c927 b1bd 18cc 0dbd
00000110: a0c5 b7bd 7139 0b3d 13ef afbd 9cd5 093e
00000120: 8b53 42be b950 8dbd b1b7 32bf 877b 853d
00000130: 19c5 45be 03cb e6bd ee3b 51bd ac5c a03e
00000140: 1701 acbd fee9 3ebd 3629 8d3d 3125 30be
00000150: ad50 753d ee22 c7bd 7704 433e 2be0 42be
00000160: 2a57 a5bd 8a84 05be 7d1d ffbd 535a 8bbd
00000170: 4059 f23d aa2f 4ebe bddd 8abd cb01 d03d
00000180: 5b01 033e ef3e 6d3d 51a2 2fbe e344 3ebd

lstm.weight_ih_l0 f4 [200, 13]
0.18268304 -0.11466096 0.11553242 -0.08889686 0.13683704 0.03694587 -0.07777093 0.067966625
-0.08979283 -0.045088325 0.09621718 0.19747947 0.13816504 0.015619278 -0.04314997 -0.084140755
-0.08690322 0.045695428 0.07321275 -0.13402355 0.038364403 -0.11453533 -0.011782658 0.047712024
-0.078370795 -0.102344096 0.11323173 0.022898775 0.08784803 -0.037739094 -0.021727117 0.008181991
-0.36304632 -0.05838377 0.12288321 -0.016455386 0.12721588 -0.14716294 -0.027339108 -0.0934577
0.07831895 -0.023457132 -0.095208295 0.114901185 -0.063017555 0.021059828 -0.012441527 0.04287111
0.06853826 0.072728895 0.12666869 -0.09700272 -0.093930356 -0.024759486 -0.07951069 -0.09143179
0.087710686 0.019463232 0.19295749 -0.123946786 0.15378258 0.07358395 -0.00073342957 0.04120907
-0.12155643 -0.103110485 -0.026603984 -0.13695785 -0.13861652 0.06696151 -0.088723585 0.30055973
-0.34022877 -0.1506215 0.28006065 -0.010762635 -0.40534633 0.073819816 -0.101993285 -0.124121204
-0.06029451 0.1113196 -0.123183355 -0.11423777 -0.021752156 0.09323606 -0.11521833 -0.12535387
0.048054736 0.07649302 -0.122494675 0.07813943 -0.04573243 0.027377093 0.09907374 0.00059896085
-0.017502617 -0.09852331 0.05270309 -0.0945914 -0.18967476 -0.016677616 0.11487181 0.11548537
0.2494399 0.12847112 -0.12745245 0.040603384 -0.13616301 0.1419978 -0.069491126 0.070891045
-0.066429965 0.10593578 0.09577868 -0.0056922375 0.13416229 0.15920806 -0.120514445 0.10145683
-0.03182266 0.022183726 -0.123049766 0.096361786 -0.044322398 -0.043276813 0.053908594 -0.073808745
-0.09544422 0.019388657 0.0024900585 0.12772386 0.03601406 -0.10200171 0.044392332 0.06590293
0.09345074 -0.007339679 -0.040716033 0.11976516 0.11314585 0.0061114104 -0.11578705 0.026994392
-0.070247635 0.02808125 -0.046232894 0.071322255 -0.13718249 -0.29998106 0.051986035 0.38421232
0.19103141 0.08467056 -0.070177965 0.087832235 -0.058207925 -0.015053782 0.12934174 -0.13942467
-0.032168858 0.07298045 -0.03656639 0.05182516 -0.14741379 0.0675656 0.08341667 0.02845738
-0.036776498 0.09989625 -0.025339227 -0.1294372 -0.09235023 -0.11822858 -0.007952964 0.13399409
-0.07065393 -0.08425277 0.09235973 0.038736776 -0.07753978 -0.11159601 0.22621593 0.09191693
-0.13951126 -0.03077697 0.04342545 0.011271463 0.06513786 -0.0050129504 0.10435557 -0.19979042
0.09854562 0.09669201 -0.102362 0.030797059 -0.11886896 0.049529497 0.061000686 -0.10789049
0.12343953 0.005333325 -0.045881215 -0.011685983 -0.022935485 0.1072105 -0.016211076 0.022777416
0.065346725 0.050970513 -0.06134963 0.014972202 -0.1191172 -0.105178505 0.06449795 -0.0036786764
-0.11469224 0.067876026 -0.11238818 0.020861048 -0.014255274 -0.020135593 0.06442753 -0.09411589
0.053895146 0.053152893 0.0036247114 0.04878478 0.095536165 0.09514514 0.00011644713 -0.043225054
0.021276528 0.10740274 0.24267688 0.10718433 0.08621853 -0.11870318 0.07392727 -0.092255555
0.08414448 0.13247432 0.023036242 0.035857245 -0.033747707 0.058741637 0.10521153 0.016570786
0.058450907 0.04805309 -0.087016985 0.08843218 0.09089588 0.009756713 0.16407156 0.01574324
00000000: 4311 3b3e 5ed3 eabd 439c ec3d 8f0f b6bd
00000010: 021f 0c3e 8d54 173d 5e46 9fbd 1632 8b3d
00000020: 4ee5 b7bd 89ae 38bd 830d c53d 0f38 4a3e
00000030: 237b 0d3e 00e8 7f3c 06be 30bd fd51 acbd
00000040: 51fa b1bd 212b 3b3d 91f0 953d 783d 09be
00000050: fe23 1d3d 8091 eabd 0d0c 41bc af6d 433d
00000060: de80 a0bd c899 d1bd 0ae6 e73d 3696 bb3c
00000070: abe9 b33d 4f94 1abd 11fd b1bc c20d 063c
00000080: 35e1 b9be d223 6fbd 31aa fb3d 72cd 86bc
00000090: e144 023e e2b1 16be 44f6 dfbc c066 bfbd
000000a0: b065 a03d 2c29 c0bc 91fc c2bd 5051 eb3d
000000b0: 590f 81bd a985 ac3c 8cd7 4bbc 9e99 2f3d
000000c0: ca5d 8c3d e3f2 943d 70b5 013e 5da9 c6bd
000000d0: 8f5e c0bd 68d4 cabc 80d6 a2bd 9740 bbbd
000000e0: a9a1 b33d 5b71 9f3c a696 453e d0d7 fdbd
000000f0: 2e79 1d3e 2fb3 963d a043 40ba d7ca 283d
00000100: 94f2 f8bd 972b d3bd 99f0 d9bc ae3e 0cbe
00000110: 7df1 0dbe 1e23 893d b6b4 b5bd f7e2 993e
00000120: 7732 aebe 863c 1abe 1c64 8f3e c355 30bc
00000130: 8e89 cfbe d82e 973d dbe1 d0bd 4233 febd
00000140: 60f7 76bd 88fb e33d 8e47 fcbd 7ef5 e9bd
00000150: 9431 b2bc 8cf2 be3d 96f7 ebbd c45c 00be
00000160: 0bd5 443d 5fa8 9c3d 7dde fabd 9107 a03d
00000170: ee51 3bbd ed45 e03c 2ce7 ca3d 9503 1d3a
00000180: a661 8fbc 97c6 c9bd 32df 573d 23b9 c1bd
00000190: 1a3a 42be 7f9f 88bc e941 eb3d 9883 ec3d
000001a0: 2c6d 7f3e ef8d 033e e582 02be bc4f 263d
000001b0: 516e 0bbe df67 113e 5d51 8ebd 532f 913d
000001c0: 6f0c 88bd dcf4 d83d 9d27 c43d f385 babb
000001d0: d761 093e 7007 233e 47d0 f6bd 99c8 cf3d
000001e0: 7a58 02bd a5ba b53c 8401 fcbd 5459 c53d
000001f0: 678b 35bd 0743 31bd 42cf 5c3d 0a29 97bd
00000200: 4278 c3bd f6d4 9e3c 4030 233b 0bca 023e
00000210: 7b83 133d 46e6 d0bd bcd4 353d 1ef8 863d
00000220: 1a63 bf3d b181 f0bb dbc5 26bd 7047 f53d
00000230: 03b9 e73d 3a42 c83b c321 edbd 5823 dd3c
00000240: fedd 8fbd a60a e63c b45e 3dbd 6711 923d
00000250: 9179 0cbe 1e97 99be 4fef 543d 7ab7 c43e
00000260: bd9d 433e c267 ad3d 77b9 8fbd 63e1 b33d
00000270: 6f6b 6ebd 23a4 76bc 2972 043e 57c5 0ebe
00000280: 7ec3 03bd c676 953d a4c6 15bd 9e46 543d
00000290: a4f3 16be d55f 8a3d 5cd6 aa3d 741f e93c
000002a0: f4a2 16bd 6896 cc3d 3694 cfbc 2f8b 04be
000002b0: 1e22 bdbd d321 f2bd 264d 02bc bf35 093e
000002c0: 02b3 90bd b78c acbd 1927 bd3d 74aa 1e3d
000002d0: 2dcd 9ebd 738c e4bd 26a5 673e f23e bc3d
000002e0: 0adc 0ebe fc1f fcbc e2de 313d f1ab 383c
000002f0: 0067 853d ad43 a4bb 60b8 d53d dc95 4cbe
00000300: 49d2 c93d 7606 c63d 2ba3 d1bd 1d4a fc3c
00000310: 9271 f3bd 71df 4a3d dbdb 793d b0f5 dcbd
00000320: ddcd fc3d 2cc3 ae3b f1ed 3bbd 9176 3fbc
00000330: 33e3 bbbc 2e91 db3d 17cd 84bc b497 ba3c
00000340: 81d4 853d 75c6 503d c049 7bbd f74d 753c
00000350: b8f3 f3bd d467 d7bd 8017 843d f315 71bb
00000360: c4e3 eabd 9602 8b3d c62b e6bd cae4 aa3c
00000370: f48e 69bc 66f3 a4bc 95f2 833d d5bf c0bd
00000380: 28c1 5c3d d9b6 593d 918c 6d3b 8dd2 473d
00000390: 77a8 c33d 75db c23d 1435 f438 c10c 31bd
000003a0: 1d4c ae3c f8f5 db3d 4a80 783e 7583 db3d
000003b0: 5793 b03d a71a f3bd 2e67 973d 7bf0 bcbd
000003c0: f153 ac3d 59a7 073e 80b6 bc3c 0cdf 123d
000003d0: 093b 0abd 129b 703d 2579 d73d 75bf 873c
000003e0: 386a 6f3d 51d3 443d f635 b2bd ee1b b53d
000003f0: 9e27 ba3d 9fda 1f3c 6002 283e f8f7 803c

lstm.weight_hh_l0 f4 [200, 50]
-0.055950236 -0.021973515 -0.07169606 -0.0040446892 0.060797498 -0.058963157 -0.05976671 -0.055629417
0.1400654 -0.10210933 -0.09230907 -0.06723332 0.09059806 -0.0650171 0.09906759 -0.013938103
-0.07636288 -0.11231318 0.06047618 -0.105457835 -0.10909194 0.008810613 -0.08457002 0.06648175
-0.048371512 -0.056567475 -0.07710486 0.13160957 -0.12874293 -0.110885955 0.06244052 -0.12196787
-0.04057203 0.02736428 0.09108503 0.09748531 -0.06902724 -0.054842114 0.0565436 0.053268466
0.06297802 -0.019075507 -0.07507316 -0.106750615 0.11373697 0.04346484 -0.11161465 -0.00019824167
-0.06978817 -0.037912384 0.08209746 -0.0965641 0.05058371 -0.016135875 0.09129961 -0.052056454
-0.03493875 -0.12884453 -0.050679643 -0.006237245 0.12223855 -0.12450934 0.033796195 -0.038189482
0.07179684 0.091474526 4.745122e-06 0.0706444 -0.053091746 0.078295514 -0.098404035 -0.08681842
-0.10666907 -0.01567959 -0.028888024 -0.023711406 0.12530087 0.008960222 -0.034265783 -0.076767586
0.1207958 0.061812703 -0.14288248 -0.07636619 -0.019028015 -0.042149343 0.014984472 0.06784699
0.026416685 0.02738491 -0.034376286 -0.04286659 0.13077754 -0.04382524 0.020006305 0.12012371
0.09778475 -0.07000342 -0.091478385 0.013850019 0.06847222 0.027472148 0.0007903891 0.07354389
0.03315836 0.11340873 -0.070517056 -0.09040933 0.09579678 0.0049613956 0.09694604 -0.11907599
-0.09676922 0.022231337 -0.0339892 -0.0955734 0.043899834 -0.056907922 -0.08740803 -0.06484829
0.14493312 -0.063719414 -0.038116664 0.049356043 0.13074997 0.0357598 -0.0895868 0.12421323
-0.04966838 -0.041084036 0.05035064 -0.05204261 0.13044484 -0.06850336 0.012601364 -0.02423949
-0.12920284 -0.04739077 0.03069789 -0.035888862 -0.113132775 -0.07879962 -0.039423008 -0.023034489
0.08331715 0.074031726 0.03170854 -0.13111898 -0.10274643 0.13623516 -0.09957629 -0.036136363
0.06199582 -0.08732504 -0.1089799 0.0049647456 0.10882116 -0.06505635 -0.01764892 -0.08689325
-0.12554413 0.083261505 0.008675382 -0.0041483315 0.13823704 -0.071407996 -0.09317145 -0.041630503
-0.113623366 0.046896297 -0.065786324 -0.12630858 0.053458534 0.06761182 -0.017358888 0.116280094
0.10820025 -0.083313756 -0.044860665 -0.11587231 0.079658374 0.03619501 0.11390715 0.028418044
-0.09874942 -0.044091973 -0.0762986 0.080154814 0.085034676 -0.085855104 0.03926269 0.009719816
0.013556653 -0.07124628 0.10049972 0.0931809 0.0047449525 -0.07561004 -0.0888 -0.07240747
-0.013006162 0.12128656 -0.07073644 0.002594775 -0.10335383 -0.132384 0.11894988 -0.03851762
-0.0965451 0.018283201 0.14321347 0.037780773 0.07462636 -0.06478948 0.05383227 -0.07796158
-0.023549758 0.013419927 -0.0063459286 0.0400348 0.08836668 -0.034062874 0.11024133 0.13683479
-0.057475135 0.015185602 0.041554935 -0.09584119 0.121883534 -0.08895316 -0.023582282 0.094594315
-0.07668426 0.11066616 0.07885752 -0.073056206 -0.12223952 -0.087408274 -0.1223532 -0.025404725
0.06512714 0.09232823 0.0066790427 -0.059636336 -0.09309004 -0.019474845 0.1387156 0.069519445
-0.07543002 0.13764581 0.031831667 -0.017694803 -0.0552003 0.087722175 -0.07958787 0.047142662
00000000: 132c 65bd cd01 b4bc 62d5 92bd 5089 84bb
00000010: cc06 793d 5a83 71bd f0cd 74bd acdb 63bd
00000020: 4e6d 0f3e b21e d1bd 8a0c bdbd 9fb1 89bd
00000030: 7a8b b93d af27 85bd f3e3 ca3d a45c 64bc
00000040: 2464 9cbd 7404 e6bd dfb5 773d 47fa d7bd
00000050: 986b dfbd 645a 103c 0c33 adbd 9527 883d
00000060: 3521 46bd 4cb3 67bd 27e9 9dbd a9c4 063e
00000070: 30d5 03be 2d18 e3bd a1c1 7f3d 4aca f9bd
00000080: db2e 26bd 0e2b e03c ca8a ba3d 61a6 c73d
00000090: 275e 8dbd 20a2 60bd 439a 673d 0930 5a3d
000000a0: 9ffa 803d 3d44 9cbc f5bf 99bd 11a0 dabd
000000b0: eeee e83d 3008 323d 3996 e4bd 18df 4fb9
000000c0: 1aed 8ebd 044a 1bbd b722 a83d 66c3 c5bd
000000d0: dd30 4f3d 622f 84bc 4afb ba3d 2639 55bd
000000e0: ef1b 0fbd d2ef 03be 7595 4fbd ce61 ccbb
000000f0: 3458 fa3d c1fe febd e16d 0a3d 936c 1cbd
00000100: 390a 933d ff56 bb3d 4a38 9f36 03ae 903d
00000110: bb76 59bd 6659 a03d 0e88 c9bd dbcd b1bd
00000120: 5075 dabd 7c72 80bc 94a6 ecbc 6c3e c2bc
00000130: df4e 003e e5cd 123c 475a 0cbd 5338 9dbd
00000140: ca63 f73d 512f 7d3d c94f 12be e165 9cbd
00000150: a4e0 9bbc caa4 2cbd 6e81 753c 5df3 8a3d
00000160: ce67 d83c 5256 e03c 26ce 0cbd e194 2fbd
00000170: 8cea 053e 1882 33bd 43e4 a33c 6b03 f63d
00000180: 5f43 c83d f45d 8fbd 0559 bbbd 31eb 623c
00000190: 2a3b 8c3d 450d e13c 1d32 4f3a 2e9e 963d
000001a0: 0fd1 073d d642 e83d 3f6b 90bd 8728 b9bd
000001b0: 1a31 c43d 3493 a23b a58b c63d 1dde f3bd
000001c0: f12e c6bd 7e1e b63c 4238 0bbd fdbb c3bd
000001d0: 50d0 333d 4818 69bd fb02 b3bd 2ecf 84bd
000001e0: 5969 143e 537f 82bd 3820 1cbd 9029 4a3d
000001f0: 52e3 053e de78 123d 4979 b7bd 8263 fe3d
00000200: 1271 4bbd bc47 28bd 793c 4e3d a22a 55bd
00000210: 5593 053e 7d4b 8cbd f475 4e3c e591 c6bc
00000220: c04d 04be d31c 42bd 247a fb3c 3300 13bd
00000230: 28b2 e7bd b261 a1bd 057a 21bd d3b2 bcbc
00000240: 2fa2 aa3d f29d 973d d0e0 013d 0e44 06be
00000250: b86c d2bd 3b81 0b3e a7ee cbbd b903 14bd
00000260: 54ef 7d3d 78d7 b2bd db30 dfbd 4eaf a23b
00000270: a1dd de3d 433c 85bd 7894 90bc 17f5 b1bd
00000280: a48e 00be 0285 aa3d 3023 0e3c baee 87bb
00000290: 038e 0d3e 5b3e 92bd acd0 bebd bf84 2abd
000002a0: 5eb3 e8bd 5516 403d fbba 86bd 0957 01be
000002b0: 56f7 5a3d 1178 8a3d 3a34 8ebc 4224 ee3d
000002c0: 1898 dd3d 67a0 aabd d1bf 37bd 764e edbd
000002d0: ee23 a33d 3841 143d 2748 e93d f5cc e83c
000002e0: 233d cabd c999 34bd 7142 9cbd 3528 a43d
000002f0: a926 ae3d cdd4 afbd ead1 203d dd3f 1f3c
00000300: b91c 5e3c 92e9 91bd ccd2 cd3d a1d5 be3d
00000310: 8c7b 9b3b 70d9 9abd c6dc b5bd 5e4a 94bd
00000320: cc17 55bc 1765 f83d 44de 90bd 1a0d 2a3b
00000330: 2cab d3bd ac8f 07be ff9b f33d a7c4 1dbd
00000340: 70b9 c5bd a7c6 953c 8da6 123e 03c0 1a3d
00000350: b4d5 983d 59b0 84bd 3a7f 5c3d 52aa 9fbd
00000360: 6ceb c0bc 41df 5b3c 82f1 cfbb 88fb 233d
00000370: 97f9 b43d 8385 0bbd 35c6 e13d 6b1e 0c3e
00000380: 0c6b 6bbd 08cd 783c 8235 2a3d 6348 c4bd
00000390: 139e f93d 132d b6bd a12f c1bc aaba c13d
000003a0: a30c 9dbd f1a4 e23d 0d80 a13d 7e9e 95bd
000003b0: b758 fabd 1c03 b3bd 5194 fabd 921d d0bc
000003c0: 6161 853d 9516 bd3d dfdb da3b 3b45 74bd
000003d0: fea5 bebd b689 9fbc 760b 0e3e 3660 8e3d
000003e0: 0e7b 9abd 06f3 0c3e ec61 023d b1f4 90bc
000003f0: b619 62bd afa7 b33d f7fe a2bd aa18 413d

lstm.bias_ih_l0 f4 [200]
0.13405578 0.053374898 -0.12664695 -0.044330373 0.11987632 0.028165603 0.08286961 -0.014620042
-0.064148724 0.054400235 0.1348169 -0.09274498 -0.07813232 -0.022193795 0.011080903 0.07796426
-0.12110427 -0.014761578 0.053399567 0.09216123 -0.01856182 0.11542931 0.05924146 -0.088492244
0.122665636 0.07521238 0.063642785 -0.077147566 0.07126695 0.05328449 0.086448155 -0.02275231
0.13285497 -0.06307267 -0.03854153 -0.035071325 -0.08380967 0.06994587 -0.10728237 0.08669723
-0.07309206 -0.072548464 0.10618797 0.00015639709 -0.07672485 -0.028493484 -0.057779767 -0.022497837
-0.05065113 -0.033560555 -0.052829135 -0.0055094846 -0.028026983 0.029991217 -0.03813342 0.10582722
0.10645641 0.13666423 0.117772356 -0.12044809 0.14697729 0.045314193 -0.02236617 -0.021770898
0.117910504 0.10967766 -0.0072807646 0.025736464 0.08829216 -0.030862713 0.019998297 -0.12008586
0.10392375 0.11971467 0.0867234 0.03798605 0.13044089 -0.06430948 0.07515267 0.1251732
0.12407471 -0.080215365 -0.028824814 0.08379536 0.064508416 0.035498578 -0.084614635 0.11057626
0.043345567 0.010142915 0.15670614 -0.05856625 0.08258591 0.057509273 -0.039076824 -0.031390414
0.14340363 -0.02804399 0.0015486081 -0.10322908 -0.07791462 -0.07756562 0.013527418 0.081572734
0.10782205 -0.009277701 0.054692306 0.055510275 0.11213113 -0.05530041 -0.03806986 0.17000915
-0.027604194 0.11195273 0.1341103 0.05754603 -0.017143289 -0.09764656 0.05668461 0.07421892
0.07709501 0.024895333 0.0971126 -0.015039779 -0.04346357 0.07362939 -0.077389136 -0.102744505
0.117448 -0.112488836 0.10116314 -0.010104301 0.036310248 0.011369269 0.0313915 0.053988386
-0.069143616 0.088857464 0.016948294 -0.1162455 0.12152607 0.07761441 -0.13103284 -0.03783983
-0.06322094 0.1470447 -0.07488669 -0.100684464 -0.056506965 0.050364967 0.061747555 -0.01884599
0.0051263287 0.030120894 -0.09752984 0.09443702 0.111480355 0.1218504 0.07565053 -0.03975769
-0.08273398 0.18004188 0.019912023 -0.06736446 -0.025405776 -0.10745101 0.056672595 0.08122163
0.18127981 0.103624865 0.024378978 0.08561451 -0.11749599 -0.067625985 -0.07617842 0.09384279
-0.07960326 0.022306794 -0.092627354 0.05354064 0.12402364 -0.008595577 -0.042277798 0.1275754
-0.070373185 -0.08024575 0.081087954 0.13300635 0.038485833 -0.11538461 -0.023314748 -0.10136386
0.10961775 -0.09476762 -0.07730687 -0.0076565733 -0.11217958 0.028373353 0.040807433 -0.095589936
00000000: eb45 093e a39f 5a3d bdaf 01be c493 35bd
00000010: b781 f53d 8dbb e63c 8bb7 a93d e788 6fbc
00000020: 6860 83bd c8d2 5e3d 710d 0a3e 14f1 bdbd
00000030: d603 a0bd c3cf b5bc ad8c 353c baab 9f3d
00000040: 8405 f8bd 8cda 71bc 81b9 5a3d 07bf bc3d
00000050: f50e 98bc 3466 ec3d 2ca7 723d 6c3b b5bd
00000060: 1f38 fb3d f308 9a3d 2657 823d 8bff 9dbd
00000070: 68f4 913d d640 5a3d bb0b b13d 0d63 babc
00000080: 220b 083e 3e2c 81bd b9dd 1dbd f3a6 0fbd
00000090: 67a4 abbd c83f 8f3d dcb6 dbbd 518e b13d
000000a0: 4ab1 95bd 4a94 94bd 1479 d93d 86fe 2339
000000b0: eb21 9dbd 2b6b e9bc 7aaa 6cbd 624d b8bc
000000c0: 8f77 4fbd cb76 09bd 5d63 58bd e888 b4bb
000000d0: d898 e5bc 24b0 f53c ca31 1cbd f1bb d83d
000000e0: d105 da3d b5f1 0b3e a232 f13d 7dad f6bd
000000f0: 3781 163e 609b 393d 4239 b7bc e258 b2bc
00000100: 107b f13d ae9e e03d 7b93 eebb 47d5 d23c
00000110: 85d2 b43d cdd3 fcbc 78d3 a33c 93ef f5bd
00000120: fad5 d43d f72c f53d 0a9c b13d 4397 1b3d
00000130: 4c92 053e b0b4 83bd a5e9 993d 672d 003e
00000140: e21a fe3d f447 a4bd 0422 ecbc e79c ab3d
00000150: fd1c 843d f566 113d 704a adbd ce75 e23d
00000160: 1f8b 313d 782e 263c 9377 203e 2ae3 6fbd
00000170: cd22 a93d d88e 6b3d 050f 20bd 3c93 00bd
00000180: 67d8 123e 82bc e5bc aafa ca3a c569 d3bd
00000190: b391 9fbd b9da 9ebd 1aa2 5d3c 9b0f a73d
000001a0: cfd1 dc3d 8001 18bc 0a05 603d be5e 633d
000001b0: 02a5 e53d af82 62bd 24ef 1bbd e116 2e3e
000001c0: 3122 e2bc 7947 e53d 3654 093e 63b5 6b3d
000001d0: 1570 8cbc ebfa c7bd 1f2e 683d 1700 983d
000001e0: fde3 9d3d 4cf1 cb3c f9e2 c63d 6869 76bc
000001f0: db06 32bd 01cb 963d 327e 9ebd b66b d2bd
00000200: 9488 f03d 8c60 e6bd 9f2e cf3d 838c 25bc
00000210: 0eba 143d 2c46 3a3c 6094 003d ed22 5d3d
00000220: 2b9b 8dbd e7fa b53d 26d7 8a3c 1f12 eebd
00000230: a9e2 f83d 4ef4 9e3d 792d 06be f0fd 1abd
00000240: fb79 81bd e392 163e 315e 99bd a833 cebd
00000250: d973 67bd 7f4b 4e3d 01eb 7c3d e862 9abc
00000260: c3fa a73b 18c0 f63c babd c7bd 3268 c13d
00000270: d04f e43d b48c f93d aaee 9a3d f6d8 22bd
00000280: 6f70 a9bd e65c 383e 8a1e a33c 61f6 89bd
00000290: c61f d0bc 460f dcbd 8621 683d 8757 a63d
000002a0: 6aa1 393e 4639 d43d 6cb6 c73c a956 af3d
000002b0: bda1 f0bd 7e7f 8abd 6e03 9cbd a630 c03d
000002c0: 0907 a3bd bdbc b63c 69b3 bdbd 6e4d 5b3d
000002d0: 1b00 fe3d 77d4 0cbc 7c2b 2dbd 20a3 023e
000002e0: d11f 90bd e257 a4bd 7111 a63d d132 083e
000002f0: 52a3 1d3d c44e ecbd 92fe bebc db97 cfbd
00000300: 457f e03d 8715 c2bd 1053 9ebd fee3 fabb
00000310: 68be e5bd 3c6f e83c b225 273d a8c4 c3bd
