CrowdNav/crowd_nav/data/lstmrl-copy/rl_model.pth (torch, 191490 bytes, 11 tensors)

mlp.0.weight f4 [150, 56]
000000 1d ea a3 bc f2 13 c2 bd 4b 26 be 3c 38 3c d0 3d
       -0.020009095 -0.094764605 0.023211619 0.10167736
000010 70 84 9d bd 58 b4 17 be a8 dd e4 3c 99 ca 4b bd
       -0.07691276 -0.1481489 0.027937725 -0.04975376
000020 e8 23 34 3d a1 a0 04 3e 43 16 36 3c e8 79 11 bd
       0.043979555 0.129519 0.011113706 -0.03551665
000030 ed e3 12 3d a5 4a b8 bd 1d 23 61 bd dd 9f e6 bc
       0.0358619 -0.08998612 -0.054965127 -0.0281524
000040 06 c6 a2 bc 37 0a 5f 3a c4 da 69 bd 64 90 03 3e
       -0.019869816 0.0008508297 -0.057093397 0.1284805
000050 c4 55 d2 bd 80 93 c6 3d 65 c2 a6 bd 4f 98 b2 bd
       -0.10270265 0.09696102 -0.081425466 -0.08720457
000060 ed 88 db bd 94 8d 09 3e 51 c4 21 3c a8 14 a9 ba
       -0.10719476 0.13432914 0.009873466 -0.0012899833
000070 05 21 91 3c 8e 85 82 3c ec 1f 4d bd f9 3a 82 bd
       0.01771594 0.015932824 -0.05007927 -0.063589044
000080 5c 3e f6 3c 05 17 ca 3d 45 42 72 3c df 3b cd bc
       0.030059032 0.09867672 0.014786308 -0.025052963
000090 a8 93 eb 3c fb 09 dc 3d 09 99 20 3d f9 54 6e bd
       0.028756931 0.10744091 0.039208446 -0.058186505
0000a0 48 40 d8 3d d7 1c 66 bd 58 ba ec 3b 6c a8 1f bd
       0.10559136 -0.056179848 0.0072243623 -0.03897898
0000b0 42 e4 40 bd 2e a0 46 bd 9b 1d aa 3d 13 84 b0 3d
       -0.047092684 -0.048492603 0.08306428 0.08618941
0000c0 e2 de 82 bd 14 12 be bc a3 bb b1 bd b7 e5 57 bd
       -0.06390168 -0.02320198 -0.08678367 -0.052709308
0000d0 05 fc 13 bd 21 c1 99 3d d3 f8 01 3b 94 72 d4 3d
       -0.036129016 0.075075395 0.0019832149 0.103734165
0000e0 f6 1d a5 3d 22 75 cf 3c d4 db 5a bd 48 59 ac bd
       0.08062355 0.025324408 -0.0534323 -0.084154665
0000f0 7f cb b3 bb 23 c6 6e 3e 4b af 5e 3d 9e 15 cc 3c
       -0.005486905 0.2331777 0.05436639 0.024912652
000100 85 4b 43 bd 6a a5 7c 3d b2 32 3a be 98 76 04 be
       -0.047679443 0.06168119 -0.18183401 -0.12935865
000110 a9 e3 34 3d e3 58 0c be 30 bc 51 3d 2b 8f 93 bd
       0.044162426 -0.13705783 0.05120486 -0.072050415
000120 a3 d3 d3 bd 22 79 44 3d a1 6a 46 bd 8b 1b fc 3c
       -0.10343101 0.047967084 -0.048441533 0.030774852
000130 1f c7 b2 ba 5f 21 c8 3c d4 4e a6 bd 30 f1 15 3d
       -0.0013639665 0.024429975 -0.08120504 0.036606967
000140 cd 42 5d bd 55 4a 04 bd 91 eb 7d 3d 48 7d 84 bd
       -0.054018784 -0.03229745 0.06199223 -0.06469208
000150 d2 81 f2 3d dd b9 73 bd c5 6c 74 3d bd 01 f3 bd
       0.118411675 -0.059503425 0.059674043 -0.11865566
000160 92 80 91 bd 7b 09 74 bd b7 1c 93 3d 52 f0 3d bd
       -0.07104601 -0.059579354 0.07183211 -0.046371765
000170 44 f4 c1 bd 75 a7 ac 3d 52 54 00 be f1 e8 02 be
       -0.09470418 0.084303774 -0.12532166 -0.12784173
000180 52 3b 98 3c 17 97 92 3c df 3a d5 3d 06 82 b1 bd
       0.018582974 0.01789431 0.104116194 -0.08667378
000190 06 db 3a bd 3b 4a 88 3d 11 bd f4 bd 25 85 aa bd
       -0.045619033 0.06654783 -0.11950124 -0.083261766
0001a0 99 b3 d5 3d 94 e7 d8 3d b9 80 23 bd c6 7e d9 b9
       0.10434646 0.10591045 -0.03991768 -0.0004148392
0001b0 db 94 9b 3d 26 df a0 3d 7e c5 6f 3d 70 04 e2 bd
       0.07596751 0.07855062 0.058537953 -0.11036003
0001c0 d3 4a 0b be a4 f7 1e 3e 61 e3 8e bd 66 47 65 bc
       -0.13602762 0.15524155 -0.06976963 -0.0139940735
0001d0 16 70 26 3c ef d3 cd 3d c2 6c 3b 3d 53 3f 48 bb
       0.010158559 0.10050189 0.045758016 -0.0030555322
0001e0 1a c5 f3 bb 1f 58 b5 3d c4 2d 67 3d 03 9f d3 3d
       -0.007439268 0.088546984 0.05644013 0.103330635
0001f0 49 a7 a1 3d 29 c4 81 3d 8c ab 9c 3d 85 c2 1f 3d
       0.07893235 0.06336243 0.076499075 0.039003868
000200 c6 94 9c bc 62 e9 79 3d cf e9 f1 bd c5 b8 83 3d
       -0.01911391 0.061013587 -0.118121736 0.06431726
000210 a9 09 c5 3d 43 9f e6 3d c2 74 1b bd 4a 97 e9 3d
       0.09620983 0.112608455 -0.037953146 0.11405809
000220 ef 90 3e 3d 01 0a 50 bd 0c 09 27 3d 6c ab 8c bd
       0.04652494 -0.05079079 0.040780112 -0.06868634
000230 ce fd b2 3d 49 bb b6 bd 9f ea 10 3d 69 01 94 3d
       0.08739816 -0.089224406 0.035380002 0.072268315
000240 ee f7 02 be 10 48 63 bd 1e 0e a7 bd f5 0e 8a bd
       -0.1278989 -0.055488646 -0.081569895 -0.06741134
000250 7c b6 44 bd b2 8e af 3d d0 ec 74 bd 4b e0 66 3c
       -0.048025593 0.08572139 -0.059796154 0.014091562
000260 87 28 e8 bd 89 3f 4b 3c 3a 34 d5 3d 2e 0e ad 3d
       -0.11335855 0.012405285 0.10410352 0.0844997
000270 e7 b3 ad 3d 43 c4 9e 3a 4c 5e c8 3d ef eb 01 3e
       0.08481579 0.0012112934 0.09783611 0.12687658
000280 6f ad e2 bd 71 2f 92 bc 12 ed 3b bd 0c 2a 0b 3d
       -0.11068236 -0.017844887 -0.045880385 0.033975646
000290 d4 41 bd 3d 92 d6 81 3a ab 54 91 bd e1 67 16 bd
       0.09241071 0.0009905866 -0.07096227 -0.03672016
0002a0 0e fb a4 3d 5e 9b 20 3d 11 ab 07 be b0 1c 18 bc
       0.080556974 0.03921067 -0.1324885 -0.009284183
0002b0 6a 7d f0 bd 23 dc 78 bd 2e c2 4c 3d c2 a4 17 be
       -0.11742671 -0.060756814 0.04998987 -0.14808944
0002c0 3f 19 7e bd f1 67 2f bd 50 06 f0 bd f8 03 b8 bd
       -0.062035795 -0.042823736 -0.11719954 -0.08985132
0002d0 d0 20 2f 3d 56 d1 cf bb e5 1c 9d 3c 03 32 0e be
       0.0427559 -0.0063420935 0.019178817 -0.13886265
0002e0 15 e4 9c bd 76 74 44 3d 3f f0 84 bd a4 06 4e bd
       -0.07660691 0.04796263 -0.06491136 -0.0502993
0002f0 2d 6d 07 bd dc a2 25 3d 3a 32 29 bd 5f 1a a9 bb
       -0.033063103 0.040438518 -0.041307665 -0.0051606144
000300 88 62 e5 bd ce eb 7f bd 57 9e 82 3d 29 af 6d bd
       -0.11200434 -0.06248074 0.06377857 -0.058028374
000310 b1 55 9d 3c 89 86 29 bd 4f 8f dd bd 4c 35 9d bd
       0.0192059 -0.04138807 -0.108183496 -0.07676181
000320 fa 55 48 bd 2f b1 28 3d 99 c4 84 bd 6b 71 a8 3d
       -0.04891012 0.0411846 -0.064828105 0.08224758
000330 5d fe c1 bd 54 fe b3 bd ee 62 94 bc b7 be f1 bd
       -0.09472344 -0.087887436 -0.01811358 -0.11803954
000340 09 63 78 bd d0 25 52 3d 9e 95 f4 bd ec 57 03 3e
       -0.060641322 0.051305592 -0.119426 0.12826508
000350 aa 83 da bd 3b d2 e4 3c 6b 72 e8 3d fe c1 35 bd
       -0.10669644 0.027932277 0.113499485 -0.04437446
000360 1a 17 f0 3d 54 42 ca bd 6a e0 b6 bd 4f 16 c8 bc
       0.11723156 -0.09875932 -0.08929522 -0.0244247
000370 14 50 52 3d 34 b2 c9 3c 4c ca 0d 3d 8e c3 b8 3d
       0.0513459 0.024621107 0.034616753 0.09021674
000380 ed 5d 68 3d 6d f4 14 3c 17 7e 84 bd 52 07 9b 3c
       0.0567302 0.009091479 -0.06469362 0.018924389
000390 05 dc d7 bd 96 82 81 3c 42 69 56 3e af d6 27 3d
       -0.10540012 0.015809339 0.2093859 0.040976223
0003a0 7b ec 94 3d a5 71 a6 3b d7 e6 0c 3e a3 49 6a 3d
       0.072716676 0.0050794655 0.13759933 0.05719913
0003b0 f7 66 6f 3d 3e 6a f6 bd 1b 93 a1 bd fe 3a ba 3c
       0.058447804 -0.12031983 -0.07889386 0.022733208
0003c0 1f f0 18 bd a3 1c ad 3d c1 b0 53 3d a3 80 50 bc
       -0.037338372 0.08452728 0.051682238 -0.012725982
0003d0 f1 80 f4 bd 4c 87 02 bd 41 5d dc bb 1e 1c a8 bd
       -0.11938656 -0.03186731 -0.006724984 -0.08208488
0003e0 80 94 af 3d 5c cf fe 3c 9b 91 f7 3b cc 50 d9 3d
       0.08573246 0.031104736 0.0075551993 0.10611114
0003f0 9a f9 b3 3d 1f 54 cf bd 82 3e 66 3d b6 c8 bc bd
       0.08787842 -0.10123467 0.056211956 -0.0921797

mlp.0.bias f4 [150]
000000 2b 84 34 3d ae 2b f8 bd e1 95 9b 3c 44 af 02 be
       0.044071358 -0.12117706 0.018992366 -0.12762171
000010 6c 78 2a 3c f7 50 c1 3d 1b 88 b2 bd 89 56 02 3e
       0.010404687 0.09439271 -0.08717366 0.12728323
000020 c6 fc 5c bd 53 c8 01 3e 0e 0c e3 3d 93 7b da bd
       -0.053952 0.12674074 0.110862836 -0.10668101
000030 06 43 80 bd 3e 27 c8 bd b5 0c 37 bd d9 10 a6 3d
       -0.06262784 -0.0977311 -0.044689853 0.08108682
000040 83 ed cd bd 28 a5 13 bd 03 cb a4 3d 3e aa cb bc
       -0.100550674 -0.036046177 0.08046534 -0.024861451
000050 c0 01 5d bd 51 3a 85 3d 48 4f a9 3a 77 49 88 3d
       -0.053956747 0.065052636 0.0012917304 0.06654637
000060 b7 ed ae bd ca 03 05 3e 02 86 39 3d c4 cb b6 bd
       -0.08541434 0.12989727 0.045293815 -0.08925584
000070 62 9c 61 3d eb 4a b3 bd 61 e9 a2 bd 62 b9 94 bd
       0.05508078 -0.08754524 -0.0795467 -0.072619215
000080 6b 1a fe bb c9 b5 44 3d 68 68 ff 3d 52 70 d4 bc
       -0.007754614 0.048024926 0.12471086 -0.025932465
000090 b2 38 22 bb f1 dc 3c bd 22 02 7d 3d cc 11 af bd
       -0.0024753031 -0.046109144 0.061769612 -0.08548316
0000a0 f3 f8 ff bd ac 35 ed bd 3a 3a 48 3d 23 a1 93 bd
       -0.12498655 -0.11582503 0.048883654 -0.07208469
0000b0 ef 3c 8f bc b6 e8 2e bd a6 67 7a 3d 4d 9c f3 3d
       -0.01748511 -0.0427024 0.061134003 0.118950464
0000c0 57 fe 93 bd 47 80 d7 bd 06 88 40 bd ac e3 75 3d
       -0.07226246 -0.10522514 -0.047004722 0.060031578
0000d0 ad e6 04 bd b7 77 04 be 6b 0f 13 3e 99 db 8c 3d
       -0.032446552 -0.12936293 0.1436135 0.068778224
0000e0 7a bb 75 bd 43 4d 1d bc a8 09 9c bd 6e e5 13 3e
       -0.059993245 -0.00960094 -0.07619029 0.14442989
0000f0 d4 16 93 bd 82 3a fa 3d 44 fa d9 bd a2 eb b0 3d
       -0.071820885 0.12218191 -0.106434375 0.086386934
000100 e4 f3 21 bd 7b 61 a8 bd 8d 7f 4a 3e ba 52 94 3d
       -0.039539233 -0.08221718 0.1977522 0.07242341
000110 a8 53 c8 bb 20 6c 08 be 1f 70 4a bd 04 dc ab bd
       -0.006113488 -0.13322496 -0.049423333 -0.08391574
000120 20 21 1e bc da ce b3 3d d8 13 03 be df 27 93 bc
       -0.009651452 0.08779688 -0.12800539 -0.017963348
000130 26 95 a3 bd 95 73 4e bd f3 09 eb 3c 07 71 ad bc
       -0.07987432 -0.050403196 0.028691268 -0.02117206
000140 d2 be 6a 3d 31 25 e4 3d 1c 7f 86 bd 71 91 92 bc
       0.057310887 0.11139906 -0.06567213 -0.017891617
000150 66 02 c6 3b 06 25 c9 bd aa 90 02 3e db 2e cd bd
       0.0060427664 -0.09821515 0.12750497 -0.100187026
000160 05 c8 03 3d c0 28 7e bd 20 7c 34 3d b1 4e 74 bd
       0.032173175 -0.06205058 0.044063687 -0.05964536
000170 00 d1 28 bb 53 26 37 bd 03 fb 39 bc 37 c6 a5 bb
       -0.002575934 -0.044714283 -0.01135135 -0.0050590294
000180 48 ff c7 bd 6e f7 0b be fb bf bf bd 99 a3 ef bc
       -0.09765488 -0.13668606 -0.09362789 -0.029252814
000190 c2 85 6f bd 31 d8 73 bd 5b 69 ea bd 61 85 c8 3d
       -0.05847717 -0.059532348 -0.11445876 0.09791065
0001a0 ce 12 93 bd 00 e3 c0 3d 8e 80 d5 3d dd 50 72 bd
       -0.07181321 0.09418297 0.104249105 -0.05915915
0001b0 63 33 2f bd 7b 66 ba 3d 3d 49 29 3d 0f ee a3 bd
       -0.042773616 0.09101578 0.04132961 -0.080043904
0001c0 71 1a df 3d 31 48 a4 3d 04 4e a8 bc 8d 34 5c 3c
       0.10893715 0.08021582 -0.020545013 0.013440263
0001d0 b6 45 06 3e 58 de 49 bd a5 ae e6 3d ef f4 dd 3d
       0.1311253 -0.04928431 0.112637796 0.10837733
0001e0 ac f9 c7 3c 31 8d b4 3d 30 bc d2 3c b7 b6 05 3e
       0.024411045 0.088159926 0.0257245 0.13057981
0001f0 59 2a 5d bd 2b 8d 05 bd e6 27 66 3c 70 89 8b 3d
       -0.053995464 -0.03260533 0.0140475985 0.068133235
000200 e5 a9 b9 3d 6e fc 07 3d b3 50 dd 3d 45 11 9d bc
       0.09065608 0.03319972 0.10806408 -0.019173274
000210 66 8a 47 3d 54 60 ef bd f1 68 99 bd 70 82 92 bc
       0.04871597 -0.11688295 -0.07490719 -0.017884463
000220 26 13 2d 3d 45 df b2 bd 4f c6 cf 3d e3 01 48 3b
       0.04225459 -0.087339915 0.10145246 0.0030518703
000230 3d 9c 7d bd fe 9c ff bd bd 51 e4 bd d2 aa 1b 3e
       -0.06191658 -0.12481116 -0.11148403 0.15201882
000240 ab 32 31 bd d3 ef b0 bb 87 76 bb bd 5a fd f5 3d
       -0.04326121 -0.005399683 -0.09153467 0.120112136
000250 82 78 2a 3d 60 44 70 bd
       0.04161883 -0.058658957

mlp.2.weight f4 [100, 150]
000000 21 8c 9f 3d d0 67 fb 3c 73 df 80 3d 94 2c 68 3d
       0.07790399 0.03068915 0.062926196 0.056683138
000010 f8 9b 54 bd e9 19 55 3d a6 18 19 3d 67 05 0f 3d
       -0.051906556 0.052026663 0.037377022 0.03491726
000020 6d 79 a3 bd ba 2a 11 3c 9e 7c 9f 3d 70 85 9b 3d
       -0.079821445 0.008860284 0.07787441 0.075938106
000030 de 53 8a 3d 7d 05 8e bd 66 0d 73 3d e6 ed ea bc
       0.06754278 -0.069346406 0.05933895 -0.028677892
000040 b3 17 a7 bd 62 c2 6b 3d 3e 8c 2f 3d fa 31 c9 3c
       -0.08158817 0.057558425 0.042858355 0.024559963
000050 31 57 43 bc 9b ae 6f 3d 75 97 eb 3c b6 5f 5f 3d
       -0.0119226435 0.058516126 0.028758744 0.054534636
000060 98 37 95 bd 0b 4c 3f 3d 53 7c 15 3d 04 ea 1f bd
       -0.07285994 0.04670338 0.036495518 -0.039041534
000070 f1 f9 27 3d 40 e1 89 3c a4 75 c9 3c e4 ec b1 bb
       0.041009847 0.01683104 0.024592228 -0.005429851
000080 09 09 11 3d 60 e9 a2 bd 35 71 46 3d 03 00 01 bd
       0.035409007 -0.07954669 0.048447806 -0.03149415
000090 54 40 a1 3d 71 31 fb bc 7d 99 81 bd 88 4d 9b bc
       0.07873598 -0.030663224 -0.06328104 -0.018957868
0000a0 65 19 8f bd 04 97 39 bd 0d e9 8c bd c4 4c f6 bc
       -0.069872655 -0.045310035 -0.068803884 -0.030065902
0000b0 97 26 a0 bc 09 73 96 3d f7 a1 79 bd 24 23 03 bd
       -0.019549651 0.0734616 -0.060945477 -0.032015935
0000c0 56 c9 30 bd 0a 7a 21 3c cd 37 70 bd 20 7a 75 bd
       -0.04316076 0.009855757 -0.058646966 -0.05993092
0000d0 eb 1e 0d bd f6 b1 90 bd c8 87 52 bc 6e 84 d0 bb
       -0.034453314 -0.07065193 -0.012849756 -0.006363443
0000e0 a1 4f 46 3d 32 60 86 3c 92 54 a8 3c ab 92 11 3d
       0.048415784 0.016403291 0.020548139 0.035540264
0000f0 e2 df 1c bd 37 ee 62 bd e0 ce e7 bc d4 0e 2a bc
       -0.03829945 -0.05540296 -0.028296888 -0.010379512
000100 d2 77 b1 bd 0d 5b ee bc 12 66 3d bd 31 11 99 3d
       -0.08665432 -0.02909615 -0.04623992 0.07473982
000110 0b b6 99 bd f7 af a4 bb 76 03 9a bd ba fe bc bc
       -0.07505425 -0.0050258595 -0.07520191 -0.023070682
000120 09 9d 81 3d 41 01 45 3d ac 21 df bc 25 72 74 3d
       0.0632878 0.0480969 -0.027237736 0.05967917
000130 a3 2c 89 3d 22 42 9b bc ae ec db 3c 1f b6 6d bd
       0.06697967 -0.018952433 0.026846256 -0.058035012
000140 9a 54 eb bc 21 5b e0 bc 00 8d 7c bd 81 66 1c bd
       -0.028726865 -0.027387204 -0.061657906 -0.038183693
000150 37 4c 26 bd 71 bb 68 3d 2a 06 9f bc fc 45 71 3d
       -0.040600028 0.056819383 -0.019412119 0.058904633
000160 ac 80 87 3d e2 41 97 3d ef 5c 87 3d 3d a5 76 bd
       0.06616339 0.07385613 0.066095226 -0.060216177
000170 46 00 17 bd 8a 07 90 bd 9e 1c 23 3d 19 9f 86 3d
       -0.036865495 -0.07032688 0.039822213 0.06573314
000180 f7 59 43 bd ce d0 60 bc 4b 54 07 3d 5d 2d 2d 3d
       -0.04769322 -0.013721658 0.033039372 0.04227959
000190 51 28 dd bc 67 4c 0a bd 3f 81 5c bd fc 13 35 bd
       -0.026996763 -0.03376427 -0.053834196 -0.04420851
0001a0 db d0 2a bd dd d7 69 bd 1e 0d 91 bd 74 f5 86 3d
       -0.041703086 -0.05709063 -0.0708258 0.06589785
0001b0 3c 9a 9c bd 64 65 bc bc 76 8b ab bc b9 c5 89 3d
       -0.07646605 -0.022997566 -0.020940524 0.06727166
0001c0 1f 5c bd 3c a2 09 4d 3c 90 6f 9b bd 8d 49 93 bd
       0.023115216 0.012514504 -0.07589638 -0.07191763
0001d0 ed bf 8c bd 62 2a af 3c 5f 9c ea bc 95 a1 98 bd
       -0.068725444 0.021382514 -0.028639017 -0.07452694
0001e0 1b f5 f1 bc b0 60 3a bc 1e 13 80 3c f2 08 68 3c
       -0.02953582 -0.011375591 0.015634116 0.014162289
0001f0 0a 5a e3 3c ac 72 a6 bd 36 29 6c bd dd 86 88 bd
       0.027752895 -0.08127341 -0.05765649 -0.06666348
000200 43 ab 21 3c 80 20 4b ba 59 b4 f2 bc b6 31 4d bc
       0.009867492 -0.00077486783 -0.029627012 -0.012524059
000210 c5 25 f8 39 ee db 36 3d f5 b3 77 3c c7 3d 09 3d
       0.00047330387 0.044643335 0.015118589 0.03350618
000220 5a 36 92 bd 9d f3 83 bb c9 62 56 bd 7b 2f ea bb
       -0.07139273 -0.0040268437 -0.052340303 -0.0071467734
000230 3d 23 7b 3d a6 45 86 3d 79 42 3d bc 0d 7f 94 bb
       0.061312903 0.06556253 -0.011551493 -0.004531747
000240 a2 12 15 3d 58 65 12 3d 7f 51 e4 3c 99 f4 3a bd
       0.036394723 0.03574118 0.027870892 -0.045643423
000250 6b 6f 71 bd 3d cd 5b 3b a1 98 5b bd bd 73 8e 3d
       -0.058944147 0.003353908 -0.053612355 0.06955669
000260 5a 6b 87 bd 41 e4 13 3d 30 70 74 bd da d3 c7 3b
       -0.066122726 0.03610635 -0.059677303 0.0060982527
000270 0b 5f ff 39 4c 7f 03 3b 36 bf 9b 3d 3c 2c 38 bd
       0.00048708203 0.0020064889 0.0760483 -0.04496406
000280 96 43 8a bd be 6a 46 bc ff 1e 01 3d 00 14 bd bb
       -0.06751172 -0.01211041 0.0315237 -0.0057702065
000290 00 6c 2a 3d d5 82 df 3b 72 0d 3f bd 3b a7 8b 3d
       0.041606903 0.0068210163 -0.04664368 0.06819006
0002a0 57 a9 38 3d 12 fc 03 3c cc 64 6e bd 5f b2 8f bd
       0.04508337 0.008055704 -0.058201596 -0.070164435
0002b0 25 9c f9 3c d8 17 c7 3b ac 48 22 3d 4d 67 36 3c
       0.030469963 0.0060758404 0.039620087 0.011133027
0002c0 a8 7d 67 bd 7b 49 68 3d c7 80 51 bd 9e 2e 99 bd
       -0.05651632 0.0567107 -0.051148202 -0.07479595
0002d0 cb 13 92 3c 39 2e 97 bd e1 17 38 3a 23 0a 05 bd
       0.017831704 -0.07381863 0.0007022601 -0.03248037
0002e0 41 08 0a bd 7c b2 95 bd 98 ef 9d bd 1c 10 6e 3d
       -0.033699278 -0.07309434 -0.077117145 0.05812083
0002f0 40 57 8e 3d 19 36 c5 bb 17 86 96 3c ad a2 69 3b
       0.06950235 -0.006018412 0.018374486 0.003564994
000300 c0 94 8f bd d0 24 f4 3c 42 49 af bc eb 00 85 3c
       -0.07010794 0.02980271 -0.021397237 0.01623579
000310 39 d0 a0 3c 9f 4e 13 bd d8 a3 94 3d 85 3d 45 bd
       0.019630538 -0.03596365 0.07257813 -0.048154373
000320 ee 66 13 bd d3 90 7c bc 41 e1 6a bd 78 d4 4f 3d
       -0.035986833 -0.015415388 -0.057343725 0.050739735
000330 5c 9b 16 3b b4 a1 9b 3d 6b 2d 12 bc fe 7b 20 bc
       0.0022980785 0.07599202 -0.008921961 -0.009795187
000340 d4 43 ee 3c cf 92 27 3d 0e 21 6f 3d 26 ea b9 bc
       0.029085077 0.040911492 0.058381133 -0.022694658
000350 81 9e 9a bc ff 27 8c bd 49 b8 c5 bc 58 23 b5 3b
       -0.018874409 -0.06843566 -0.024135726 0.005527895
000360 b9 d3 17 bd 97 1b 39 bd 66 e6 da 3c ca fc 92 3d
       -0.03706715 -0.045192327 0.02672119 0.07177122
000370 8a f7 81 3c e7 7e a1 bc 4a 32 3c 3d b6 28 40 3d
       0.015865106 -0.019713832 0.045946397 0.046913825
000380 f9 0a 65 3d d0 b2 49 bd 58 d9 75 bd 06 c1 b5 bc
       0.055918667 -0.049242795 -0.06002173 -0.022186767
000390 bc 98 1e bd 06 1f 13 3c 31 07 99 bd 60 24 0e bd
       -0.038719878 0.0089795645 -0.07472075 -0.03470266
0003a0 2d 5b 78 3d 1f b2 8b 3c 71 ce 4e bd c8 65 89 bd
       0.060633827 0.017052708 -0.050489847 -0.06708866
0003b0 ba 28 8e bd a2 f0 06 3d f3 09 d5 3c 18 35 59 bd
       -0.06941362 0.03294433 0.02600572 -0.05302915
0003c0 bc a4 84 3d d8 6d a5 bd 96 e8 ef 3c 76 f0 33 bc
       0.06476733 -0.08077592 0.02928571 -0.010982623
0003d0 4a 2e a5 bd 59 1f 5c bd 66 bb 15 bd 6c 78 58 3d
       -0.080654696 -0.053740833 -0.03655567 0.05284922
0003e0 6e 46 56 bd 56 4d 82 3d 94 f5 5c bc 8e a8 41 3d
       -0.05231326 0.06362407 -0.013486285 0.047279887
0003f0 49 9d ce 3c e6 d8 7a 3d 95 0e 23 3d 71 10 2f bd
       0.025221484 0.061242007 0.03980883 -0.04274029

mlp.2.bias f4 [100]
000000 0d 71 43 bd ed 7e 02 3c 07 9d 2c bd 1d a5 38 bc
       -0.047715236 0.007964832 -0.04214194 -0.011269835
000010 04 c6 0a 3d 8f 68 e9 3d 81 8f bb bc 0a 55 9b 39
       0.03388025 0.11396896 -0.022895576 0.00029627263
000020 65 96 47 3d f8 00 1b 3d 9a f6 05 3d 31 14 08 bd
       0.04872741 0.03784272 0.03270588 -0.03322238
000030 93 d1 8c 3d f1 b5 6c bd 39 cd 5b 3d 72 d8 1b 3e
       0.068759106 -0.0577907 0.053662512 0.15219286
000040 fa fe 00 3c 6b 3c a4 bc be c0 86 ba c5 d1 3f bd
       0.007873291 -0.02004834 -0.001028083 -0.04683091
000050 57 cd 35 3d d2 0c 87 bd 23 c5 28 3c 6d 82 ac bd
       0.04438528 -0.06594242 0.010300907 -0.08423314
000060 44 c2 eb 3d 46 19 77 bd 27 a0 06 3e 2b c7 06 3d
       0.115116626 -0.060326837 0.13147031 0.032904785
000070 7c 18 51 3d 79 3e 3e bd 4f ba 89 3c 22 84 11 3c
       0.05104874 -0.046446297 0.016812472 0.008881601
000080 81 7b 6d 3d 56 59 55 3c 62 e7 47 3d 53 4d 59 3d
       0.05797911 0.013021788 0.04880465 0.053052258
000090 c8 e1 86 3d 7f a9 9a 3d 9b 02 d3 3d 61 ab 63 3c
       0.06586033 0.0755186 0.10303231 0.01389584
0000a0 c9 0d bf 3d 28 85 e4 bc e2 fe 57 3d 55 ce 9a bd
       0.09328801 -0.027895525 0.05273331 -0.07558886
0000b0 3c 47 ab bd 7c e1 02 bd c5 d7 80 3d 97 20 00 3d
       -0.08363196 -0.03195332 0.06291155 0.03128108
0000c0 0b 9a 20 bd e9 ee 3b 3d 50 ed 66 bd 2f b4 f8 bc
       -0.039209407 0.04588214 -0.056378663 -0.030359356
0000d0 7c b1 6a bc 78 57 db ba a1 fe 5d bd f3 4f d0 3d
       -0.014324542 -0.0016734442 -0.05419791 0.10171499
0000e0 c5 49 3b 3c c0 cc 64 3d 75 e6 86 bd 10 5f a0 bd
       0.011431162 0.055859327 -0.06586925 -0.07830632
0000f0 2a d4 c7 bd d9 5e 02 3c c3 35 21 3d 19 9c ba 3d
       -0.09757264 0.007957184 0.03935791 0.091118045
000100 64 0c c0 3d c5 4c 0e be 00 8e 8d 3c ec ef 78 bd
       0.09377363 -0.13896473 0.017279625 -0.060775682
000110 ae 2d a3 3d 5f de 64 3d a0 9f ea bc 82 da 01 3d
       0.07967697 0.055876132 -0.028640568 0.031702526
000120 71 a0 46 bd e9 5e 03 3d 8e b7 02 bd f3 1c 2e 3d
       -0.048492853 0.032072935 -0.031913333 0.042508077
000130 b2 43 cb bd b6 f6 01 bc f8 f2 06 3c c0 13 74 3d
       -0.09925021 -0.007932356 0.008236639 0.059589148
000140 5e de c9 3c 8d b4 90 3b 15 80 86 3b 28 e5 bd 3c
       0.024642166 0.0044160546 0.004104624 0.02318056
000150 95 95 12 3d 95 2a a3 3b 3b 1c 27 bd ed 3e c3 bc
       0.035787184 0.0049794414 -0.040798407 -0.023833716
000160 d0 79 f0 3c b7 c0 8e 3d 21 26 d7 3c 08 83 5f 3d
       0.02935496 0.06970351 0.026263298 0.05456832
000170 7c 98 5f bd f2 8e 97 3a be 91 d3 bb 12 95 a9 3c
       -0.05458878 0.0011562987 -0.006456583 0.020700965
000180 e7 7a 51 bd 03 e1 0e 3d 91 8a 2e bd f4 f4 3a 3d
       -0.0511426 0.034882557 -0.042612616 0.04564376

mlp.4.weight f4 [100, 100]
000000 78 8d 1b bd 94 fb 5b 3d c5 2e c1 3d 76 a9 6a 3d
       -0.037976712 0.05370672 0.09432749 0.057290517
000010 0c c6 a4 3c 14 13 dd 3d fd 31 8f bd 13 9b 83 ba
       0.020113967 0.107946545 -0.069919564 -0.0010040723
000020 cb 05 f2 3b aa ec ad 3d 32 73 94 bd 02 db a9 3d
       0.0073859445 0.08492406 -0.07248534 0.082937256
000030 45 03 87 bb 3a 95 9b 3d b0 70 5c bd 40 5b e1 bc
       -0.004120263 0.07596822 -0.053818405 -0.027509332
000040 1c 13 94 bd 50 6d 7c 3d 2f 6a cd 3c fa 98 14 3c
       -0.07230207 0.061627686 0.025075046 0.009069676
000050 62 14 08 3c 87 82 7f bd 62 a3 3c 3d 36 da 26 bd
       0.008305641 -0.06238034 0.04605425 -0.040735446
000060 c7 47 a1 3b fb b9 e8 3c 11 8e 11 3d 42 d9 a9 bd
       0.0049218866 0.028408995 0.035535876 -0.08293392
000070 54 06 34 bd 77 cb 5a 3d 7b 80 d2 bd e4 d2 b5 bd
       -0.043951347 0.053416695 -0.10278412 -0.08878115
000080 c0 6f a3 bd 2a 43 ad bc 8d a3 6e 3d c0 be 93 3d
       -0.07980299 -0.02115019 0.058261443 0.07214117
000090 eb a3 8d 3d 84 f9 c4 3b 1f 70 75 3d 64 98 90 3d
       0.069160305 0.00601119 0.05992138 0.07060316
0000a0 3f a3 67 bb 6b ae a2 3d 88 0c 80 bc c5 c4 0e 3d
       -0.0035345105 0.07943424 -0.015630975 0.034855623
0000b0 fd 63 ac 3d 9b ed 20 bd 43 06 6f bd 31 83 db 3c
       0.08417509 -0.0392891 -0.05835558 0.026795955
0000c0 af 9a 39 bc 67 41 85 3c 3a 58 3d ba f2 a5 66 bd
       -0.011328383 0.016266538 -0.00072229246 -0.0563106
0000d0 80 44 1d bd 9a 26 9b bb cd 94 7f bc 98 9d 30 3d
       -0.038395405 -0.0047348263 -0.015599442 0.043119043
0000e0 29 eb 12 3d 53 eb e3 bc c7 6b f6 3c 08 9a bf bd
       0.035868797 -0.027822172 0.03008069 -0.09355551
0000f0 d0 1d 03 3d cd 1e 0a 3b c6 e1 80 bc 45 09 64 3c
       0.032010853 0.0021075488 -0.015732657 0.013918226
000100 6d 6f e1 bc 5f 67 ff 3c f2 e8 bc 3d 2a 49 55 bd
       -0.027518952 0.03117722 0.09224118 -0.052071728
000110 8d 6d d2 3c fd e0 ef 3c 8e 55 90 bd 7b 11 0d 3d
       0.025687004 0.029282087 -0.07047568 0.0344405
000120 a1 8e 89 bb f7 6f a9 bd a5 9d b0 bc a5 1c a5 bd
       -0.004197911 -0.08273309 -0.021559546 -0.08062104
000130 26 8e 1f bc 91 c2 cc bd 31 da fd 3b fc 47 84 3d
       -0.009738481 -0.09998048 0.0077469577 0.064590424
000140 bb ec 84 3d 63 39 c9 bd 6c 47 1d bd 8d 0b 3e 3c
       0.06490465 -0.09825399 -0.03839819 0.011599434
000150 69 d8 5c 3d 4b 66 0b 3d ba 91 30 3d b3 27 46 3d
       0.053917322 0.0340331 0.043107726 0.048377704
000160 73 3f b5 3d 0b 82 54 bd 25 18 d3 bc c9 aa 62 bd
       0.088499926 -0.05188183 -0.025768349 -0.055338655
000170 ac 93 e4 3c 97 32 93 3d 18 d5 95 bd 59 51 9a 3c
       0.027902447 0.071873836 -0.07316035 0.018837618
000180 27 32 de 3c cf 0a ce bd 9f b4 3b 3d 7b dc 3e bd
       0.027123524 -0.10060655 0.04582655 -0.046596985
000190 b1 89 69 3d 71 71 2b bd 6e 7c 70 3d 12 d4 71 3c
       0.05701608 -0.041856233 0.058712415 0.014760034
0001a0 d8 fa a1 bb c4 e7 b3 bd 6b de ba bd 06 2d 3a 3b
       -0.004943233 -0.0878444 -0.09124454 0.0028408184
0001b0 3d 7e 7d 3d 96 48 a0 3c f3 e3 32 bd e6 f4 9a bd
       0.06188797 0.019565862 -0.04367442 -0.07566242
0001c0 c0 f4 ae bd 31 27 6f bd 0d f3 e2 bd 68 cd 9e 3d
       -0.08542776 -0.058386985 -0.110815145 0.07754022
0001d0 07 9f bc bd bc 78 bf bc ff 06 b1 3d 98 60 bf 3b
       -0.092100196 -0.023373 0.086439125 0.0058403723
0001e0 4a 33 99 bc 1c 1d c9 bd 3e 61 89 3d 85 d2 34 3d
       -0.018701214 -0.09820005 0.067080006 0.04414608
0001f0 62 24 03 3b 27 b8 cd 3d ce ac 12 bd ed 52 95 3d
       0.00200107 0.1004489 -0.03580933 0.072912075
000200 48 d9 41 bd a1 18 c8 bc 40 0e f1 bd 3d fe 63 bd
       -0.047326356 -0.024425806 -0.11770296 -0.055662382
000210 24 ba c3 bd 65 0a 43 bd bf 17 48 3d f5 b5 4d bd
       -0.09556988 -0.047617335 0.04885077 -0.050222356
000220 9f 8e 92 bd 26 2b da 3c a7 93 12 bd 24 0e a6 3d
       -0.07156109 0.026631903 -0.035785343 0.08108166
000230 19 01 92 3d ad 45 97 3d d4 cf 9c 3d c1 af 47 bc
       0.071291156 0.073863365 0.076568276 -0.012187899
000240 16 e7 c0 bb 04 23 b5 bd a8 03 7b 3c 7f fd c8 3d
       -0.0058869226 -0.08844569 0.015320696 0.098139755
000250 8b fe 44 bc 7f b3 1d 3d 30 c1 6c bd 4e 7a 18 bd
       -0.012023578 0.03850126 -0.057801425 -0.037226014
000260 38 90 8b bd 49 6c 0f 3d 65 20 3e 3d ed f1 ca 3d
       -0.06814617 0.03501538 0.046417613 0.09909425
000270 c2 89 a9 3d f7 07 0c bd 4d e6 8d 3d ab 7b 99 bd
       0.08278228 -0.034187283 0.06928692 -0.07494291
000280 ca d9 89 bd cd a5 9c 3d 45 6d 40 bc 97 69 bb bd
       -0.06730993 0.076488115 -0.011744802 -0.09150999
000290 26 b8 62 3c 8b 88 12 3d 5f b7 5e 3d 98 2d 21 bd
       0.01383785 0.03577475 0.054374095 -0.039350122
0002a0 9e f9 d7 ba c7 f8 9f 3d 0d b1 bd bd e3 df 6a bc
       -0.001647759 0.078111224 -0.092622854 -0.014335605
0002b0 15 45 8b bd 3f be 64 3d 9f e0 2e 3d 20 18 9f bc
       -0.06800286 0.055845495 0.042694684 -0.019420683
0002c0 4c 75 6e bd 12 c4 82 bd 57 32 59 3d 8c 98 03 bc
       -0.05821733 -0.06385054 0.053026523 -0.0080319755
0002d0 0d 99 84 3d 4c 1e 16 bc 91 f2 af 3d fa b2 57 3d
       0.064745046 -0.009162497 0.08591188 0.05266092
0002e0 05 49 9f 3d c4 0d 80 bd 16 fc 92 bd e4 4f 90 3d
       0.07777599 -0.062526256 -0.07176988 0.07046488
0002f0 cc f2 a8 3d e3 da c4 bc 8d 94 b7 bd f6 e4 98 bc
       0.08249435 -0.024030155 -0.08963881 -0.018663865
000300 45 87 1f bd 22 2d 5d bd 44 ae b3 bc 6c 6b e4 3c
       -0.038947362 -0.05399812 -0.021933682 0.027883254
000310 97 c3 86 bd e9 70 dd bd db 04 29 bd 0e 56 83 bd
       -0.065802746 -0.108125515 -0.041264396 -0.06412898
000320 33 23 91 bd 2a db a7 bd be 56 3c bc bb e2 8f 3d
       -0.07086792 -0.08196099 -0.01149529 0.07025667
000330 45 e4 1d bd b1 f1 a8 3d e9 72 c0 bc cd 91 0c bc
       -0.038547773 0.08249224 -0.023492293 -0.0085796835
000340 78 0a 21 3d 23 be 36 3d 12 9e 50 bd de 49 ae bb
       0.039316624 0.044614922 -0.050931998 -0.0053188642
000350 11 0a 68 bd 54 84 49 3d fa a4 30 bd c1 23 03 3c
       -0.056650225 0.049198464 -0.043126084 0.00800413
000360 e1 49 46 bd 64 18 29 3d fb c8 c6 3b 1f 2c 5f bd
       -0.0484103 0.041283026 0.006066439 -0.054485437
000370 54 46 80 3d d8 26 27 3d d9 d1 c3 3d 6a f1 3a bd
       0.06263414 0.04080853 0.0956151 -0.045640387
000380 17 58 5f bd 1c 80 25 bd a3 54 fc 3c e6 69 c3 bd
       -0.05452737 -0.040405378 0.030802077 -0.09541683
000390 69 d5 82 3d 43 45 2f bd c1 61 e5 ba 08 f9 5b 3d
       0.06388361 -0.042790662 -0.0017500446 0.05370429
0003a0 80 c6 a5 3d 1f 13 f2 3d 09 51 fa bc 0a ec 47 bd
       0.080945015 0.11820053 -0.030556219 -0.04880909
0003b0 87 36 7b bd 70 a0 0f 3b 41 a3 aa 3d 19 ef 62 3d
       -0.0613313 0.0021915697 0.083319195 0.055403803
0003c0 9c 5b b8 3d 43 5a 31 3d 7e 29 4b bc 7b a8 de ba
       0.09001848 0.04329897 -0.012400029 -0.0016987467
0003d0 8f 91 84 3d 35 0c f4 bc 7a 4e e3 bd db 58 c7 bd
       0.064730756 -0.029790977 -0.110989526 -0.09733745
0003e0 f0 4e 0a 3d 1b e2 3a 3d 02 d7 ab 3d 03 f4 0f 3d
       0.033766687 0.045625787 0.08390619 0.035144817
0003f0 ed 7b 46 bb 7b b3 9b 3d df 9e 78 bd e3 69 c5 bc
       -0.0030286268 0.076025926 -0.060698386 -0.024098342

mlp.4.bias f4 [100]
000000 a3 de 5d 3d 0a fc 32 3b dd 27 b1 3c bc e9 8f bc
       0.0541674 0.0027310872 0.021625454 -0.017567508
000010 3b f3 39 3e 1d 1e 87 3d 75 90 4f 3d 7b e9 5b bd
       0.18159191 0.065975405 0.050674874 -0.05368946
000020 66 db 47 bd de 8b e4 3d 6a ca c4 3d 7c be 95 bb
       -0.04879322 0.1115949 0.0960892 -0.0045698266
000030 38 1a 50 3c 23 45 57 3d 2b 11 0f 3c 13 e2 a2 bd
       0.012701564 0.05255617 0.0087321205 -0.079532765
000040 11 4c b7 bd 99 38 76 bd 54 21 16 3d 75 bf 00 3d
       -0.089500554 -0.06011257 0.036652878 0.031432588
000050 84 b9 97 3c 41 87 ab 3c 6f 38 88 3d f6 5c c0 bc
       0.018521078 0.020938518 0.06651389 -0.023481827
000060 19 b3 48 bb 51 ec 9a 3d 3c 7e f3 bc 51 93 99 3d
       -0.0030624329 0.07564605 -0.02972328 0.074988015
000070 ef 3b 20 3d 35 93 e6 3c a9 ff 87 3c 18 e3 8f bd
       0.039119657 0.028146366 0.0166014 -0.070257366
000080 43 be 71 3d 37 22 b0 bd 97 8d 81 3c 6d fc 97 3d
       0.05901934 -0.08600276 0.015814586 0.07421193
000090 fe 16 cb 3c d8 5c 6b 3d 9a 6b 8c 3d 73 b4 94 3d
       0.024791237 0.05746159 0.06856461 0.072609805
0000a0 2f 4b e4 bd 42 83 bd 3d 4f 76 75 3d 7f 4e 8e 3d
       -0.11147153 0.09253551 0.05992728 0.06948566
0000b0 44 74 c7 3d ae f2 32 bd 28 eb 58 bd 95 3c ab 3d
       0.09738973 -0.04368847 -0.052958637 0.083611645
0000c0 d6 40 0b 3d 3a 2d 1e 3d 54 38 53 bd aa 9a 93 bd
       0.03399738 0.03861735 -0.05156739 -0.07207234
0000d0 1a 5a 73 3d d4 b9 c5 3c 01 0b 6d 3d 3c 18 ca bd
       0.0594121 0.024136461 0.057871822 -0.098679036
0000e0 0e 4e 8d bd f5 e1 af 3d 15 a5 56 3d 2b 47 d4 3d
       -0.068996534 0.0858802 0.05240353 0.10365137
0000f0 ff f5 19 39 0f da a1 bc 34 91 8a bd 6b 94 9d bd
       0.00014682858 -0.019757299 -0.067659765 -0.07694324
000100 27 9f 8f bc 58 e4 08 bd 19 16 4d 3d de 31 aa 3d
       -0.017531944 -0.03342089 0.050069902 0.08310293
000110 2a 89 84 bd 4a 5a e2 bb 6b a9 aa 3d 2a 72 68 3d
       -0.064714745 -0.006907736 0.08333095 0.0567495
000120 47 0a c6 3c 3a a1 7c bb bd d1 86 3d 34 91 0f 3c
       0.024174822 -0.0038548247 0.06582973 0.0087626465
000130 3e 26 68 3d c9 ea cb 3d 3e c1 b3 bc 4e 46 c7 3d
       0.056677096 0.09956891 -0.021942731 0.097302064
000140 5e cb 7f bc 02 dc a4 3d d1 9e 20 bd 7e f9 b7 3d
       -0.015612451 0.08049776 -0.03921396 0.08983134
000150 98 fc 56 bd c2 23 11 3d 33 8a 8c 3d ef 7f 0f bd
       -0.052486986 0.035434492 0.06862297 -0.035034116
000160 77 07 24 3d f7 a0 bb bc 08 db 1f 3c 2c e7 06 bd
       0.04004618 -0.022903902 0.009756811 -0.032935306
000170 f5 a4 92 3d 16 18 b3 bd fa f4 9e bd 5b 51 27 bc
       0.07160369 -0.087448284 -0.07761569 -0.010212268
000180 71 bb aa 3d 22 d0 9b 3d 90 1e ae bc 09 c2 69 3c
       0.08336533 0.076080576 -0.021254808 0.014267453

mlp.6.weight f4 [1, 100]
000000 bc 4a 0f 3d 3c 46 d4 bd 84 ec 24 be c8 e6 4f 3e
       0.03498338 -0.10364959 -0.16105849 0.2030288
000010 e9 bd c2 3e 2c d4 f7 bd 77 66 76 3e 60 f6 7a bd
       0.38035515 -0.121010154 0.24062525 -0.061270118
000020 21 5b 82 3d 75 c8 1e 3e c1 f6 ce be 62 6e 4d be
       0.06365038 0.15506156 -0.40422633 -0.20061639
000030 48 08 84 be 57 2e ab be eb 5b 0d 3b 15 91 52 bc
       -0.25787568 -0.33433792 0.002156968 -0.012851973
000040 eb ec cc 3d e0 e9 7f bd 7f a4 89 3e 4a f1 1e 3e
       0.10006126 -0.0624789 0.26883313 0.15521732
000050 d5 45 a9 3d 7a 7a 87 be 8f 04 1d 3e 30 c0 31 3e
       0.082652725 -0.2646063 0.1533377 0.1735847
000060 6a 31 b9 bd 40 b6 6b 3d 3a e3 d4 bd 06 e1 d0 bc
       -0.09042628 0.057546854 -0.103949025 -0.025497925
000070 c7 35 98 bd 99 1d c7 bc 81 e0 96 bc 14 f0 91 bd
       -0.07432132 -0.024306105 -0.018417599 -0.071258694
000080 77 66 84 3e 69 0b b9 3d 37 87 6b 3e 0c 94 76 3e
       0.25859424 0.090353794 0.23000799 0.24079913
000090 5e 24 3d be cb 90 a7 be c3 ab a4 be ac c6 a7 be
       -0.18470904 -0.32727656 -0.32162294 -0.32768762
0000a0 d3 d4 be 3d a4 00 32 be 5b ec 2b 3e 69 cb c9 be
       0.09317937 -0.17383057 0.16789381 -0.39413002
0000b0 2d 44 d1 bd 8e 8c fd 3d 25 f0 7d bd 9b 6c 54 be
       -0.102180816 0.12380324 -0.061996598 -0.20744555
0000c0 eb e3 be bd 9c 67 2c 3e 79 9f bc bc 35 f0 89 3c
       -0.09320816 0.16836399 -0.023025261 0.016838172
0000d0 a7 44 c9 3d 9f b6 06 bf 0e bc 55 3e 8e 1f 7a bd
       0.098275475 -0.5262241 0.20872518 -0.06106525
0000e0 7f ca 9d 3d 1b 7f d7 3d 3b a0 94 3e e8 48 47 3e
       0.07704639 0.1052229 0.29028496 0.19461405
0000f0 a7 db fd 3c ed 98 57 3e 00 5a ea bd d7 b0 af 3d
       0.030988527 0.2105443 -0.114429474 0.085786514
000100 45 5b 36 be 76 bb 13 3d d9 50 f5 bd 14 6b fe bc
       -0.17808254 0.03606745 -0.11978311 -0.031056918
000110 a0 c5 b7 bd 80 75 cc 3c 69 72 ba bd 5a 1b 0b 3e
       -0.08973241 0.024958372 -0.09103853 0.13584653
000120 d7 f0 4d be 49 27 92 bd 3c 2c 62 bf e6 2a 8c 3d
       -0.20111404 -0.07136399 -0.88348746 0.0684412
000130 da 2b af be cf 7e 25 be b0 5f ce bd 10 4f 9f 3e
       -0.34213144 -0.16161655 -0.10076845 0.31115007
000140 f1 b7 04 be 31 ea 8e bd 68 7c b4 3d 02 f7 70 be
       -0.12960793 -0.06978262 0.08812791 -0.23531726
000150 7e 14 89 3d b4 28 fa bd d4 fc 5d 3e 22 42 51 be
       0.06693362 -0.12214795 0.21678478 -0.20435384
000160 44 f7 ca bd b1 8b 0b be 29 a6 23 be 14 22 93 bd
       -0.099104434 -0.13627507 -0.15981354 -0.07184234
000170 8d 71 00 3e 5d c0 96 be 16 dc 8a bd e1 bc 06 3e
       0.12543316 -0.29443637 -0.06780259 0.13157989
000180 e9 a4 0b 3e 81 48 7e 3d 46 1b 70 be aa f2 57 bd
       0.13637127 0.062080864 -0.23447904 -0.052721657

lstm.weight_ih_l0 f4 [200, 13]
000000 6f be 43 3e 4a bd e7 bd 43 9c ec 3d 40 22 b5 bd
       0.19115613 -0.11315401 0.11553242 -0.08844423
000010 0d 51 0e 3e 1d 8c 1a 3d e3 ed 82 bd 9d 1f aa 3d
       0.13898106 0.03773128 -0.063930295 0.08306811
000020 67 c6 cb bd eb 27 3c bd d2 fa c5 3d ad f0 50 3e
       -0.099499516 -0.045936506 0.09666981 0.2040431
000030 72 68 0e 3e b4 67 9b 3d 04 b2 0b bd fd 51 ac bd
       0.1390703 0.07588139 -0.034105316 -0.084140755
000040 b8 6b ac bd 55 70 4c 3d 2d f7 99 3d 78 bd ff bd
       -0.08418983 0.049911816 0.07517848 -0.1248731
000050 b3 32 7e 3d 51 7c 0a be 42 3e a8 bc a5 8a 4e 3d
       0.06206007 -0.13523985 -0.0205375 0.05042519
000060 11 dd c2 bd d2 7c c6 bd 20 b0 d0 3d 62 17 5b 3c
       -0.09514821 -0.09691776 0.10189843 0.013372274
000070 ab e9 b3 3d 77 47 26 bd 67 6a fa bb 58 dd fb 3b
       0.08784803 -0.040595498 -0.0076420787 0.0076862983
000080 90 d8 d1 be b4 5a 94 bd 31 79 c1 3d 55 53 39 bb
       -0.40985537 -0.07243863 0.094469436 -0.002827843
000090 f4 ad fe 3d 8e a4 41 be 78 64 07 bd 4c 7b 2a bd
       0.12435523 -0.18910429 -0.0330548 -0.04162149
0000a0 63 80 b1 3d 2c 29 c0 bc db d9 bd bd 4e 3c f4 3d
       0.08667066 -0.023457132 -0.09270068 0.11925565
0000b0 03 22 6b bd ac c0 03 3d b2 69 9b bc 7a ed 2d 3d
       -0.057405483 0.032166168 -0.018971298 0.042462803
0000c0 b9 e1 92 3d 99 15 9a 3d 98 54 0a 3e c9 67 bc bd
       0.071719594 0.07523651 0.13508832 -0.09199483
0000d0 f1 e1 b9 bd 23 35 a0 bc 80 d6 a2 bd 26 0e b8 bd
       -0.09076298 -0.019556588 -0.07951069 -0.089870736
0000e0 e9 d2 ac 3d fc 6e 9e 3c b1 9d 43 3e 61 c7 04 be
       0.084386654 0.01934003 0.19103123 -0.12966682
0000f0 60 7f 1b 3e aa 3b 99 3d bb ed 58 3a d0 c8 74 3d
       0.15185308 0.07482083 0.00082751707 0.059761822
000100 e0 8d f2 bd 86 72 e6 bd d9 2d 0d bd ae 3e 0c be
       -0.11843467 -0.11252312 -0.03446755 -0.13695785
000110 74 5b 10 be 4d 4c 4b 3d 12 b8 86 bd 89 fd 81 3e
       -0.14097387 0.049633313 -0.065780774 0.25388744
000120 6f 48 ce be d1 43 29 be 08 76 83 3e 5f f9 56 bc
       -0.40289637 -0.16529776 0.25675988 -0.013120978
000130 f1 0d f5 be 28 85 8d 3d 50 3c c5 bd bb 2c f6 bd
       -0.478622 0.06910163 -0.09630644 -0.120202504
000140 60 f7 76 bd 29 65 e6 3d 88 d6 eb bd 52 41 f7 bd
       -0.06029451 0.112497635 -0.11515528 -0.12073006
000150 93 a7 60 bc f4 69 cb 3d 7d c0 ed bd 18 f2 f2 bd
       -0.013711828 0.09932318 -0.1160898 -0.11862582
000160 1d a4 49 3d 21 5e b2 3d 6b 0f f6 bd 22 5c 94 3d
       0.049228776 0.0870936 -0.120146595 0.072441354
000170 f2 2b 42 bd ed 45 e0 3c 0a df c9 3d 7e a5 e9 b7
       -0.04740519 0.027377093 0.098569945 -2.7852828e-05
000180 fb ef ae bc 20 3c c0 bd e5 81 87 3d 84 6a bc bd
       -0.021354666 -0.09386468 0.06616572 -0.09200004
000190 8c f3 4d be 6f bc 8c bc 08 e3 d9 3d e0 75 ea 3d
       -0.20112437 -0.017179696 0.10639006 0.11448264
0001a0 85 7c 80 3e 37 7e 01 3e e5 82 02 be df d6 23 3d
       0.25095 0.12645803 -0.12745245 0.03999984
0001b0 bb 85 08 be 23 ec 0e 3e 6d 3d a7 bd 1e 39 bd 3d
       -0.13332264 0.13957267 -0.08166013 0.0923941
0001c0 9f 5d 9c bd 76 52 db 3d 9d e9 c2 3d 9e 99 c0 bc
       -0.07635044 0.107090876 0.095172144 -0.02351075
0001d0 d7 23 08 3e df fc 33 3e be 17 f1 bd 99 c8 cf 3d
       0.13294922 0.17576931 -0.117721066 0.10145683
0001e0 f6 cf fd bc 1c 0c cb 3c 92 26 ff bd 3b aa bb 3d
       -0.030982953 0.024786048 -0.124585286 0.09163328
0001f0 9a f3 51 bd 78 cf 33 bd ac c7 49 3d 1a 71 95 bd
       -0.051257707 -0.04389903 0.049262688 -0.07296963
000200 b9 53 bb bd b3 95 ac 3c e9 46 78 3d f1 d8 0e 3e
       -0.09146828 0.021067476 0.0606145 0.13949944
000210 7b 83 13 3d d6 aa c9 bd ea 23 36 3d d5 ed 82 3d
       0.03601406 -0.098470375 0.044467844 0.06393019
000220 fb e2 ec 3d d9 f1 8e bb 8a a0 69 bd e5 c4 ff 3d
       0.115667306 -0.0043623266 -0.057037868 0.124887265
000230 73 f4 ee 3d 68 cd 97 bc 3d ad de bd 54 62 0d 3e
       0.11667719 -0.018530563 -0.10872886 0.1380704
000240 11 fe 45 bd a6 0a e6 3c d2 72 22 bd f0 7c 90 3d
       -0.048338 0.02808125 -0.039660282 0.0705508
000250 93 30 f4 bd 61 75 8b be dc 78 3a 3d e9 44 c7 3e
       -0.11923327 -0.2723799 0.045525417 0.38919762
000260 6a 40 5e 3e 8e dd ba 3d c0 f2 cd bd 45 cd ce 3d
       0.2170426 0.091242895 -0.100560665 0.10097746
000270 07 70 1a bd 36 12 39 bc 29 72 04 3e 3a 9c 0d be
       -0.037704494 -0.011295846 0.12934174 -0.13829127
000280 37 57 0f bd e7 ad 9d 3d 19 6e 22 bd ad dc 48 3d
       -0.034995284 0.07699185 -0.03965578 0.049038578
000290 2f 80 19 be f6 b2 92 3d 29 25 ad 3d 67 45 49 3d
       -0.14990304 0.0716304 0.08454353 0.049138453
0002a0 a1 68 0d bd e2 60 0c 3e a9 cf a0 bc 2f 8b 04 be
       -0.03452361 0.13708833 -0.01963027 -0.1294372
0002b0 4e 9d b9 bd 79 34 eb bd de 99 de bb 74 c2 16 3e
       -0.090632066 -0.11484618 -0.0067932447 0.14722615
0002c0 24 52 81 bd f4 ce b3 bd 90 86 be 3d 9d ae 25 3d
       -0.06314495 -0.087797076 0.093030095 0.040449727
0002d0 d9 a9 83 bd 4a 88 dd bd 35 c1 69 3e 12 59 be 3d
       -0.0642888 -0.10817011 0.22827609 0.092943326
0002e0 0a dc 0e be 43 9a f9 bc 5f af 34 3d 6f 9d 6e 3c
       -0.13951126 -0.030469066 0.04411256 0.014563902
0002f0 66 7a 8d 3d 6a 10 71 bb 63 d6 df 3d eb 8d 57 be
       0.06908111 -0.0036783465 0.10929563 -0.21050231
000300 99 73 ca 3d 24 fb b6 3d db 5e d0 bd 5c d6 64 3d
       0.0988533 0.0893462 -0.10174342 0.05586849
000310 02 09 e8 bd 71 df 4a 3d ca 59 80 3d 79 97 d7 bd
       -0.11329843 0.049529497 0.06267126 -0.10526938
000320 5c 83 fe 3d c3 74 80 3c 34 28 2e bd 21 33 80 bc
       0.124273986 0.015680676 -0.04251881 -0.01564938
000330 fb b1 a7 bc cc fd de 3d 51 cc 2c 3a 4a fa d5 3c
       -0.02047061 0.10888252 0.0006591725 0.026120324
000340 c0 15 8f 3d 13 ac 58 3d c0 49 7b bd e0 cb 7e 3c
       0.0698657 0.052898478 -0.06134963 0.015551537
000350 b5 fd f6 bd f2 e1 d4 bd 4d e6 75 3d 84 f1 1f bb
       -0.120601095 -0.10394658 0.060034085 -0.002440543
000360 ce 0a ef bd 7a a4 8a 3d 2f fd e4 bd a6 bf c0 3c
       -0.11671983 0.06769653 -0.111811034 0.023528885
000370 85 96 56 bc 31 61 b4 bc d1 1a 86 3d d5 bf c0 bd
       -0.01309741 -0.022019 0.065480836 -0.09411589
000380 77 0d 5e 3d c2 23 55 3d ec 9c 05 3b 28 d2 29 3d
       0.05421206 0.052036054 0.0020387722 0.041460186
000390 ca 3c d9 3d 70 ad cc 3d 94 af aa 3a 72 c0 2f bd
       0.10607298 0.09994018 0.0013022297 -0.04290814
0003a0 32 bf fb 3c 47 42 dd 3d 7b e3 6d 3e 3e 9c d3 3d
       0.030730817 0.10803657 0.23231308 0.10332535
0003b0 57 93 b0 3d 36 77 f5 bd 6c 4c 88 3d b8 6c b6 bd
       0.08621853 -0.11985628 0.06655201 -0.08907455
0003c0 be fe e2 3d d0 bb 01 3e ad d5 47 3c 34 64 a6 3d
       0.110837445 0.12669301 0.01219694 0.08124581
0003d0 ff f7 0e bd f8 9c de 3c 2f bc d2 3d 73 f8 6c 3d
       -0.034904476 0.027174458 0.102897994 0.057854127
0003e0 7b 0b 7d 3d 51 d3 44 3d e5 29 b0 bd 60 c3 c4 3d
       0.061778527 0.04805309 -0.08601741 0.09607577
0003f0 ac f8 ba 3d e3 81 20 bb 48 a2 0a 3e 98 b2 d0 3c
       0.09129462 -0.002449148 0.13538468 0.025475785

lstm.weight_hh_l0 f4 [200, 50]
000000 69 12 6c bd 4d 39 ac bc c0 5f 8e bd 28 64 9d bb
       -0.057634745 -0.021023417 -0.069518566 -0.0048031993
000010 0f f6 78 3d 2f 2a 68 bd ff db 76 bd 10 60 6c bd
       0.060781535 -0.056680854 -0.0602684 -0.0577088
000020 74 45 0e 3e b4 08 d1 bd dc 0e bc bd ce 1b 8c bd
       0.13893682 -0.10206738 -0.09182522 -0.06841241
000030 c1 1b b7 3d 7f eb 84 bd 52 de c5 3d 02 7b 6c bc
       0.089408405 -0.0649023 0.09661545 -0.014433624
000040 a7 7e 9b bd a1 83 e5 bd 9a a3 80 3d de 42 dd bd
       -0.075925164 -0.11206747 0.062812045 -0.108037695
000050 4d c5 df bd ed 39 0b 3c e2 81 ad bd 78 8f 8a 3d
       -0.10926304 0.008497697 -0.08472039 0.06765646
000060 97 e3 46 bd 99 2c 69 bd ca f2 9d bd 2d 84 05 3e
       -0.04855689 -0.056927297 -0.07712324 0.13038702
000070 96 f1 01 be 55 41 e4 bd 1f 16 83 3d 13 c8 f9 bd
       -0.12689814 -0.111452736 0.06400704 -0.12196364
000080 ee 24 26 bd 6b 32 e9 3c 95 fb b9 3d 03 ae c2 3d
       -0.040562563 0.028466424 0.090811886 0.09505846
000090 55 07 8f bd 3a 47 5e bd b9 cf 63 3d 79 37 59 3d
       -0.0698382 -0.054267146 0.05561802 0.05303142
0000a0 6e a1 80 3d b7 c6 97 bc 7a 27 99 bd bb b9 da bd
       0.0628079 -0.018527372 -0.07478233 -0.106799565
0000b0 df 91 e8 3d bf c4 31 3d a2 ea e1 bd 01 e1 39 39
       0.11355948 0.043400522 -0.11031081 0.00017726795
0000c0 c8 1e 91 bd 63 c8 1c bd 23 d7 98 3d 48 74 c0 bd
       -0.07085949 -0.03827704 0.07462909 -0.09397179
0000d0 d4 0d 4c 3d d2 4f a4 bc ad fc bb 3d 38 47 54 bd
       0.049817875 -0.020057593 0.091790535 -0.051825732
0000e0 88 f1 17 bd 06 5c 08 be 9b 3f 41 bd 44 49 9e bb
       -0.037095577 -0.13316354 -0.0471798 -0.0048305113
0000f0 dc 05 fb 3d 63 72 03 be 8e cb f0 3c 5e 56 2b bd
       0.12256977 -0.12836604 0.029393937 -0.041830413
000100 be bb 8b 3d 81 b1 b6 3d d9 6f 34 3a 92 d4 92 3d
       0.06822918 0.08920575 0.00068831217 0.07169451
000110 81 73 4a bd 35 76 95 3d 3a 36 ca bd c5 0a b7 bd
       -0.04942656 0.07297937 -0.09873624 -0.08937601
000120 ef 42 dd bd b3 d7 35 bc 63 3f f0 bc 87 22 cf bc
       -0.10803782 -0.01109879 -0.0293271 -0.025285019
000130 ad c2 00 3e d1 d8 bb 3b 7c ff f7 bc 94 d1 9e bd
       0.12574263 0.0057326336 -0.030273192 -0.077548176
000140 17 2c 01 3e 2f 07 89 3d 5f e8 12 be c8 32 95 bd
       0.12614475 0.06690823 -0.14346455 -0.072850764
000150 85 a9 77 bc 03 2a 1c bd 35 ea 58 3c 6f 5c 8f 3d
       -0.0151161 -0.038126003 0.013239433 0.07000052
000160 ed 4f ee 3c 44 b7 d9 3c 13 35 16 bd 65 8b 2a bd
       0.029090846 0.026576646 -0.03667171 -0.041636843
000170 2f 29 07 3e 35 08 39 bd 4a db 98 3c d5 17 f7 3d
       0.13199304 -0.045173842 0.018659253 0.120650925
000180 50 4d d2 3d 4b 86 90 bd 08 70 c1 bd 0e cf 3e 3c
       0.102686524 -0.07056864 -0.094451964 0.011646045
000190 cd aa a1 3d 98 91 b8 3c f4 76 d0 3a 7e 2b 93 3d
       0.07893906 0.022530362 0.0015904591 0.0718603
0001a0 ca bc 17 3d e8 49 e9 3d 74 49 87 bd 58 69 ba bd
       0.037045278 0.113910496 -0.06605807 -0.09102124
0001b0 2c 9e b5 3d 80 36 8e 37 df a1 cb 3d 05 89 da bd
       0.088680595 1.6953098e-05 0.09942984 -0.10670666
0001c0 de e5 bd bd ef d4 c9 3c 85 79 ff bc 82 6d c3 bd
       -0.09272359 0.024637667 -0.031185875 -0.09542371
0001d0 21 11 24 3d 4c 10 66 bd b2 c7 cd bd 74 6c 49 bd
       0.040055398 -0.056167886 -0.100478545 -0.049175695
0001e0 8f ab 1a 3e bf bd 7d bd b1 5d 11 bd 43 90 48 3d
       0.15104507 -0.061948534 -0.03548974 0.048965704
0001f0 e4 4b 04 3e 20 b3 1b 3d 43 92 b3 bd b9 db 02 3e
       0.12919575 0.038012624 -0.087681316 0.1277913
000200 6a 11 57 bd 4d cf 1f bd 49 51 36 3d 67 b2 59 bd
       -0.05250684 -0.039016057 0.044511113 -0.053148653
000210 bd 80 06 3e 49 4c 94 bd 32 64 88 3c a4 f4 8c bc
       0.13135047 -0.07241113 0.01664934 -0.017206497
000220 47 c9 02 be b2 81 43 bd fc b6 db 3c 15 01 0f bd
       -0.12772094 -0.04773111 0.026820652 -0.03491314
000230 a8 08 e3 bd 45 8d 9e bd 4c 62 1b bd c6 4a ef bc
       -0.110856354 -0.07741789 -0.03793554 -0.02921046
000240 ff 3c a7 3d 57 c1 8b 3d 2e bc cb 3c 38 b7 08 be
       0.08165931 0.06823986 0.024870005 -0.13351142
000250 9e 16 c6 bd 62 bf 0b 3e b9 bc d4 bd 1c 30 0e bd
       -0.09672283 0.13647225 -0.103875585 -0.03471385
000260 81 95 81 3d a0 55 b3 bd 86 6c e1 bd 29 0d 83 3b
       0.06327344 -0.08756566 -0.11007027 0.0039993715
000270 d1 02 dc 3d 17 65 89 bd a9 6e 9b bc b0 b0 ae bd
       0.10742725 -0.067087345 -0.018973665 -0.08529794
000280 6a 02 02 be 9b f3 a4 3d 4b 90 cb 3b 3d 00 b6 bb
       -0.12696233 0.080542766 0.0062122694 -0.0055542276
000290 cf 5a 0b 3e 34 cf 93 bd 8e 0d bc bd 00 65 28 bd
       0.1360886 -0.07217255 -0.09182273 -0.041111946
0002a0 21 7d e8 bd c8 e1 32 3d 10 1b 83 bd db 54 02 be
       -0.113519914 0.043672353 -0.06401646 -0.12727682
0002b0 ca 53 59 3d 05 a6 8f 3d 2f 2d 95 bc 78 b6 ee 3d
       0.053058423 0.070140876 -0.018210022 0.11655897
0002c0 c5 b2 db 3d d4 c5 ad bd ed 10 2a bd 79 fb ee bd
       0.10727457 -0.08484998 -0.041520048 -0.11669058
0002d0 23 bf a9 3d e3 03 16 3d c2 21 e9 3d ab 2e f6 3c
       0.082884096 0.0366248 0.11383392 0.03005155
0002e0 aa f3 c2 bd fe 25 28 bd 3d 4c 9e bd 59 50 a6 3d
       -0.095191315 -0.041051857 -0.07729385 0.08120794
0002f0 ab 4a b3 3d ee e0 b2 bd 57 b1 25 3d 58 76 26 3c
       0.08754476 -0.08734308 0.040452328 0.010160051
000300 d8 48 6b 3c 42 56 97 bd 78 4a cd 3d 3e 72 c1 3d
       0.014360629 -0.07389499 0.100239694 0.09445618
000310 17 2e f7 3b 23 8c 99 bd 2d 47 ba bd fd 8b 94 bd
       0.007543336 -0.07497432 -0.09095607 -0.07253263
000320 5d 99 83 bc d0 56 fb 3d ca ab 9a bd 06 05 a1 3b
       -0.01606434 0.122724175 -0.075522974 0.004913929
000330 68 69 d4 bd 45 07 07 be ce 36 f1 3d a3 46 1d bd
       -0.10371667 -0.13186367 0.11778031 -0.038397443
000340 cc ec b6 bd c1 b2 9f 3c ba 3c 14 3e a9 d1 22 3d
       -0.08931884 0.019494416 0.1447629 0.03975073
000350 b2 f6 96 3d e4 5b 80 bd e7 c8 5c 3d da 04 9e bd
       0.07371272 -0.06267527 0.053902533 -0.07715769
000360 51 d7 b8 bc 0a bc 6a 3c 38 0a 19 bb d8 94 26 3d
       -0.022563608 0.014327059 -0.0023352038 0.040669292
000370 75 9b ad 3d e5 31 0c bd 7b 1f e3 3d 9c 73 0c 3e
       0.08476917 -0.03422727 0.11089989 0.13715976
000380 ae 2f 63 bd 15 35 7c 3c ec f9 1e 3d 91 61 c5 bd
       -0.055465393 0.015393515 0.038812563 -0.0963775
000390 85 66 f7 3d 58 fa b7 bd 7c ee b5 bc fb 62 cc 3d
       0.12080101 -0.08983296 -0.022208445 0.099798165
0003a0 b6 6d 9b bd 05 1b e5 3d 4b 50 9c 3d 9a 45 a5 bd
       -0.07589285 0.11186794 0.07632502 -0.08069916
0003b0 b7 71 fa bd 23 09 b3 bd e7 a4 fb bd 93 2c af bc
       -0.12228721 -0.08741977 -0.12287312 -0.02138356
0003c0 38 c0 81 3d 9c a5 ba 3d c6 76 b0 3b 79 f6 63 bd
       0.06335491 0.09113619 0.0053852526 -0.055654977
0003d0 73 5d c4 bd 17 1a 93 bc 4f 9c 0f 3e 79 84 8e 3d
       -0.095881365 -0.017956777 0.14024471 0.06958861
0003e0 f5 da 9c bd d1 fd 0c 3e 63 ed d9 3c 67 e2 4a bc
       -0.0765895 0.13768698 0.026602453 -0.01238308
0003f0 64 f5 47 bd 02 20 c7 3d ae 5f ad bd 2d de 4e 3d
       -0.048818007 0.09722902 -0.08465515 0.050504852
