crowd_nav/data/output_SARL/rl_model.pth (torch, 392547 bytes, 20 tensors)

mlp1.0.weight f4 [150, 13]
0	0x3e3bfb8e	0.18357679
1	0xbe80efa0	-0.2518282
2	0x3e4357ac	0.19076413
3	0x3e62d02d	0.22149725
4	0x3da0dfd1	0.078551896
5	0x3e36a6b5	0.17837031
6	0x3d90f2ff	0.07077598
7	0x3e206f07	0.15667354
8	0x3e9292e5	0.28627697
9	0x3cc234e4	0.02370686
10	0xbda7212a	-0.081606224
11	0xbd043a3d	-0.032282103
12	0xbe0e8c38	-0.13920677
13	0x3e15a31c	0.14613003
14	0xbe1acb11	-0.15116526
15	0x3e864a86	0.26228732
16	0xbc99c3bb	-0.01877009
17	0xbe962e7f	-0.2933235
18	0xbdef15b3	-0.11674061
19	0x3e96b924	0.29438126
20	0xbd9ee516	-0.077585384
21	0xbd1101f8	-0.03540227
22	0xbe2f5101	-0.17120744
23	0xbdf456e9	-0.11930639
24	0xbbc5e9d1	-0.006039836
25	0x3d2bf948	0.04198578
26	0x3cb5288e	0.022114065
27	0xbd1c89fb	-0.038217526
28	0x3d142915	0.03617199
29	0xbdac7e3d	-0.084225155
30	0x3dacf661	0.084454305
31	0x3d1a36fc	0.037650093
32	0xbd14d847	-0.03633907
33	0xbe94e71c	-0.29082572
34	0xbdc97097	-0.09835928
35	0xbe87b809	-0.26507595
36	0xbe053713	-0.1300929
37	0x3ca1a364	0.019731231
38	0x3cc63bdb	0.024198463
39	0xbe05fb31	-0.13084103
40	0xbe1ef3ef	-0.15522741
41	0x3d6d8976	0.05799242
42	0x3e732f84	0.23748595
43	0x3e65d931	0.22446133
44	0xbcc5e6eb	-0.024157962
45	0x3df73493	0.120705746
46	0x3e4c43e4	0.19947773
47	0x3d941480	0.072304726
48	0x3dbe0c28	0.09279662
49	0x3e5bfc79	0.2148303
50	0xb8dcd272	-0.00010529616
51	0xbe83ea5e	-0.25764745
52	0x3e788e62	0.24273065
53	0x3e428666	0.18996581
54	0x3ded8395	0.11597363
55	0xbca87a69	-0.020566182
56	0x3c742f70	0.014903888
57	0xbe600595	-0.2187713
58	0xbe7c643f	-0.24647616
59	0x3da8a390	0.08234322
60	0xbe2ae8b4	-0.16690332
61	0x3e47d242	0.195138
62	0x3c5e136a	0.013554433
63	0xbe8c0fd9	-0.2735584
64	0x3dbe8f8a	0.09304722
65	0xbe753f7d	-0.2395
66	0x3db0fe6d	0.08642278
67	0xbe8a4578	-0.27006125
68	0x3e3b8f30	0.1831634
69	0x3c0eabf0	0.008707985
70	0x3e8632fb	0.2621077
71	0xbe84782d	-0.25872937
72	0xbd5444f2	-0.051823564
73	0xbdd3c550	-0.10340369
74	0x3df5b7fe	0.11997984
75	0xbe500785	-0.20315368
76	0x3e30ee87	0.17278491
77	0xbdc00888	-0.09376627
78	0xbe0d7fbd	-0.1381826
79	0x3d1939f8	0.0374088
80	0x3d3414ed	0.04396527
81	0xbd9b076f	-0.07569777
82	0xbe88e9f9	-0.26741007
83	0xbe209c99	-0.15684737
84	0xbdacd16f	-0.08438384
85	0x3da4c437	0.080452375
86	0xbd994c48	-0.074852526
87	0x3e774566	0.24147567
88	0xbe866410	-0.26248217
89	0x3e342109	0.17590727
90	0x3d30596b	0.043054026
91	0xbd93eb24	-0.07222584
92	0x3db9798d	0.09056387
93	0x3e26e746	0.16299161
94	0x3df5d901	0.12004281
95	0x3e3cb4bd	0.18428321
96	0x3e3c425c	0.18384689
97	0xbe20cb98	-0.15702665
98	0xbcb104e1	-0.021608772
99	0x3e2988d7	0.16556107
100	0xbd0f7f3c	-0.03503345
101	0xbe0362cd	-0.12830658
102	0x3e7f4ed5	0.24932416
103	0xbc29371f	-0.010328083
104	0xbe6800af	-0.22656511
105	0x3e56f124	0.20990425
106	0xbe895660	-0.2682371
107	0xbe0cba96	-0.13743052
108	0xbe323ec2	-0.17406753
109	0x3d1000f0	0.035157144
110	0xbc933e23	-0.017973965
111	0xbd938757	-0.072035484
112	0xbe20bda7	-0.15697347
113	0x3e14434f	0.14478801
114	0xbe04902a	-0.12945619
115	0x3e187c41	0.14891149
116	0xbe6fd0c0	-0.23419476
117	0x3db1b725	0.0867751
118	0xbd6328cd	-0.055458833
119	0x3e1461bd	0.14490409
120	0x3e059508	0.13045132
121	0x3e602e51	0.21892668
122	0xbd398c51	-0.04529983
123	0x3ea2e736	0.31817025
124	0xbe35e158	-0.17761743
125	0x3e24743a	0.16059962
126	0xbe5182f4	-0.20460111
127	0x3d352aa6	0.044230126
128	0xbe62d5b0	-0.22151828
129	0x3e1a5c01	0.15074159
130	0xbd3e4fec	-0.04646294
131	0x3df418c7	0.119187884
132	0xbe42dc9f	-0.19029473
133	0xbe714b35	-0.23563845
134	0xbd5f05ed	-0.05444901
135	0x3bebf1e9	0.007200469
136	0xbe8d2fdc	-0.27575576
137	0x3e13d203	0.14435582
138	0x3e47fede	0.19530818
139	0xbe89e5ce	-0.2693314
140	0xbd123ab8	-0.03570053
141	0xbd41b48c	-0.047291324
142	0x3e3a9baf	0.18223451
143	0x3e64122b	0.22272556
144	0xbe6cc9d3	-0.23123865
145	0xbe612970	-0.21988463
146	0x3d05bc7d	0.03265046
147	0x3de63c08	0.11241919
148	0x3d7129ff	0.05887794
149	0x3e830803	0.2559205
150	0xbe0b6414	-0.13612396
151	0x3ebf8694	0.37407362
152	0xbdfc7cca	-0.12328489
153	0x3d133f26	0.035948895
154	0xbdb4a79d	-0.08821032
155	0xbc1f7852	-0.009733276
156	0xbcac8ef4	-0.02106426
157	0x3e13b3d4	0.14424068
158	0x3e45ff80	0.19335747
159	0x3db79c20	0.08965325
160	0xbd527063	-0.05137671
161	0x3d1b7c14	0.037960127
162	0xbdd30130	-0.10302961
163	0xbe89d0be	-0.2691707
164	0xbda49a5c	-0.08037254
165	0xbe4ec07b	-0.20190613
166	0x3e53d357	0.20686089
167	0x3d67e16b	0.05661146
168	0x3e1ae874	0.15127736
169	0xbe03c2fb	-0.12867348
170	0x3e4d9152	0.20074967
171	0x3e4f20bf	0.20227335
172	0x3e7a2116	0.24426684
173	0x3e8c17a5	0.2736179
174	0xbe9f007f	-0.31055066
175	0x3df6ba6f	0.12047278
176	0x3e8a9923	0.2706996
177	0xbb95f210	-0.0045759752
178	0xbdcf4fbb	-0.10122629
179	0xbdd22cd7	-0.10262459
180	0xbe00011b	-0.12500422
181	0x3e62c8a0	0.22146845
182	0xbd360146	-0.04443481
183	0xbd76b43a	-0.06023047
184	0x3e732c07	0.23747264
185	0x3e45cbd3	0.19316034
186	0x3ea15df7	0.31517002
187	0xbcbebbac	-0.023282848
188	0xbe1525b4	-0.14565164
189	0x3e557574	0.20845586
190	0xbd9531d2	-0.07284893
191	0xbdb2ed2e	-0.08736645
192	0x3dc33e20	0.09533334
193	0x3eb68f37	0.3565614
194	0xbe069519	-0.13142814
195	0x3e12887c	0.14309877
196	0xbe82e864	-0.25567925
197	0x3e5e4ec0	0.21709728
198	0x3e87ad3f	0.26499364
199	0xbcdee193	-0.027207172
200	0x3dbf7ba3	0.09349754
201	0x3e7ca46f	0.24672101
202	0x3e2ffa24	0.17185265
203	0x3de8ba47	0.113636546
204	0x3e9b6c36	0.30355996
205	0x3e292a17	0.16519962
206	0xbe0dd292	-0.13849857
207	0xbe4a9e2e	-0.19786903
208	0xbd2da199	-0.04239044
209	0x3e759d4d	0.23985787
210	0x3e0ae8ca	0.13565364
211	0xbe3ec864	-0.1863113
212	0xbad414e0	-0.0016180538
213	0x3ebe7160	0.37195873
214	0x3e0d9347	0.13825713
215	0xbd7dee65	-0.06199493
216	0x3e3899eb	0.18027465
217	0xbea47674	-0.32121623
218	0x3d57543e	0.052570574
219	0x3cc4bf45	0.024016986
220	0xbdad6a0d	-0.08467493
221	0xbe28ec7b	-0.1649646
222	0xbe8866a9	-0.26640823
223	0xbc39b7e9	-0.0113353515
224	0x3e14a16e	0.14514706
225	0xbe045088	-0.12921345
226	0x3e23488f	0.15945648
227	0x3e0df015	0.13861115
228	0x3e6ed840	0.2332468
229	0x3e8a7395	0.27041307
230	0x3e5f4701	0.2180443
231	0x3c9a265a	0.018817116
232	0xbd2fcdb9	-0.0429208
233	0x3e8c5f03	0.27416238
234	0x3dedd3fc	0.116126984
235	0x3e1ebcaf	0.15501665
236	0x3e7b341a	0.24531594
237	0x3e280f9f	0.16412209
238	0xbd16d744	-0.036826387
239	0x3e115574	0.14192754
240	0x3eb68361	0.3564711
241	0x3c8207e3	0.015872901
242	0x3e65b193	0.2243102
243	0x3c7f18dd	0.015569893
244	0x3e1558a2	0.14584592
245	0xbea43b7c	-0.32076633
246	0xbe6ab971	-0.22922303
247	0x3dc6b92a	0.09703286
248	0xbdfe7549	-0.12424714
249	0x3d56cee6	0.052443407
250	0x3d9eed27	0.07760077
251	0xbba7f85d	-0.0051260428
252	0x3bfa87a6	0.007645565
253	0x3e504a57	0.20340858
254	0xbea236f8	-0.31682563
255	0x3e92457b	0.28568634

mlp1.0.bias f4 [150]
0	0xbe4dc5f8	-0.2009505
1	0xbdf31d57	-0.118708305
2	0xbe090df3	-0.13384227
3	0xbde594f6	-0.11210053
4	0xbdcb29e0	-0.099200964
5	0x3dd6a8b6	0.10481398
6	0xbdf19caf	-0.11797463
7	0xbdda5dcb	-0.10662421
8	0xbe607e5b	-0.21923201
9	0x3dca16f8	0.09867662
10	0xbb72ff36	-0.0037078387
11	0xbe3189a1	-0.17337658
12	0xbe2812a3	-0.1641336
13	0xbe3a83ee	-0.1821439
14	0x3de5892d	0.11207805
15	0x3e3d9fd5	0.18518002
16	0xbde3a835	-0.11116067
17	0xbd614b06	-0.05500319
18	0x3e12baab	0.1432902
19	0xbc63708d	-0.013881815
20	0xbe7be8bb	-0.24600498
21	0x3e834908	0.25641656
22	0x3d88d748	0.06681687
23	0x3dffa157	0.12481945
24	0xbd433508	-0.047657996
25	0x3b4ab434	0.0030930163
26	0x3e97eb16	0.29671544
27	0x3e2dc7ad	0.16970702
28	0xbe7f8560	-0.24953222
29	0x3e20d80a	0.15707412
30	0xbd52a2b2	-0.05142469
31	0xbd9d843c	-0.07691237
32	0xbd772d3e	-0.06034588
33	0x3e79d5bd	0.24397941
34	0xbe09ea27	-0.13468228
35	0x3e5d67fc	0.21621698
36	0x3e3e7b35	0.18601687
37	0xbdd8fb93	-0.10594859
38	0x3dd8f47a	0.10593505
39	0x3e1ec8ed	0.15506335
40	0xbe6e8715	-0.23293717
41	0x3d070504	0.032963768
42	0x3dd62c7a	0.10457702
43	0x3e7dbec8	0.24779809
44	0x3deba2e0	0.11505675
45	0x3d8802d1	0.06641162
46	0x3dfa59e9	0.1222418
47	0x3e5bcb40	0.21464252
48	0xbe5fd3b3	-0.218581
49	0x3dd4aa73	0.10384073
50	0xbcd3354d	-0.025782252
51	0x3e3b03e8	0.18263209
52	0x3e77492e	0.2414901
53	0x3e522a15	0.20523866
54	0x3e8733cb	0.26406702
55	0xbe4c07ba	-0.19924822
56	0x3e3cc00c	0.18432635
57	0x3e7e3674	0.2482546
58	0xbe244d8f	-0.16045211
59	0xbd2c78fc	-0.042107567
60	0x3deedc9f	0.11663174
61	0xbdd581a6	-0.10425119
62	0x3da02e6c	0.07821354
63	0x3dfecb04	0.12441066
64	0x3e336fec	0.17523164
65	0x3e57c583	0.21071438
66	0x3e858b8c	0.26083028
67	0x3e695b08	0.22788632
68	0x3cb16a8c	0.02165725
69	0x3e945ef2	0.28978688
70	0xbe1bc099	-0.15210189
71	0xbd14ad65	-0.036298174
72	0x3e895a2e	0.26826614
73	0x3c8ea290	0.0174115
74	0xbddde4d8	-0.10834664
75	0x3d85266a	0.065014675
76	0xbd45e6fd	-0.04831599
77	0xbe6bf326	-0.23041973
78	0x3e3be530	0.18349147
79	0x3d0caaab	0.03434245
80	0xbd6dd10f	-0.058060702
81	0x3e794f25	0.24346597
82	0xbe7be2a8	-0.24598181
83	0xbd19dec4	-0.03756596
84	0x3db2a836	0.0872349
85	0xbd28e0a5	-0.041229863
86	0x3e2e81ea	0.17041746
87	0xbe5c5a0a	-0.21518722
88	0x3c008d64	0.00784621
89	0xbe0067d1	-0.12539603
90	0x3e026cde	0.12736842
91	0xbe27f967	-0.16403733
92	0x3e2359a9	0.15952171
93	0x3e2d0fec	0.16900605
94	0xbda00214	-0.07812896
95	0xbe43844e	-0.19093439
96	0xbe40fa23	-0.1884542
97	0x3d23085d	0.039802898
98	0x3e5cd541	0.21565725
99	0xbcfd3bf6	-0.03091238
100	0xbdd82ecc	-0.10555801
101	0xbe4f0e63	-0.20220332
102	0x3d000dcd	0.03126316
103	0xbe3d1430	-0.18464732
104	0x3dcb5d8e	0.099299535
105	0xbb8de0a9	-0.00432976
106	0xbe5f63b0	-0.21815372
107	0x3e04d2d2	0.12971047
108	0xbe378231	-0.17920758
109	0x3e81999a	0.253125
110	0xbd4e1c2a	-0.050319828
111	0xbda3cdcd	-0.07998238
112	0xbd15ae15	-0.03654297
113	0xbdaafa1a	-0.08348484
114	0xbdc7a7c6	-0.09748797
115	0xbdba2968	-0.09089929
116	0x3e831e4b	0.2560905
117	0x3d02f6e3	0.03197373
118	0x3e11485c	0.14187759
119	0x3d937114	0.07199302
120	0xbca6905c	-0.020332508
121	0xbe445f08	-0.19176877
122	0xb9db4e45	-0.0004182925
123	0x3e2e8c93	0.17045812
124	0x3d439237	0.047746863
125	0xbcb28438	-0.021791562
126	0xbd2558d7	-0.040367927
127	0x3d8b5252	0.06802811
128	0x3e6de83a	0.23233119
129	0xbe65ec99	-0.22453536
130	0xbe7e2dcc	-0.24822158
131	0x3e647788	0.22311223
132	0xbe191bfa	-0.14952078
133	0x3e79bd2a	0.24388567
134	0x3e1c7a50	0.15281034
135	0xbe3982a4	-0.18116242
136	0x3bcfebce	0.006345249
137	0xbdfb4291	-0.12268556
138	0x3e8e823b	0.27833733
139	0xbe018cc9	-0.12651362
140	0xbe05363f	-0.13008974
141	0xbda17644	-0.078838855
142	0x3e06fa0d	0.13181324
143	0xbe18fac5	-0.14939411
144	0xbe5534be	-0.20820901
145	0xbde63977	-0.11241429
146	0x3e806db6	0.25083703
147	0xbe821d45	-0.25412956
148	0x3d891dcb	0.06695136
149	0x3e89ebff	0.26937863

mlp1.2.weight f4 [100, 150]
0	0x3d55b26f	0.05217212
1	0xbda14887	-0.078751616
2	0x3d80bf2f	0.062864654
3	0x3d35c40f	0.04437643
4	0xbbbd6001	-0.005779267
5	0x3d56bb3d	0.052424658
6	0xbc5ea646	-0.013589447
7	0x3da7a781	0.08186246
8	0xbc50cc5a	-0.012744034
9	0xbcdae7bb	-0.026721826
10	0xbda0a866	-0.078446195
11	0xbb266011	-0.002538685
12	0xbc8c8bcf	-0.01715651
13	0xbd636043	-0.055511724
14	0xbd679d51	-0.056546513
15	0x3d846d73	0.06466188
16	0x3d951112	0.072786465
17	0x3d86d285	0.06583122
18	0x3d6b4ff2	0.05744929
19	0x3d0a8300	0.033816338
20	0x3bc8dd33	0.0061298846
21	0x3ce1ea73	0.027577614
22	0x3d6319db	0.05544458
23	0xbda1e72b	-0.0790542
24	0x3d20429a	0.039126016
25	0xbb523430	-0.0032074563
26	0xbd31af33	-0.043379974
27	0xbd77e90c	-0.060524985
28	0x3c2ca07a	0.0105363075
29	0x3d81a09e	0.063294634
30	0x3cd19734	0.025584795
31	0xbc2055f3	-0.009786117
32	0xbcfd83f0	-0.030946702
33	0xbd8ab056	-0.06771915
34	0x3c01d29c	0.007923748
35	0xbd13f67a	-0.03612373
36	0x3ca5d0e8	0.020241216
37	0x3b9d5c64	0.0048022736
38	0xbd8d55ba	-0.06901117
39	0xbd756c4f	-0.059917744
40	0xbd8fa795	-0.070143856
41	0x3cc236cf	0.023707775
42	0xbd9e388f	-0.077256314
43	0x3d1796a6	0.037008904
44	0xbbd2163a	-0.006411341
45	0xbcb54efd	-0.022132391
46	0x3d5e4945	0.054269094
47	0x3d918a0d	0.07106409
48	0xbcc5a269	-0.024125295
49	0xbcc0452a	-0.02347048
50	0x3d77ed7a	0.06052921
51	0x3d401dfa	0.046903588
52	0xbc24aea0	-0.0100513995
53	0x3ce2f9a6	0.027706932
54	0x3d4cd6f6	0.05000969
55	0x3d888c96	0.0666744
56	0x3d2b868a	0.041876353
57	0xbd38ced7	-0.045119133
58	0x3c76d126	0.015064513
59	0xbd8b6bce	-0.068076715
60	0x3cf5a59b	0.029986193
61	0xbcd03501	-0.0254159
62	0x3b57ffff	0.0032958982
63	0x3d4d5311	0.050128046
64	0xbd79698d	-0.060891677
65	0xbc9335b4	-0.017969944
66	0x3d5c4809	0.053779636
67	0x3d6328b5	0.055458743
68	0x3d0925ed	0.033483434
69	0xbdb188d0	-0.08668673
70	0xbd39991e	-0.04531204
71	0xbd7579dc	-0.059930667
72	0xbcf7ce13	-0.030249631
73	0xbd5d943b	-0.05409644
74	0xbd83b11c	-0.06430265
75	0xbcd71768	-0.026256278
76	0xbd36b202	-0.044603355
77	0x3d1060dd	0.035248626
78	0x3d550a5e	0.05201184
79	0x3c772e4f	0.015086724
80	0x3cca891c	0.024723582
81	0xbd2039dd	-0.039117683
82	0xbd887d79	-0.06664557
83	0x3cda691a	0.026661444
84	0xbd213636	-0.03935834
85	0xbd2036a2	-0.039114602
86	0x3d6ae89c	0.05735074
87	0x3d94d90b	0.0726796
88	0x3c2ad546	0.010426825
89	0xbd2aec4d	-0.04172926
90	0x3d40eb69	0.047099505
91	0xbd976a97	-0.07393377
92	0xbd1f965b	-0.03896175
93	0xbd13a2f0	-0.03604406
94	0x3bbfd39f	0.0058540846
95	0xbbda1a29	-0.0066559506
96	0x3c7c8efa	0.015414948
97	0x3d688331	0.05676574
98	0xbbaacae8	-0.0052121766
99	0x3b20c836	0.0024533398
100	0x3c387cc3	0.011260214
101	0x3da78ce4	0.0818117
102	0x3d08db79	0.03341243
103	0xbb3b720f	-0.002860192
104	0xbd6cb3fd	-0.057788838
105	0x3d761341	0.060076956
106	0xbd02de1e	-0.03195011
107	0xbcd671d2	-0.02617732
108	0xbcc390e5	-0.023872802
109	0xbc6a53a7	-0.014302171
110	0x3c0ef555	0.008725484
111	0xbd9aa7ff	-0.07551574
112	0xbd2d02c6	-0.042238973
113	0xbccbc124	-0.02487237
114	0xbda81509	-0.08207137
115	0xbd56a2ed	-0.052401472
116	0x3cf2bf42	0.029632214
117	0x3ced52e8	0.028970197
118	0x3c9015b1	0.017588468
119	0x3d7ba1bb	0.061433535
120	0x3ba53353	0.0050415187
121	0xbb98040b	-0.004639154
122	0x3d0d7dc5	0.03454377
123	0x3d72bfb1	0.059264842
124	0x3ca94079	0.020660626
125	0x3ca389d3	0.01996318
126	0xbc51647d	-0.012780306
127	0xbc9e72c3	-0.019341832
128	0x3d648c42	0.055797823
129	0xbc4a323c	-0.012341078
130	0xbc4985e8	-0.012299992
131	0x3c7f6c50	0.015589789
132	0xbd735cdc	-0.05941473
133	0xbd82f9ba	-0.06395288
134	0x3bce64ae	0.006298623
135	0xbcb9b155	-0.022667566
136	0x3d8d69fa	0.06904979
137	0xbd47aa36	-0.04874631
138	0x3d8d5aab	0.06902059
139	0xbd9aa9c5	-0.07551912
140	0xbc250ea3	-0.01007429
141	0x3ca056f0	0.019572705
142	0x3d002157	0.031281795
143	0xbc4f2191	-0.01264228
144	0xbd8f2a0e	-0.06990443
145	0xbd59fc93	-0.05321939
146	0xbd04eef1	-0.032454435
147	0xbd826c49	-0.0636831
148	0x3bc61b5e	0.006045743
149	0x3bf76b87	0.00755066
150	0xbd432b9f	-0.047649022
151	0x3b221dcb	0.0024736996
152	0xbd4600b6	-0.04834052
153	0x3c929304	0.017892368
154	0xbd66cebc	-0.0563495
155	0xbd89402e	-0.067016944
156	0x3cf65555	0.030069986
157	0xbd0af8f2	-0.03392882
158	0x3b8ebd37	0.0043560523
159	0xbd016685	-0.03159191
160	0xbd395ec1	-0.04525638
161	0x3d23d7c0	0.040000677
162	0xbd2d1744	-0.042258516
163	0x3d8ac25e	0.06775354
164	0x3c66fd98	0.014098547
165	0x3d9c6480	0.07636356
166	0x3c2abe6b	0.010421376
167	0x3dae59aa	0.08513196
168	0x3dbab844	0.09117177
169	0x3d140234	0.036134914
170	0xbd0f4c4b	-0.034984868
171	0xbcc51ba5	-0.024061034
172	0x3d8e4660	0.06947017
173	0x3d071a6f	0.032984193
174	0x3d3a1545	0.04543044
175	0x3d8aadcb	0.0677143
176	0xbd956429	-0.07294495
177	0xbd190934	-0.037362292
178	0x3da1669a	0.07880898
179	0xbd8f77e9	-0.07005293
180	0x3cd047bb	0.025424829
181	0xbc5b6ab3	-0.013392138
182	0x3da19a3e	0.078907475
183	0x3c264090	0.010147229
184	0xbd765506	-0.06013968
185	0xbd54de61	-0.05196989
186	0x3d7fb3db	0.062427383
187	0xbd3a8221	-0.045534257
188	0x3c8d9253	0.017281687
189	0x3d1a9ec9	0.037749086
190	0x3d5e3495	0.054249365
191	0x3c83251b	0.016008904
192	0x3d2000ef	0.03906339
193	0x3d58481e	0.05280315
194	0xbd2a6489	-0.041599784
195	0xbcb2d4ea	-0.021830041
196	0xbd3ed41c	-0.046589002
197	0xbd07dddd	-0.03317057
198	0x3db1661f	0.08662056
199	0xbcacbb65	-0.02108545
200	0xbd9c435d	-0.07630036
201	0xbd33751f	-0.043812867
202	0x3d921eec	0.07134804
203	0xbd29333e	-0.041308634
204	0x3d893af3	0.06700697
205	0x3d9acebb	0.07558962
206	0xbd45df38	-0.04830858
207	0x3b3d88df	0.0028920693
208	0xbc41b448	-0.011822768
209	0x3c549c47	0.012976713
210	0xbb1c445e	-0.002384446
211	0x3c82585a	0.01591127
212	0x3d5ab8af	0.053398784
213	0xbd77bda4	-0.06048359
214	0x3d69ae62	0.05705107
215	0xbd7766a4	-0.06040062
216	0xbd66a0d6	-0.05630573
217	0xbc165076	-0.009174457
218	0x3d1571f0	0.036485612
219	0x3ac67c48	0.001514324
220	0x3d849b88	0.06474978
221	0xbc67494c	-0.014116596
222	0xbd219132	-0.03944511
223	0x3c05bb03	0.008162263
224	0x3d042a72	0.03226704
225	0xbd93fd50	-0.0722605
226	0x3d7612f6	0.060076676
227	0x3d8afacb	0.06786116
228	0xbd381b90	-0.04494816
229	0x3bc0888b	0.005875652
230	0xbd84a708	-0.06477171
231	0x3db2698f	0.0871154
232	0xbd57058c	-0.052495524
233	0xbd751877	-0.059837785
234	0x3d2ef15e	0.042710654
235	0xbba39ef6	-0.004993315
236	0xbd7b0c6f	-0.061291154
237	0x3cde4a9c	0.027135186
238	0x3d9abb57	0.075552635
239	0xbcc2c593	-0.023775851
240	0x3cd40c8f	0.025884895
241	0xbdacb094	-0.08432117
242	0x3bb3d0d2	0.00548754
243	0xbd80b026	-0.06283598
244	0x3d1c3afb	0.038142186
245	0x3d9896fd	0.07450674
246	0xbd8d65fd	-0.06904218
247	0xbc9993f5	-0.01874731
248	0x3c8714fb	0.016489496
249	0x3d8c7efc	0.06860158
250	0x3c42797b	0.0118697835
251	0x3d43b0c7	0.04777601
252	0x3d762fa0	0.060104012
253	0x3d1e02a2	0.03857673
254	0x3b801327	0.003908533
255	0x3d9da0a9	0.07696659

mlp1.2.bias f4 [100]
0	0xbd8e81ad	-0.069583274
1	0xbbd2e8be	-0.0064364364
2	0x3d555dc5	0.05209138
3	0xbc87da54	-0.0165836
4	0x3cae7cb8	0.021299705
5	0xbd2ba90e	-0.04190927
6	0x3d23a148	0.03994873
7	0x3d88dc78	0.06682676
8	0x3c5e2602	0.013558866
9	0x3c01da6d	0.007925612
10	0xbcaa2984	-0.02077175
11	0xbc9be119	-0.019028233
12	0xbd8471de	-0.06467031
13	0xbd337302	-0.043810852
14	0xbb938318	-0.0045017116
15	0xbd88d0d1	-0.066804536
16	0xbd9c63b6	-0.07636206
17	0xbca90473	-0.020632004
18	0x3cd41eaa	0.025893528
19	0x3bebd6e8	0.0071972497
20	0x3cf3d7f0	0.029766053
21	0xbbb64df5	-0.0055634924
22	0x3d174360	0.03692949
23	0xbd7afda3	-0.061277043
24	0x3c67ce2e	0.014148278
25	0xbcb423d3	-0.021989739
26	0xbd15552e	-0.036458187
27	0x3d7cbcb6	0.061703406
28	0xbce59640	-0.028025746
29	0xbc6ba85f	-0.0143834045
30	0xbd4baa1f	-0.049722787
31	0x3e08fe60	0.13378286
32	0x3d9c3dd8	0.07628983
33	0x3c0e4ee5	0.008685802
34	0x3d2ba993	0.041909765
35	0xbc704e5a	-0.014667118
36	0xbda8eafd	-0.082479455
37	0x3c2689d3	0.010164696
38	0x399a39ca	0.00029416225
39	0x3d85164c	0.064983934
40	0x3d068957	0.03284582
41	0x3db06a8a	0.08614071
42	0x3d63e9eb	0.055643003
43	0x3d54c51d	0.051945794
44	0xbcfb0a6e	-0.030644622
45	0x3cd301cf	0.025757698
46	0xbbcfa969	-0.006337334
47	0x3d59755a	0.05309043
48	0xbd3ee46b	-0.046604555
49	0x3d8167ed	0.063186504
50	0xbdae10de	-0.08499311
51	0x3d73b948	0.05950287
52	0xbc8ffbef	-0.017576186
53	0xbd941b08	-0.07231718
54	0x3d47e66f	0.048803743
55	0xbc4276f1	-0.011869178
56	0xbce587ec	-0.028018914
57	0x3d8fe3e8	0.070258915
58	0xbcc4ff79	-0.0240476
59	0x3d8f342b	0.06992372
60	0xbd843705	-0.06455807
61	0x3cf12366	0.029435825
62	0x3bcfdb88	0.006343309
63	0xbd995fd6	-0.074889824
64	0xbd9ae7da	-0.075637534
65	0xbd45d556	-0.048299156
66	0x3daeb71c	0.08531019
67	0xbb60abb5	-0.0034282033
68	0xbda7d393	-0.081946515
69	0x3d85aa48	0.06526619
70	0xbd282220	-0.04104817
71	0x3cb249f4	0.02176378
72	0x3d6da2b2	0.058016486
73	0xbc73740e	-0.014859213
74	0x3daab178	0.08334631
75	0x3b1dfde9	0.002410764
76	0xbd850f5b	-0.064970694
77	0xb9f7a673	-0.00047235526
78	0xbd88e3a6	-0.066840455
79	0xbcda30c3	-0.02663458
80	0x3d6ec17d	0.058289994
81	0xbd223f56	-0.039611183
82	0xbdcacb9b	-0.09902116
83	0x3d56d631	0.052450363
84	0x3dc1eec4	0.09469369
85	0xbc12c260	-0.008957475
86	0xbc846a61	-0.016164007
87	0xbdc59709	-0.09647948
88	0xbda198a7	-0.07890444
89	0xbd80c269	-0.06287081
90	0x3ab0c72b	0.0013487091
91	0x3dc69967	0.09697228
92	0xbd44b648	-0.0480254
93	0xbc757364	-0.014981125
94	0x3bca2ada	0.006169659
95	0x3cf8650b	0.030321619
96	0x3d48136a	0.04884664
97	0xbd903cc7	-0.07042842
98	0x3ceb8489	0.028749721
99	0xbd6655ee	-0.056234293

mlp2.0.weight f4 [100, 100]
0	0x3bafc8de	0.0053645214
1	0x3de197c3	0.110152744
2	0xbd1d1c99	-0.03835735
3	0x3d0f56ea	0.034994997
4	0xbdca9539	-0.09891743
5	0x3dc36576	0.095408365
6	0x3d349c83	0.044094574
7	0xbd818326	-0.06323843
8	0xbd8fd496	-0.070229694
9	0x3dba40e6	0.0909441
10	0xbc5cc52c	-0.013474744
11	0x3d60a2f7	0.054842915
12	0x3dd4cecc	0.10391006
13	0xbd102517	-0.03519162
14	0x3d9e1b30	0.07720029
15	0xbd63419f	-0.055482503
16	0xbdc291e8	-0.09500486
17	0xbda0f293	-0.07858767
18	0x3c848378	0.01617597
19	0xbdc5cf5c	-0.09658691
20	0x3b3dc289	0.0028955063
21	0xbc26c3cd	-0.0101785185
22	0xbb760e04	-0.0037544975
23	0x3d9827b8	0.07429451
24	0x3e059c96	0.13048014
25	0xba86b1ba	-0.0010276355
26	0xbdbe23de	-0.09284185
27	0x3cc99f87	0.024612201
28	0x3e4b7d4a	0.19872013
29	0xbcafeff6	-0.021476727
30	0xbd782305	-0.060580272
31	0xbe141f0e	-0.14464971
32	0x3ce7e874	0.028309084
33	0xbd52e673	-0.051489305
34	0xbde16cf9	-0.11007113
35	0xbdd0a14f	-0.10187017
36	0x3d495076	0.049149
37	0x3d94cf25	0.07266072
38	0x3d8d1592	0.0688888
39	0xbd7e64c4	-0.062107816
40	0xbd113f0b	-0.035460513
41	0x3dd771ff	0.1051979
42	0xbd316116	-0.04330548
43	0xbde46a82	-0.11153127
44	0xbdbe738b	-0.09299382
45	0x3d96af52	0.073576584
46	0xbd892b09	-0.066976614
47	0xbcab1a83	-0.020886665
48	0x3cd16c82	0.025564436
49	0x3d10f8a6	0.03539338
50	0xbdac66f9	-0.08418078
51	0x3de71b94	0.11284557
52	0x3da9d406	0.082923934
53	0xbc108319	-0.008820319
54	0x3d992c15	0.07479111
55	0xbbd8d481	-0.0066171293
56	0x3c9efe24	0.019408293
57	0xbe005a28	-0.12534392
58	0x3c511098	0.012760304
59	0xbd92ad13	-0.071619175
60	0x3d2f2e86	0.042768978
61	0xbcd7ff89	-0.026366966
62	0xbc94cd8d	-0.01816442
63	0x3de8820b	0.11352929
64	0x3e127dbb	0.14305775
65	0xbd178456	-0.03699144
66	0xbd632571	-0.05545563
67	0xbda3b31c	-0.07993147
68	0xbd93c032	-0.07214393
69	0x3d9509d0	0.07277262
70	0x3c578b2d	0.013155741
71	0xbd9dc61b	-0.07703801
72	0x3d94b6c2	0.07261421
73	0x3d3a84e8	0.045536906
74	0xbcd9bda5	-0.026579687
75	0xbe294bac	-0.16532773
76	0xbd7e03d3	-0.062015366
77	0x3c34dd16	0.011039039
78	0xbc23a0d3	-0.009987074
79	0xbd1a2705	-0.03763487
80	0xb9c4c0cb	-0.00037527675
81	0x3dc53c83	0.09630682
82	0x3d8426b1	0.06452692
83	0x3dc674c9	0.09690244
84	0xbbef22a5	-0.007297831
85	0x3d27d7ab	0.04097716
86	0x3ddc2d76	0.107508585
87	0x3c6c802d	0.014434856
88	0xbd0577c5	-0.032584924
89	0x3db959b7	0.09050315
90	0xbd55b6d1	-0.0521763
91	0xbde05575	-0.109538
92	0xbd9ef7f3	-0.07762136
93	0x3df9cbb0	0.121970534
94	0xbcc65057	-0.02420823
95	0x3c3f573d	0.011678514
96	0xbd12da3d	-0.03585266
97	0xbd4eea82	-0.050516613
98	0xbdbb982c	-0.09159884
99	0x3d296925	0.04136004
100	0x3c510a57	0.012758813
101	0x3aff4a8e	0.0019477175
102	0xbba9bdc7	-0.005180094
103	0xbdc5be85	-0.09655479
104	0x3d7b7fcd	0.061401177
105	0xbd16e280	-0.0368371
106	0xbc9ad9ed	-0.018902743
107	0x3d06db93	0.032924246
108	0x3cc46ec2	0.023978595
109	0x3d5ccfb5	0.053909022
110	0x3dbfb71a	0.09361096
111	0x3ccccf22	0.025001112
112	0xbdbca364	-0.09210852
113	0x3dc212bc	0.094762295
114	0xbd313c2f	-0.043270286
115	0x3da4afd2	0.080413476
116	0xbcec5e9a	-0.028853703
117	0xbb90f1f3	-0.004423374
118	0x3cbb854e	0.022890713
119	0xbd97b1fa	-0.07406993
120	0xbda51eeb	-0.08062538
121	0xbccd9099	-0.025093364
122	0x3dbfb12b	0.09359964
123	0xbd66a938	-0.056313723
124	0x3d9ae62f	0.07563435
125	0xbc95ff93	-0.018310344
126	0xbd55f0e1	-0.052231673
127	0x3d8182a9	0.063237496
128	0x3c9a2d93	0.01882056
129	0xbb0bce44	-0.002133266
130	0xbd38d65a	-0.045126297
131	0xbcc5c9a9	-0.02414401
132	0x3d80e0d5	0.06292883
133	0xbc893fb8	-0.016754016
134	0xbdbe90db	-0.09304973
135	0x3d0fcaf1	0.03510565
136	0x3d99faeb	0.07518562
137	0x3da3de31	0.08001364
138	0xbd912af6	-0.07088272
139	0x3db002a7	0.08594256
140	0xbd99dcb7	-0.07512801
141	0xbd608d79	-0.05482242
142	0x3db5aaaa	0.08870442
143	0x3cb92c41	0.02260411
144	0xbba18633	-0.004929328
145	0xbd999851	-0.07499755
146	0xbce1244e	-0.027483132
147	0xbd7b0643	-0.06128527
148	0x3d314e7c	0.04328774
149	0xbd12860a	-0.03577236
150	0x3d7e8d18	0.062146276
151	0x3db85539	0.0900063
152	0x3c993c12	0.018705402
153	0x3cf43dbe	0.029814597
154	0x3d5808d7	0.052742805
155	0x3c1de4ea	0.009637097
156	0xbdba6fa1	-0.09103323
157	0x3df35785	0.118819274
158	0x3d904dad	0.070460655
159	0xbce424e2	-0.027849618
160	0xbdac19a2	-0.084033266
161	0xbda1cd4e	-0.07900487
162	0x3badedda	0.005307895
163	0x3cb4b7e5	0.022060344
164	0xbd4c8aea	-0.049937166
165	0x3c8ec652	0.01742855
166	0xbd8d2b50	-0.06893027
167	0xbda6cb60	-0.081442595
168	0x3d9f9c24	0.07793453
169	0x3dac6fea	0.084197834
170	0x3c8875f7	0.016657813
171	0xbc3a3561	-0.011365266
172	0xbd2b13df	-0.041766997
173	0x3db09e11	0.08623899
174	0x3d99aeb8	0.07504028
175	0x3d2ebcfc	0.0426607
176	0x3dc7dc1a	0.09758778
177	0x3d8349b1	0.0641054
178	0xbd83e608	-0.06440359
179	0x3cd10a15	0.025517503
180	0x3cb6f1b8	0.022332057
181	0xbc488324	-0.012238298
182	0x3c0cc3d3	0.00859161
183	0x3d007c9c	0.031368837
184	0x3dcb029f	0.09912609
185	0x3cc01072	0.023445342
186	0x3dbca10d	0.092104055
187	0x3cec155e	0.028818782
188	0xbdc43d6f	-0.0958203
189	0x3cc1a0b0	0.023636192
190	0xbda50069	-0.08056719
191	0xbdada8d0	-0.08479464
192	0xbd68510b	-0.056717914
193	0xbc4b8b0e	-0.01242329
194	0xbd90d3db	-0.07071658
195	0x3d3fdacd	0.046839524
196	0x3d27ac92	0.04093606
197	0xbd32de23	-0.043668877
198	0xbc00cf97	-0.007861993
199	0xbd3b9217	-0.04579362
200	0xbdb3cdf9	-0.087795205
201	0x3d851e70	0.06499946
202	0x3dcad1d3	0.09903302
203	0xbd354029	-0.04425064
204	0xbcd888e4	-0.026432462
205	0x3d8fed97	0.070277385
206	0xbd1624d2	-0.03665621
207	0xbddef518	-0.10886592
208	0xbdee54aa	-0.11637242
209	0xbd9c7816	-0.07640092
210	0xbe21756a	-0.15767446
211	0x3d5a1090	0.05323845
212	0x3d015a8b	0.03158049
213	0xbdcf60c1	-0.10125876
214	0xbe6062c3	-0.21912675
215	0xbdc4e0a6	-0.09613161
216	0xbbd58793	-0.006516406
217	0x3d7f9033	0.06239338
218	0x3d17e100	0.03707981
219	0x3ddaa330	0.10675657
220	0xbc3e5067	-0.011615849
221	0x3d860653	0.06544175
222	0x3dc0306d	0.093842365
223	0xbe0b1332	-0.13581541
224	0x3c263822	0.010145219
225	0xbc1f0397	-0.009705446
226	0x3c5679b3	0.013090539
227	0xbd235537	-0.03987619
228	0xbe1bdb54	-0.15220386
229	0x3d0947da	0.03351579
230	0xbd32f8eb	-0.043694418
231	0x3e2db675	0.16964133
232	0xbe924b9f	-0.2857332
233	0x3e1bbfcb	0.15209882
234	0x3cf60e90	0.03003624
235	0xbd23d4f3	-0.039998006
236	0xbdb00329	-0.08594353
237	0x3daa22b9	0.08307404
238	0x3df060fb	0.117372476
239	0xbd8d8969	-0.069109745
240	0x3d64e088	0.055878192
241	0x3da01abb	0.078175984
242	0xbc86e9b2	-0.016468856
243	0x3c086e18	0.00832703
244	0xbdb8c472	-0.09021844
245	0xbe0ae885	-0.13565262
246	0x3caa85e4	0.020815797
247	0x3dbdbbd6	0.092643425
248	0x3da1ff7d	0.07910059
249	0x3d725e8b	0.059172194
250	0xbe01e463	-0.12684779
251	0x3d078689	0.033087287
252	0xbd83cc29	-0.06435425
253	0xbe7c2c3f	-0.24626254
254	0x3e22c639	0.15895928
255	0xbe539232	-0.20661238

mlp2.0.bias f4 [100]
0	0xbd9f39f5	-0.07774726
1	0xbc7bf853	-0.015379029
2	0x3e84fbcb	0.25973353
3	0x3c0826c1	0.008310021
4	0x3da75b96	0.081717655
5	0x3b5b8943	0.0033498562
6	0x3da41aac	0.080129
7	0x3d3dbc9c	0.04632245
8	0xbce07b8e	-0.027402665
9	0xbd556464	-0.052097693
10	0xbd9d44e9	-0.07679159
11	0xbdad5812	-0.08464064
12	0x3dca8bfb	0.098899804
13	0xbddfd589	-0.109294005
14	0x3d1c3144	0.03813292
15	0xbca666cf	-0.020312695
16	0x3dfc5093	0.12320056
17	0xbd8f9ec5	-0.07012705
18	0xbdda9d8b	-0.1067458
19	0xbd8e336e	-0.06943403
20	0x3b8eabf2	0.0043539936
21	0xbc5e1e4f	-0.013557031
22	0xbbb9ce7e	-0.0056703677
23	0xbd02bd25	-0.031918664
24	0xbd6eae94	-0.05827196
25	0xbcaad4dc	-0.020853452
26	0xbd8cae39	-0.06869168
27	0xbcc27e59	-0.023741888
28	0x3c96e1d2	0.018418226
29	0xbd3ecb54	-0.046580628
30	0xbc0af3ff	-0.008481025
31	0xbda282b1	-0.07935084
32	0x3d9fd4fd	0.07804296
33	0xbd70a15d	-0.058747638
34	0xbd6f6444	-0.05844523
35	0x3d58acf8	0.05289933
36	0xbdfdcd27	-0.12392645
37	0xbce2a681	-0.027667286
38	0x3d3181d3	0.0433367
39	0xbb8eb054	-0.004354516
40	0xbd8f20de	-0.06988691
41	0xbd8e9130	-0.06961286
42	0x3e0eb569	0.1393639
43	0xbb1f9953	-0.0024352863
44	0x3cca9055	0.024727026
45	0xbdaef211	-0.08542264
46	0x3c90e17e	0.017685648
47	0xbd9741f8	-0.073856294
48	0xbc498776	-0.012300363
49	0xbd0cc419	-0.0343667
50	0xbd7e8abc	-0.062144026
51	0x3deddb3b	0.116140805
52	0x3d5e41ed	0.05426209
53	0x3ca7ea0d	0.020497346
54	0x3c70603d	0.0146713825
55	0x3daa0a87	0.08302789
56	0x3d164680	0.036688328
57	0x3d6dbce8	0.058041483
58	0xbaee5231	-0.0018182454
59	0x3bf8429c	0.0075763
60	0xbc87f1b1	-0.01659474
61	0xbcb0a6b4	-0.021563865
62	0x3db58624	0.08863476
63	0x3cd474ec	0.025934659
64	0x3a37ff7d	0.0007018967
65	0xbbf16f73	-0.007368022
66	0x3c8d651d	0.017260129
67	0xbd13f68b	-0.036123794
68	0xbd9dd273	-0.07706156
69	0x3ce70e66	0.028205108
70	0xbda03c3b	-0.07823988
71	0x3dca058c	0.09864339
72	0xbc6b352c	-0.014355939
73	0x3da8ccbc	0.08242175
74	0x3db75c3f	0.089531414
75	0xbd9fa103	-0.077943824
76	0x3d58b7ce	0.052909665
77	0x3cafd6e2	0.021464769
78	0xbd6802ab	-0.05664317
79	0x3c98db0f	0.018659143
80	0x3c2a1f6c	0.010383468
81	0xbd96aca4	-0.07357147
82	0xbd61113b	-0.054948073
83	0x3d95d869	0.073166676
84	0x3d75dd20	0.060025334
85	0x3de6e4e6	0.11274128
86	0x3d8b71f5	0.06808845
87	0x3d0c7165	0.03428783
88	0x3d8eb3e4	0.06967905
89	0x3cbff196	0.023430627
90	0xbdc66e86	-0.096890494
91	0x3db9506c	0.090485424
92	0x3de5d3a0	0.11222005
93	0xbc568f8e	-0.01309575
94	0xbd4d1dc9	-0.050077233
95	0xbd7f86f0	-0.062384546
96	0xbcc2331b	-0.02370601
97	0x3b320617	0.0027164274
98	0x3d1289e3	0.03577603
99	0x3d62914f	0.05531436

mlp2.2.weight f4 [50, 100]
0	0xbdc444b4	-0.095834166
1	0xbbe92384	-0.0071148295
2	0x3e5d167d	0.2159061
3	0xbd955cf3	-0.07293119
4	0x3d42b76f	0.047538217
5	0x3d3cf891	0.04613549
6	0x3ce76cda	0.028250147
7	0x3d9678dc	0.07347271
8	0xbd97cddb	-0.07412311
9	0xbd558f41	-0.05213857
10	0x3c90b5ea	0.017664868
11	0x3dccb201	0.09994889
12	0x3e0fe6e4	0.14052922
13	0xbbbbd926	-0.005732673
14	0xbc20e4c9	-0.009820172
15	0xbdfa3ba0	-0.12218404
16	0x3e2ded00	0.1698494
17	0xbe07031d	-0.13184781
18	0x3bbdb0fd	0.005788921
19	0xbdae04f2	-0.08497037
20	0x3dcf0f67	0.1011036
21	0xbd40897a	-0.047006108
22	0xbd9ba3d0	-0.07599604
23	0x3d509c14	0.050930098
24	0xbc423607	-0.011853701
25	0x3dc37ce9	0.09545309
26	0xbdda1534	-0.106485754
27	0x3e186318	0.14881551
28	0xbda61bd9	-0.0811078
29	0xbd631bf4	-0.05544658
30	0xbc51ea77	-0.012812248
31	0xbd7031d2	-0.058641262
32	0xbd091a01	-0.033472065
33	0xbda4b316	-0.080419704
34	0x3d2402da	0.040041782
35	0xbdad59f7	-0.08464425
36	0xbd7a9281	-0.061174873
37	0xbc41a98b	-0.011820207
38	0x3d769382	0.06019927
39	0x3b5faa85	0.0034128737
40	0x3c8e787a	0.017391432
41	0x3d86c2b8	0.065801084
42	0x3dccfbb0	0.10008943
43	0x3d951cfb	0.07280918
44	0x3d71ad6b	0.059003275
45	0xbda488c6	-0.080339
46	0xbc3558d0	-0.011068538
47	0xbd61d470	-0.055134237
48	0xbd03fe74	-0.032225087
49	0x3e1a6530	0.15077662
50	0x3dd1d3d7	0.10245483
51	0xbb5c4e9e	-0.0033616195
52	0xbe28dd68	-0.1649071
53	0x3c846306	0.0161605
54	0x3c83447c	0.016023867
55	0xbd6b1727	-0.057395127
56	0xbdb56f48	-0.08859116
57	0xbd225d0b	-0.039639514
58	0x3dcfd411	0.1014787
59	0xbbf5705f	-0.0074902023
60	0x3ce61d42	0.028090123
61	0x3db269f2	0.08711614
62	0xbd85affe	-0.065277085
63	0xbc2bceee	-0.010486348
64	0xbd14101c	-0.036148176
65	0xbd84753b	-0.064676724
66	0x3da16d9a	0.07882233
67	0xbca5f65d	-0.020259077
68	0xbcecda7c	-0.028912775
69	0xbcf13c3c	-0.029447667
70	0xbd91289c	-0.07087824
71	0x3ce5842c	0.028017126
72	0x3daa330c	0.08310518
73	0x3e14b4e1	0.14522125
74	0xbc8f0371	-0.017457696
75	0xbd660937	-0.05616113
76	0xbdbb9f50	-0.09161246
77	0xbd079768	-0.033103377
78	0xbd3ade5d	-0.04562222
79	0xbd0eabe8	-0.03483191
80	0xbd964a67	-0.0733841
81	0xbd09897d	-0.033578385
82	0xbd0718ab	-0.03298251
83	0xbc88c517	-0.016695542
84	0xbda32b91	-0.07967294
85	0x3d49ffd0	0.049316227
86	0x3c5c4b4c	0.013445687
87	0xbda7a8f4	-0.08186522
88	0xbdea0d73	-0.114283465
89	0xbc198789	-0.009370693
90	0xbe25bad3	-0.16184549
91	0x3cf45fba	0.029830802
92	0x3cabc4c7	0.020967854
93	0xbaf079a5	-0.00183468
94	0xbcb29b5f	-0.021802602
95	0x3cfea80f	0.031085996
96	0xbd54660e	-0.05185514
97	0xbc26ce95	-0.010181089
98	0xbc7b818b	-0.01535071
99	0x3d750175	0.059815843
100	0x3db54149	0.08850343
101	0xbd8afe5c	-0.067867965
102	0xbe6fc2ff	-0.23414229
103	0x3d4a8831	0.04944629
104	0xbd8deb89	-0.069296904
105	0xbe039e82	-0.12853435
106	0x3d8457d7	0.064620666
107	0x3d5b6245	0.053560514
108	0xbc2c6b28	-0.010523595
109	0x3d83114e	0.06399785
110	0xbc46a225	-0.012123619
111	0x3ba5c927	0.0050593796
112	0xbd1c338d	-0.0381351
113	0x3d702184	0.058625713
114	0x3de2426b	0.110478245
115	0x3d0edbe0	0.034877658
116	0xbc86ee0d	-0.016470933
117	0x3e0c1f9a	0.1368393
118	0x3b161d44	0.0022905627
119	0xbdd7d39f	-0.105384104
120	0xbc732e95	-0.014842649
121	0xbb2d9c52	-0.002649088
122	0xbdb5fc19	-0.088859744
123	0x3cbe3e8d	0.023223186
124	0x3e149490	0.14509797
125	0x3d2793d3	0.04091246
126	0x3dc1d7a8	0.09464961
127	0xbdf58eab	-0.119901024
128	0x3d9333fa	0.07187648
129	0x3ddb11d8	0.10696763
130	0x3dcd49d3	0.100238465
131	0x3bf34fe4	0.007425295
132	0xbdb7c11d	-0.0897238
133	0xbccfef9d	-0.025382811
134	0x3a4b0172	0.0007744051
135	0x3d8e9aea	0.06963141
136	0x3d158f9e	0.036513917
137	0xbbbfb2d8	-0.0058501773
138	0x3dea2be3	0.11434152
139	0x3d919eae	0.07110344
140	0x3d2fca1f	0.042917367
141	0x3dbf74aa	0.09348424
142	0xbdf29f04	-0.11846736
143	0x3d424e44	0.04743792
144	0x3c40fe31	0.011779354
145	0xbd766a1e	-0.060159795
146	0xbca0d895	-0.019634524
147	0xbc9bc4c2	-0.01901472
148	0xbd02236e	-0.03177207
149	0xbd11eecf	-0.035628136
150	0xbca6baef	-0.020352809
151	0xbd0daca6	-0.03458848
152	0x3e13456e	0.14381954
153	0x3cbf697e	0.023365732
154	0x3cec29ab	0.028828463
155	0xbb06343b	-0.002047791
156	0xbcc0464f	-0.023471026
157	0x3d04cab3	0.03241987
158	0x3d94e6af	0.07270562
159	0xbd1bca24	-0.038034573
160	0xbd48a86f	-0.048988756
161	0xbd44f90d	-0.048089076
162	0xbcff1590	-0.031138211
163	0x3da3f298	0.080052555
164	0x3daa432e	0.08313595
165	0xbd8f2bd0	-0.069907784
166	0xbd059af2	-0.03261847
167	0x3dfce4e1	0.12348343
168	0xbd284a27	-0.041086342
169	0x3cb38a05	0.021916399
170	0x3defdebb	0.11712404
171	0xbdf33168	-0.11874658
172	0xbd8e0407	-0.06934362
173	0xbd0cf473	-0.034412812
174	0xbc69389b	-0.014234687
175	0xbdb95d32	-0.09050979
176	0x3d740853	0.05957825
177	0xbc90f960	-0.017697036
178	0xbd0cc3c7	-0.034366395
179	0xbdbb662a	-0.091503456
180	0xbd6e5999	-0.058190916
181	0x3dc7ff3e	0.097654805
182	0x3d0e2831	0.0347063
183	0x3d4fedda	0.050763942
184	0x3da9becc	0.08288345
185	0x3cc6cfe3	0.02426905
186	0x3dca74cf	0.09885561
187	0x3d2faaf5	0.042887647
188	0x3ce3c574	0.027804114
189	0x3bf21975	0.0073882886
190	0x3db1a1cc	0.086734384
191	0xbdced918	-0.10100001
192	0x3cf43d7c	0.029814474
193	0xbd74c7d5	-0.059760887
194	0xbc345350	-0.011006191
195	0x3cf1c08b	0.029510757
196	0x3d6d1ebb	0.057890635
197	0x3dc265fe	0.0949211
198	0x3e00c371	0.12574555
199	0xbbcab654	-0.006186286
200	0xbd310af6	-0.043223344
201	0x3dd50a4b	0.10402354
202	0x3e1c376d	0.15255518
203	0xbd580f51	-0.052748982
204	0x3dc51d38	0.09624714
205	0xbd40c998	-0.047067255
206	0x3d892481	0.06696416
207	0xbdbfe488	-0.09369761
208	0xbc9d5bde	-0.019208845
209	0xbd11da91	-0.03560883
210	0x3da5a766	0.08088569
211	0xbda99afe	-0.082815155
212	0x3d56a297	0.05240115
213	0x3b6cc516	0.0036128215
214	0xbdc33358	-0.095312774
215	0x3d8176e5	0.063215055
216	0x3dd00d23	0.10158756
217	0xbd8986af	-0.06715142
218	0x3da53590	0.08066857
219	0x3d09015d	0.033448566
220	0xbafd2a92	-0.0019315055
221	0x3d51a8d5	0.0511864
222	0x3dc4cb7a	0.096091226
223	0x3b8be5dd	0.004269345
224	0xbdc71809	-0.09721381
225	0x3d7893bc	0.060687765
226	0x3db63ed3	0.088987015
227	0x3dddd1a7	0.10831004
228	0xbd92d015	-0.07168595
229	0xbd8c16ad	-0.068402626
230	0xbd3f113c	-0.046647295
231	0x3c8de478	0.017320856
232	0x3df7da70	0.121022105
233	0xbcff324a	-0.03115191
234	0xbd5d9f97	-0.054107275
235	0x3c5ae9c7	0.013361401
236	0x3cd089ae	0.025456276
237	0xbd2a22a5	-0.041536946
238	0x3c3e4144	0.01161224
239	0x3d9ffd20	0.07811952
240	0xbd86fb95	-0.06590954
241	0x3d56266b	0.052282732
242	0xbd02c866	-0.031929396
243	0x3d8a245a	0.06745215
244	0xbd8ca571	-0.06867493
245	0xbd7283dc	-0.059207782
246	0xbd6108b4	-0.05493994
247	0x3e0aca3e	0.13553712
248	0x3d04ae17	0.032392588
249	0x3dd3d670	0.10343635
250	0x3da0b754	0.07847467
251	0xbd0bd44b	-0.034138005
252	0xbda9fdee	-0.08300386
253	0x3d5316da	0.051535465
254	0x3dd1feb9	0.102536626
255	0xbcb17e9d	-0.02166682

mlp2.2.bias f4 [50]
0	0x3d3cc0ff	0.046082493
1	0x3cdd72a8	0.027032211
2	0x3d759347	0.059954908
3	0x3d40f55e	0.047109
4	0x3d983e27	0.074337296
5	0xbd77c779	-0.060492966
6	0xbd91104f	-0.07083189
7	0x3dca97c9	0.09892232
8	0x3dd7fdc9	0.105464526
9	0xbda93ba6	-0.0826333
10	0xbddc46ab	-0.10755666
11	0xbd6a249c	-0.05716382
12	0xbd0901ec	-0.0334491
13	0x3c03daed	0.008047801
14	0xbd308c8b	-0.043102782
15	0x3e0dddd8	0.13854158
16	0x3c68c54f	0.014207198
17	0xbdbd77cb	-0.09251364
18	0xbbd07d9d	-0.0063626305
19	0xbda088d7	-0.078386
20	0x3d52f5a0	0.051503778
21	0xbdc9371d	-0.09824965
22	0x3da3be5c	0.079952925
23	0x3d90ea97	0.070759945
24	0x3d9902da	0.07471247
25	0xbdc46d60	-0.09591174
26	0x3d4a4636	0.049383365
27	0x3d415b84	0.047206417
28	0x3db2834b	0.087164484
29	0xbcf9ca5b	-0.030491998
30	0x3e06a1af	0.13147615
31	0x3cec2ce3	0.028829997
32	0xbd711d36	-0.05886575
33	0x3d07592c	0.033044025
34	0x3a71a4d9	0.00092179846
35	0xbc9710da	-0.018440653
36	0xbde6c7ea	-0.11268599
37	0x3c6c1d63	0.014411303
38	0x3d56bfca	0.052428998
39	0xbd563aa1	-0.052302007
40	0x3dfff5fc	0.1249809
41	0x3bf08224	0.0073397327
42	0x3c0b0d3e	0.008487044
43	0xbd096f2a	-0.03355328
44	0x3d2e610f	0.04257303
45	0xbdc4f137	-0.096163206
46	0xbdae28de	-0.085038885
47	0x3d0b3658	0.033987373
48	0x3c957d68	0.018248275
49	0xbd800632	-0.06251182

attention.0.weight f4 [100, 200]
0	0x3d7bfb7c	0.06151913
1	0x3d22335a	0.039599754
2	0x3d5680cc	0.052368924
3	0xbd0f5a90	-0.034998477
4	0xbd4c0a7e	-0.049814694
5	0xbc5a8e52	-0.013339596
6	0xbab13628	-0.0013520168
7	0xbbcb62fa	-0.0062068673
8	0x3c8af754	0.016963638
9	0x3d9626de	0.07331632
10	0xbd50376c	-0.050834104
11	0xbcbfec3b	-0.023428073
12	0x3d08ce90	0.03340012
13	0x3d47c003	0.0487671
14	0xbc9d365d	-0.019190961
15	0xbd5c49ab	-0.053781193
16	0x3989b4c0	0.00026265346
17	0x3ce01550	0.027353913
18	0x3d6547f3	0.05597682
19	0xbbe2f570	-0.006926231
20	0x3ca143b1	0.019685598
21	0x3d80dfd9	0.062926956
22	0xbd6664f6	-0.056248628
23	0x3d7033ae	0.058643036
24	0x3d18eab6	0.037333213
25	0x3d530def	0.05152696
26	0xbd848aa6	-0.064717576
27	0x3d48ba75	0.049005944
28	0xbd296414	-0.041355208
29	0x3c13fe53	0.009032804
30	0xbcb6ebec	-0.022329293
31	0x3d1c6ed0	0.038191617
32	0xbd9bff4a	-0.07617052
33	0x3d9c99fe	0.07646559
34	0xbd557f8a	-0.052123584
35	0x3ca5428d	0.020173335
36	0xbc1e3bdb	-0.009657825
37	0x3d7c7844	0.06163813
38	0x3b8a4b57	0.004220407
39	0x3da6f1a4	0.08151558
40	0x3d2c86cc	0.04212074
41	0x3d2ba26b	0.04190294
42	0x3c85d066	0.016334724
43	0x3d8feb1b	0.07027265
44	0xbd27a2b1	-0.04092664
45	0xbd3ed83a	-0.04659293
46	0xbc3a152d	-0.011357588
47	0x3cff2a1b	0.031148007
48	0xbd3523dd	-0.044223655
49	0xbd4ac991	-0.049508635
50	0x3d79c0b3	0.060974788
51	0xbd890c94	-0.06691852
52	0x3d68b5be	0.056813948
53	0xbd2b57fd	-0.04183196
54	0xbc961f8c	-0.01832559
55	0xbc42ed78	-0.011897437
56	0x3c745188	0.014912017
57	0x3d5025d0	0.05081731
58	0x3d2c1d59	0.042020176
59	0xbc82a477	-0.015947564
60	0xbd1c09b4	-0.03809519
61	0x3d62b44a	0.05534772
62	0x3d8c30af	0.06845223
63	0xbd1760a8	-0.036957413
64	0xbd1e7e8e	-0.03869491
65	0x3c131063	0.008976075
66	0xbd51f98e	-0.051263385
67	0x3c339ae2	0.01096222
68	0x3d35ca7f	0.04438257
69	0xbd8bd3aa	-0.06827481
70	0x3d13b62f	0.036062416
71	0xbd71d745	-0.059043188
72	0x3c9394ae	0.018015232
73	0x3cfcb195	0.030846396
74	0x3d2a8e98	0.041639894
75	0xbcd1191a	-0.025524665
76	0xbc1e8adf	-0.009676664
77	0xbb789d98	-0.003793573
78	0x3d1ac72e	0.03778761
79	0x3c2d2b25	0.0105693685
80	0xbd06a858	-0.03287539
81	0x3c73cd94	0.014880557
82	0xbce0c8ad	-0.02743944
83	0xbb80d649	-0.003931795
84	0x3d9a489d	0.07533381
85	0xbcbbc12a	-0.022919256
86	0xbd8bef50	-0.068327546
87	0xbd08af67	-0.0333704
88	0x3c977e04	0.018492706
89	0xbc8d2902	-0.017231468
90	0x3c589938	0.013220124
91	0x3d8cba8b	0.06871518
92	0xbc1a86c6	-0.009431547
93	0xbbd7eb7a	-0.0065893503
94	0xbc80b736	-0.015712362
95	0x3b88af58	0.004171293
96	0x3da76b9d	0.081748225
97	0x3d808f24	0.06277302
98	0xbd4d391a	-0.050103284
99	0x3da65ad4	0.08122793
100	0x3c9ac0e0	0.018890798
101	0x3c0ccffb	0.008594508
102	0xbd098335	-0.033572394
103	0xbc1ce60c	-0.009576332
104	0xbd05eef5	-0.03269859
105	0xbd2f4b2a	-0.04279629
106	0xbd267795	-0.040641386
107	0x3d2d95a2	0.04237903
108	0xbd338000	-0.043823242
109	0xbced160c	-0.028941177
110	0x3b0c2e87	0.0021390037
111	0x3c998a75	0.01874278
112	0xbd37895c	-0.04480873
113	0x3d993038	0.074799
114	0x3cd6b991	0.026211532
115	0xbd5b4648	-0.053533822
116	0x3ca729fa	0.020405758
117	0xbd244e44	-0.040113702
118	0x3d95551b	0.07291623
119	0x3cef5b6c	0.029218398
120	0xbc38ebd3	-0.011286694
121	0x3b98cf68	0.0046633966
122	0xbce8b8a7	-0.028408362
123	0xbb8497d4	-0.0040464196
124	0x3b8db744	0.0043248255
125	0x3bfcd915	0.007716308
126	0xbc7ce4c9	-0.015435406
127	0x3cb1c226	0.021699023
128	0x3d1f8fad	0.03895538
129	0x3c9af2d6	0.018914621
130	0x3cb81864	0.022472568
131	0xba405009	-0.0007336145
132	0x3d49149a	0.049091913
133	0xbd50ca7f	-0.050974365
134	0xbd3a12ba	-0.045428015
135	0x3d1ca406	0.038242362
136	0xbc1d70e0	-0.009609431
137	0x3d87fcca	0.066400126
138	0xbd1cfeed	-0.038329054
139	0xbab2632d	-0.0013609879
140	0x3d8121fd	0.06305311
141	0x3d39f6da	0.04540143
142	0xbd82204d	-0.06353817
143	0xbd148adb	-0.036265235
144	0xbd23b056	-0.03996309
145	0xbce69c37	-0.02815066
146	0xbd499221	-0.049211625
147	0x3c8490c3	0.016182309
148	0xbd7ef2e1	-0.062243346
149	0xbd08af12	-0.033370085
150	0xbd30cc36	-0.0431635
151	0xbb85b2c5	-0.004080149
152	0x3c9d2420	0.019182265
153	0xbc827c10	-0.015928298
154	0xbd052081	-0.0325017
155	0x3d8a3a81	0.0674944
156	0x3c89073c	0.016727082
157	0xbd57d55a	-0.052693702
158	0xbd496b09	-0.049174342
159	0x3b7c937e	0.003854006
160	0x3cd592e4	0.02607102
161	0xbd0e1455	-0.03468736
162	0x3d08f712	0.03343875
163	0xbd1304ad	-0.03589313
164	0xbcc4e445	-0.024034629
165	0x3c00a7f9	0.007852548
166	0xbd593b91	-0.053035323
167	0xbd21f7a5	-0.039542813
168	0xbd469833	-0.048484992
169	0xbd8d1c5a	-0.06890173
170	0x3d4a2f47	0.049361493
171	0x3d224b35	0.039622504
172	0x3cb35398	0.021890447
173	0x3cbd5a13	0.02311424
174	0xbcb9e100	-0.022690296
175	0xbcbdc42b	-0.02316483
176	0x3d544b03	0.05182935
177	0x3d70436a	0.05865804
178	0xbcb662e7	-0.022263957
179	0x3d9b073d	0.0756974
180	0xbca28eb1	-0.019843431
181	0x3a04cd0f	0.00050659565
182	0x3c26b8ab	0.010175864
183	0x3d81f714	0.063459545
184	0xbbfccc81	-0.0077148085
185	0xbb81998b	-0.0039550713
186	0x3d1249fd	0.035715092
187	0xbd20a87d	-0.039223183
188	0x3c279051	0.010227279
189	0xbb8c5929	-0.0042830897
190	0xbb474c6b	-0.003041054
191	0xbbce3434	-0.006292844
192	0x3d8d0498	0.06885642
193	0xbd05f41c	-0.032703504
194	0xbcf0de96	-0.029403012
195	0xbd502b76	-0.050822698
196	0x3d8fac54	0.07015291
197	0x3d74985c	0.059715614
198	0xbd8938cb	-0.067002855
199	0x3ca65032	0.020301912
200	0xbd855df4	-0.06512061
201	0xbd401735	-0.046897132
202	0xbd3555da	-0.044271328
203	0x3d420f87	0.04737809
204	0xbcec9236	-0.028878313
205	0xbd18f354	-0.03734143
206	0x3cffd931	0.031231495
207	0x3d10068a	0.035162486
208	0xbc07a5e3	-0.008279297
209	0x3d1747f6	0.03693386
210	0xbc183847	-0.009290761
211	0x3c4871f3	0.012234199
212	0xbcdd4a96	-0.027013104
213	0xbd4faf15	-0.05070408
214	0x3cc10fb5	0.02356706
215	0x3cf233c3	0.029565698
216	0x3d42edc4	0.047590032
217	0xbb8cfeef	-0.0043028514
218	0xbd72ecca	-0.05930785
219	0x3d2230fe	0.039597504
220	0x3c30a9f3	0.010782707
221	0x3d4b9b2c	0.04970853
222	0xbd49201d	-0.04910289
223	0xbbcfc7e3	-0.006340967
224	0xbd26fb29	-0.04076687
225	0x3d44d523	0.048054826
226	0x3b7b83ef	0.00383782
227	0x3d35d234	0.04438992
228	0xbd0445b7	-0.032293048
229	0xbd6bf894	-0.05761011
230	0xbd30370e	-0.043021254
231	0x3d8d29f4	0.068927675
232	0xbd946511	-0.072458394
233	0x3d32836f	0.043582376
234	0x3cc944a7	0.024568869
235	0x3c99f9da	0.018795896
236	0x3d752f16	0.059859358
237	0x3d308e97	0.043104734
238	0xbc26bf6e	-0.010177476
239	0xbcf93600	-0.030421257
240	0xbb14345f	-0.0022614223
241	0xbd7297c4	-0.059226766
242	0xbd8a7828	-0.06761199
243	0x3d4db8a2	0.050224908
244	0xbd4f5068	-0.05061379
245	0xbcd314ff	-0.025766848
246	0xba1529f1	-0.00056901487
247	0x3b03fd4b	0.0020139988
248	0xbd0db533	-0.034596633
249	0xbd842d30	-0.06453931
250	0x3d28c1c8	0.04120043
251	0xbca02416	-0.019548457
252	0x3bfa44dc	0.007637603
253	0x3b32a867	0.002726102
254	0x3d90817d	0.07055948
255	0xbc8678ce	-0.016415026

attention.0.bias f4 [100]
0	0x3d2d6c72	0.04233975
1	0x3d3f4b75	0.04670282
2	0x3d65515b	0.05598579
3	0x3d186f12	0.0372153
4	0xbd3f2b1f	-0.046671983
5	0x3d5409d3	0.05176718
6	0xbd824b43	-0.06362011
7	0xbd85c5b8	-0.065318525
8	0xbcc69b71	-0.024244042
9	0xbd8c78b8	-0.06858963
10	0xba7655f9	-0.0009396966
11	0x3cc54eaa	0.024085362
12	0x3d4361e5	0.04770078
13	0x3b409a37	0.0029388794
14	0x3cc4caf7	0.024022562
15	0x3d8028c4	0.062577754
16	0xbc80e14d	-0.015732432
17	0x3c23c382	0.009995343
18	0xbce5dc2c	-0.028059088
19	0x3ce0f0cf	0.027458576
20	0x3d0ae90b	0.033913653
21	0xbd766fc1	-0.06016517
22	0xbd94951f	-0.07255005
23	0x3d194d0d	0.037426997
24	0x3d252874	0.040321782
25	0x3d86adab	0.06576093
26	0x3d00ce5d	0.031446803
27	0xbb530567	-0.0032199265
28	0x3d824961	0.06361652
29	0xba37daa1	-0.0007013474
30	0x3d67f8ce	0.056633763
31	0x3c241330	0.01001434
32	0xbd2c9027	-0.042129662
33	0x3d5c6f26	0.053816937
34	0x3c6d5f56	0.014488062
35	0x3ce4a37f	0.027909992
36	0xbd974cc3	-0.07387688
37	0x3b9e5f01	0.0048331027
38	0xbd7a5dbd	-0.061124552
39	0x3bfb5df4	0.007671112
40	0xbd8835b4	-0.06650868
41	0xbbfb2b50	-0.0076650754
42	0x3da68bb1	0.08132113
43	0xbd52de98	-0.051481813
44	0xbc99b055	-0.01876084
45	0xbd7bb858	-0.0614551
46	0xbc605d05	-0.013694053
47	0xbcc4bd04	-0.02401591
48	0xbd428f33	-0.047499847
49	0x3d3c533f	0.045977827
50	0x3d89866b	0.06715091
51	0xbca3d602	-0.019999508
52	0xbd0f4449	-0.03497723
53	0xbabb653b	-0.0014297137
54	0x3ba3960c	0.004992252
55	0x3cf95861	0.03043765
56	0x3dc13260	0.094334364
57	0xbd5c2670	-0.053747594
58	0x3d7933e6	0.06084051
59	0xbd74338c	-0.05961947
60	0x3d535140	0.051591158
61	0xbd8adc6b	-0.06780323
62	0xbd8eaedd	-0.06966946
63	0x3cab160d	0.020884538
64	0x3c8c3012	0.017112765
65	0xbd4b3d5a	-0.049619056
66	0x3c03aad2	0.008036332
67	0xbc90e5ec	-0.01768776
68	0xbcffa1ff	-0.031205175
69	0x3ad034b5	0.0015884849
70	0x3c468f70	0.012119159
71	0x3c697ec2	0.014251413
72	0x3da015c1	0.07816649
73	0x3d579c82	0.05263949
74	0x3c3cc170	0.0115207285
75	0x3cdd7764	0.027034469
76	0xbd4933ec	-0.049121782
77	0xbd3f5aae	-0.04671734
78	0x3d466ffb	0.048446637
79	0xbc102e21	-0.0088000605
80	0x3cd6dba2	0.026227776
81	0xba815432	-0.0009867011
82	0xbc9630fa	-0.0183339
83	0x3c3dac1c	0.011576679
84	0xbae03d56	-0.0017108123
85	0x3d3ebe52	0.046568222
86	0xbd67444d	-0.05646162
87	0x3d1faaee	0.03898137
88	0x3d90df38	0.070738256
89	0xbd5c317b	-0.053758126
90	0xbd990dbc	-0.07473323
91	0x3d73f236	0.059557162
92	0x3c4aadac	0.012370508
93	0x3d1358b7	0.035973277
94	0x3c193da2	0.009353073
95	0xbd83c991	-0.0643493
96	0xbd25023f	-0.040285345
97	0xbd553e00	-0.05206108
98	0xbc850b87	-0.016240848
99	0x3cb4fc36	0.02209292
