CrowdNav/crowd_nav/data/output_SARL/il_model.pth (torch, 392547 bytes, 20 tensors)

mlp1.0.weight f4 [150, 13]
0	0x3e2af1a0	0.16693735
1	0xbe8067de	-0.25079244
2	0x3e4357ac	0.19076413
3	0x3e6324f1	0.22182061
4	0x3d815b10	0.06316197
5	0x3e286a3b	0.16446774
6	0x3daee17e	0.08539103
7	0x3e0ba10a	0.1363565
8	0x3e8a7290	0.2704053
9	0x3d02df0f	0.031951007
10	0xbda67f0c	-0.08129701
11	0xbd224f46	-0.039626382
12	0xbe0dea1a	-0.13858834
13	0x3e0944d5	0.13405164
14	0xbe1dfce3	-0.154285
15	0x3e864a86	0.26228732
16	0xbca16f88	-0.019706503
17	0xbea2a4a5	-0.3176624
18	0xbe033ba0	-0.12815714
19	0x3e987c1a	0.29782182
20	0xbdcb612d	-0.09930644
21	0xbd3927f1	-0.045204107
22	0xbe24b014	-0.16082793
23	0xbdf642d3	-0.120244645
24	0xbcd3ba26	-0.025845598
25	0x3d244d7b	0.040112954
26	0x3d8bfb5b	0.068350516
27	0xbce57410	-0.028009444
28	0x3d142915	0.03617199
29	0xbda63927	-0.0811637
30	0x3d956e25	0.07296399
31	0x3d72587b	0.059166413
32	0xbca3dcb0	-0.020002693
33	0xbe81a48f	-0.2532086
34	0xbdf8fe0f	-0.12157833
35	0xbe765e6b	-0.24059455
36	0xbe021371	-0.12702729
37	0xba1f14cc	-0.00060684676
38	0x3cf86907	0.030323518
39	0xbe090bb1	-0.13383366
40	0xbe206d4b	-0.15666692
41	0x3d6d8976	0.05799242
42	0x3e72de03	0.23717503
43	0x3e62ce36	0.22148976
44	0xbcc940e2	-0.024567071
45	0x3de4d286	0.11172967
46	0x3e4fda2f	0.20298074
47	0x3d92d31f	0.071691744
48	0x3dbdf471	0.09275139
49	0x3e5baaf8	0.21451938
50	0xbbb2899e	-0.005448534
51	0xbe843bdf	-0.25826928
52	0x3e6587af	0.2241504
53	0x3e3988b7	0.18118559
54	0x3ded8395	0.11597363
55	0xbcbe0bc0	-0.023198962
56	0x3cf0d435	0.029398063
57	0xbe600527	-0.21876965
58	0xbe757de4	-0.23973805
59	0x3db73f34	0.08947602
60	0xbe1883b0	-0.14893985
61	0x3e3ba47e	0.18324468
62	0x3c32f136	0.010921767
63	0xbe8a6942	-0.2703343
64	0x3db3c761	0.08778263
65	0xbe79d210	-0.24396539
66	0x3dac90cb	0.084260546
67	0xbe8a4578	-0.27006125
68	0x3e3a918b	0.18219583
69	0x3bdf6a0a	0.0068180608
70	0x3e85dcc5	0.26144996
71	0xbe8330e0	-0.25623226
72	0xbd49919a	-0.049211122
73	0xbdd35fdf	-0.1032102
74	0x3df1bffc	0.11804196
75	0xbe51052a	-0.20412126
76	0x3e284763	0.16433482
77	0xbdc2b103	-0.095064186
78	0xbe0deb42	-0.13859275
79	0x3d1a7ac7	0.037714746
80	0x3d3414ed	0.04396527
81	0xbd9af3de	-0.07566045
82	0xbe88be2a	-0.26707584
83	0xbe1f9e22	-0.15587667
84	0xbdacf95e	-0.084460005
85	0x3da2f373	0.079565905
86	0xbd99cc3c	-0.07509658
87	0x3e75ead9	0.24015369
88	0xbe867388	-0.26260018
89	0x3e33d3b3	0.17561226
90	0x3d3119c3	0.04323746
91	0xbc9dd9a6	-0.019268822
92	0x3dce96c0	0.10087347
93	0x3e26e746	0.16299161
94	0x3dfc30c2	0.12313987
95	0x3e481305	0.19538505
96	0x3e3e51a5	0.18585832
97	0xbe1432ab	-0.14472453
98	0xbd139c00	-0.036037445
99	0x3e3435b5	0.17598613
100	0xbcf0dcd0	-0.029402167
101	0xbdfff4c9	-0.12497861
102	0x3e8049b3	0.25056228
103	0xbb87b23c	-0.0041411202
104	0xbe68e770	-0.22744536
105	0x3e560981	0.20902063
106	0xbe895660	-0.2682371
107	0xbe0cc076	-0.13745293
108	0xbe317b18	-0.17332113
109	0x3d0f81c5	0.035035867
110	0xbc558ddf	-0.013034313
111	0xbd956f10	-0.07296574
112	0xbe20d05d	-0.15704484
113	0x3e144b44	0.14481837
114	0xbe04960a	-0.1294786
115	0x3e12a147	0.14319335
116	0xbe7022b7	-0.23450743
117	0x3d77964d	0.060446072
118	0xbd88702f	-0.06662022
119	0x3e1461bd	0.14490409
120	0x3e0226f3	0.1271017
121	0x3e4c332a	0.19941393
122	0xbd0b24ee	-0.033970766
123	0x3e949f19	0.29027632
124	0xbe2f7203	-0.17133336
125	0x3e3488e5	0.17630346
126	0xbe44afa0	-0.1920762
127	0x3d2775a5	0.04088368
128	0xbe4a6c7e	-0.19767949
129	0x3e137e1d	0.14403577
130	0xbd33f8e9	-0.04393855
131	0x3dee7bfd	0.11644743
132	0xbe42dc9f	-0.19029473
133	0xbe7264da	-0.23671284
134	0xbd67fce0	-0.056637645
135	0x3c496f81	0.012294651
136	0xbe8b8746	-0.27251643
137	0x3e1060f0	0.14099479
138	0x3e4394a7	0.19099675
139	0xbe888ebf	-0.26671407
140	0xbd159881	-0.036522392
141	0xbd539b32	-0.051661678
142	0x3e38cdbd	0.18047233
143	0x3e3a3b2b	0.18186633
144	0xbe6eb393	-0.2331069
145	0xbe612970	-0.21988463
146	0x3d036e4f	0.03208762
147	0x3d851498	0.064980686
148	0x3d8b97f2	0.06816091
149	0x3e82e95b	0.2556866
150	0xbe08d6a6	-0.13363132
151	0x3ebf1292	0.37318856
152	0xbdd63fca	-0.104613855
153	0x3d10f0f8	0.035386056
154	0xbd9a19a2	-0.0752442
155	0xbc31dab8	-0.010855369
156	0xbd425759	-0.047446582
157	0x3e102f1b	0.1408047
158	0x3e45ff80	0.19335747
159	0x3db5808c	0.08862409
160	0xbd46d574	-0.04854341
161	0x3d7b4e26	0.061353825
162	0xbdc311a8	-0.09524852
163	0xbe705be3	-0.23472552
164	0xbd9cc92a	-0.076555565
165	0xbe47c797	-0.19509731
166	0x3e52c403	0.20582585
167	0x3d1e66f9	0.03867242
168	0x3e18cce0	0.14921904
169	0xbddbbe5c	-0.107296675
170	0x3e5281f4	0.20557386
171	0x3e4f20bf	0.20227335
172	0x3e7b4149	0.24536623
173	0x3e8c37ef	0.27386424
174	0xbe9c7060	-0.30554485
175	0x3e061bbf	0.13096522
176	0x3e84b65d	0.25920382
177	0xbc5b804a	-0.013397286
178	0xbddc9720	-0.10771012
179	0xbdcf4039	-0.101196714
180	0xbe01f817	-0.12692295
181	0x3e65b53e	0.2243242
182	0xbdcb1588	-0.09916216
183	0xbd80c6ea	-0.0628794
184	0x3e732c07	0.23747264
185	0x3e44ff84	0.19238096
186	0x3eb2c5e6	0.3491661
187	0xbcc437d2	-0.023952398
188	0xbe13b8ca	-0.1442596
189	0x3e23de65	0.16002806
190	0xbd9928b5	-0.074784674
191	0xbdaf2f80	-0.08553982
192	0x3dc19e7b	0.09454056
193	0x3e9fabec	0.31185853
194	0xbe0834be	-0.1330137
195	0x3e028062	0.12744287
196	0xbe873b1f	-0.26412293
197	0x3e5e4ec0	0.21709728
198	0x3e865fb3	0.26244888
199	0xbd544944	-0.051827684
200	0x3db49f0e	0.088194
201	0x3e65fecc	0.22460479
202	0x3e29d89c	0.16586536
203	0x3de05562	0.109537855
204	0x3e96dd98	0.29465938
205	0x3e269221	0.16266681
206	0xbe0cb458	-0.1374067
207	0xbe4fcf98	-0.20294034
208	0x3b28a6a3	0.002573409
209	0x3e7efbe2	0.24900773
210	0x3e0ae8ca	0.13565364
211	0xbe3bfd0a	-0.18358245
212	0xbc0a4ce1	-0.008441181
213	0x3ec15700	0.37761688
214	0x3e07e181	0.13269617
215	0xbda1ee12	-0.079067364
216	0x3e231ec7	0.1592971
217	0xbe9be522	-0.30448252
218	0x3d6293e8	0.055316836
219	0x3cd67ef7	0.026183588
220	0xbda22a63	-0.07918241
221	0xbe279ed8	-0.16369188
222	0xbe89326e	-0.26796287
223	0xbc39b7e9	-0.0113353515
224	0x3e141fe1	0.14465286
225	0xbe05de06	-0.13072976
226	0x3e236558	0.15956628
227	0x3e075ef9	0.13219823
228	0x3e6e1a2e	0.23252174
229	0x3e8a654e	0.27030414
230	0x3e5e4d9d	0.21709295
231	0x3c9612b4	0.018319465
232	0xbd41dacc	-0.0473278
233	0x3e8bdd76	0.273174
234	0x3de0473b	0.10951086
235	0x3e0f5dcb	0.14000623
236	0x3e7b341a	0.24531594
237	0x3e2372e5	0.15961798
238	0xbdb713a6	-0.089392945
239	0x3e1dd37f	0.1541271
240	0x3ea4da7f	0.3219795
241	0x3d0eb268	0.03483811
242	0x3e6f0380	0.23341179
243	0x3ce05f85	0.027389297
244	0x3e10bbe8	0.1413418
245	0xbe8b63c4	-0.27224553
246	0xbe73f3ef	-0.23823522
247	0x3d92a454	0.07160249
248	0xbe09a80c	-0.13443011
249	0x3d56cee6	0.052443407
250	0x3d98aa17	0.07454317
251	0xbc222494	-0.009896416
252	0x3c2fde19	0.010734105
253	0x3e638499	0.2221855
254	0xbe994552	-0.299357
255	0x3e9261d9	0.28590277

mlp1.0.bias f4 [150]
0	0xbe4cb388	-0.1999036
1	0xbdf98191	-0.12182916
2	0xbdfd347d	-0.12363527
3	0xbde93552	-0.11387123
4	0xbddd21f5	-0.107974924
5	0x3dd23b14	0.102651745
6	0xbdf0fb0e	-0.11766635
7	0xbdc5409a	-0.096314624
8	0xbe6165fe	-0.22011563
9	0x3db33cfd	0.08751867
10	0xbbd31e37	-0.006442811
11	0xbe337362	-0.17524484
12	0xbe2b975b	-0.16756956
13	0xbe35934d	-0.17731972
14	0x3de01e9e	0.1094334
15	0x3e34f86b	0.17672889
16	0xbdd0e858	-0.10200566
17	0xbd681742	-0.056662805
18	0x3e035bcc	0.12827986
19	0xbcc5170f	-0.024058847
20	0xbe7beac9	-0.24601282
21	0x3e83d592	0.2574888
22	0x3d8766d9	0.066114135
23	0x3dff97e2	0.12480141
24	0xbd37c510	-0.044865668
25	0x3b4ab434	0.0030930163
26	0x3e96aa63	0.2942687
27	0x3e1a84b2	0.15089682
28	0xbe7faa09	-0.24967207
29	0x3e1a096b	0.15042655
30	0xbd705aab	-0.058680218
31	0xbdab9b33	-0.08379211
32	0xbd951e53	-0.072811745
33	0x3e804f0b	0.25060305
34	0xbe127c6b	-0.14305274
35	0x3e5e6346	0.21717557
36	0x3e3baad5	0.18326886
37	0xbdd8fb93	-0.10594859
38	0x3dd3337d	0.10312555
39	0x3e110519	0.14162101
40	0xbe714a5a	-0.23563519
41	0x3d140322	0.0361358
42	0x3ddbd63f	0.107342236
43	0x3e7c9ac3	0.24668412
44	0x3de97ff6	0.1140136
45	0x3d851e51	0.06499923
46	0x3df9783f	0.12181138
47	0x3e5e177b	0.21688645
48	0xbe5487a9	-0.20754875
49	0x3dc87f7e	0.09789942
50	0xbce31633	-0.027720546
51	0x3e3a7471	0.18208481
52	0x3e79b037	0.24383627
53	0x3e45aeb0	0.19304919
54	0x3e87ccc0	0.265234
55	0xbe3fe9d1	-0.18741538
56	0x3e3444cd	0.1760437
57	0x3e7f6c51	0.24943663
58	0xbe20a58a	-0.15688148
59	0xbd283b13	-0.041071963
60	0x3df90bba	0.1216044
61	0xbde8ea36	-0.11372797
62	0x3da26daf	0.07931077
63	0x3dfd4023	0.12365749
64	0x3e208716	0.15676531
65	0x3e575adc	0.21030754
66	0x3e874859	0.26422384
67	0x3e644cad	0.22294874
68	0x3cac0fc4	0.021003611
69	0x3e93ca53	0.288653
70	0xbe1d29e9	-0.15348019
71	0xbd25f654	-0.04051812
72	0x3e8b0620	0.2715311
73	0x3cacb554	0.021082558
74	0xbddbb6ab	-0.107282005
75	0x3d8316be	0.06400822
76	0xbd46cd98	-0.048535913
77	0xbe6b4648	-0.22976029
78	0x3e3df37b	0.18549912
79	0x3cafbf4c	0.021453522
80	0xbd63974f	-0.05556422
81	0x3e78fec0	0.2431593
82	0xbe7be2a8	-0.24598181
83	0xbd189158	-0.037247986
84	0x3db1da86	0.08684258
85	0xbd2ba130	-0.041901767
86	0x3e3deccb	0.1854736
87	0xbe586071	-0.2113054
88	0x3c008d64	0.00784621
89	0xbdf5d492	-0.12003435
90	0x3e050831	0.12991406
91	0xbe2679de	-0.16257426
92	0x3e242924	0.16031319
93	0x3e1f6293	0.15564947
94	0xbd9cf242	-0.076633945
95	0xbe43844e	-0.19093439
96	0xbe40fa23	-0.1884542
97	0x3d1c8bf3	0.038219403
98	0x3e6343e3	0.22193865
99	0xbcc48fe5	-0.023994396
100	0xbde5a8a2	-0.11213805
101	0xbe50f05d	-0.20404191
102	0x3cfa1831	0.030529113
103	0xbe4756a8	-0.1946665
104	0x3db2e2f4	0.08734694
105	0xbb8de0a9	-0.00432976
106	0xbe60bf66	-0.21948013
107	0x3e08634c	0.13319129
108	0xbe334189	-0.17505468
109	0x3e7d3b9d	0.24729772
110	0xbd4657dd	-0.048423637
111	0xbd98faa4	-0.07469681
112	0xbd061ff9	-0.032745335
113	0xbd9e2f1b	-0.077238284
114	0xbdb1b732	-0.0867752
115	0xbdacc598	-0.084361255
116	0x3e840ba4	0.2579013
117	0x3d0395d1	0.032125298
118	0x3e03c7d5	0.12869199
119	0x3d99774d	0.07493458
120	0xbc97ec6a	-0.018545348
121	0xbe4c2c7f	-0.19938849
122	0x3a0d980a	0.0005401379
123	0x3e271f56	0.16320547
124	0x3d40bcdc	0.04705511
125	0xbcb8b76e	-0.022548404
126	0xbd164e7b	-0.03669594
127	0x3d81e81a	0.06343098
128	0x3e64bfc4	0.22338778
129	0xbe5dc2b3	-0.21656303
130	0xbe705a98	-0.23472059
131	0x3e64aaad	0.22330733
132	0xbe182fee	-0.14862034
133	0x3e74d46b	0.23909156
134	0x3e21ee78	0.15813625
135	0xbe396bc1	-0.18107511
136	0x3c85031c	0.016236834
137	0xbdf565f7	-0.11982339
138	0x3e8de658	0.277148
139	0xbe00cc1f	-0.12577866
140	0xbe021a53	-0.12705354
141	0xbdc78978	-0.09743017
142	0x3e007157	0.12543236
143	0xbe188a07	-0.14896403
144	0xbe59d961	-0.2127433
145	0xbde28420	-0.11060357
146	0x3e7fec07	0.24992381
147	0xbe76c147	-0.24097167
148	0x3d87cc57	0.066307716
149	0x3e899ef2	0.26879078

mlp1.2.weight f4 [100, 150]
0	0x3d4d7b2f	0.050166305
1	0xbda3bb9c	-0.07994768
2	0x3d80917c	0.06277749
3	0x3d3509ed	0.04419892
4	0xbbb1abc9	-0.0054220897
5	0x3d589696	0.052877985
6	0xbc587b2d	-0.013212961
7	0x3da55c79	0.080742784
8	0xbc50a9c9	-0.012735792
9	0xbceceb62	-0.028920833
10	0xbd9fd665	-0.078045644
11	0xbb9be20e	-0.0047571724
12	0xbc8de788	-0.017322317
13	0xbd697d00	-0.057003975
14	0xbd74fc52	-0.059810944
15	0x3d80420d	0.06262598
16	0x3d92cbed	0.07167802
17	0x3d86e26e	0.06586157
18	0x3d63af1e	0.055586927
19	0x3d0a5265	0.033769984
20	0x3bc8dbdf	0.0061297263
21	0x3ce27a2e	0.02764615
22	0x3d631a0b	0.05544476
23	0xbda1c7ee	-0.07899462
24	0x3d12079f	0.0356518
25	0xbb523430	-0.0032074563
26	0xbd3632a0	-0.044481874
27	0xbd7fc7d8	-0.062446445
28	0x3c2cbf26	0.01054362
29	0x3d7fc637	0.06244489
30	0x3ccf56db	0.02530997
31	0xbc21436c	-0.009842735
32	0xbd059201	-0.032609943
33	0xbd89fa4a	-0.06737192
34	0x3baabef7	0.005210753
35	0xbd13fe30	-0.036131084
36	0x3c93fad4	0.01806394
37	0x3b9d5c64	0.0048022736
38	0xbd8e7e02	-0.06957628
39	0xbd7d9622	-0.061910756
40	0xbd90d75c	-0.070723265
41	0x3cbd7a8a	0.02312972
42	0xbda0af0b	-0.07845887
43	0x3d18b0eb	0.037278097
44	0xbc0df0e4	-0.00866339
45	0xbcb5d2a4	-0.022195168
46	0x3d5da33a	0.054110743
47	0x3d8d2ba8	0.068930924
48	0xbccdf8df	-0.025143085
49	0xbcc0170f	-0.023448495
50	0x3d6fee60	0.05857694
51	0x3d42b8e1	0.047539596
52	0xbc51c800	-0.012804031
53	0x3ce1ed9b	0.02757912
54	0x3d38b146	0.045090936
55	0x3d85caa6	0.06532793
56	0x3d29d082	0.041458614
57	0xbd38ced7	-0.045119133
58	0x3c604d4a	0.013690302
59	0xbd8b0f26	-0.06789999
60	0x3cf2e58e	0.029650476
61	0xbcea73d1	-0.028619679
62	0x3b4de16f	0.0031414886
63	0x3d4d2743	0.05008627
64	0xbd796589	-0.060887847
65	0xbc9329cd	-0.017964268
66	0x3d59975b	0.05312286
67	0x3d6050c4	0.054764524
68	0x3d0a75f2	0.033803888
69	0xbdb10b40	-0.08644724
70	0xbd39935c	-0.04530655
71	0xbd755169	-0.059892092
72	0xbcf7be31	-0.030242058
73	0xbd64dffd	-0.055877674
74	0xbd83b228	-0.06430465
75	0xbcf17b63	-0.02947778
76	0xbd340074	-0.043945745
77	0x3d1060dd	0.035248626
78	0x3d4e352c	0.050343677
79	0x3c451390	0.01202859
80	0x3cbcd368	0.023050025
81	0xbd1d6db0	-0.038434684
82	0xbd887d79	-0.06664557
83	0x3cd92685	0.026507625
84	0xbd212ea4	-0.03935112
85	0xbd1ad4f8	-0.03780076
86	0x3d66eb08	0.056376487
87	0x3d9286f3	0.07154646
88	0x3c2ad546	0.010426825
89	0xbd2b681b	-0.04184733
90	0x3d424380	0.047427654
91	0xbd96a8d2	-0.07356419
92	0xbd1f894e	-0.038949303
93	0xbd15aa04	-0.036539093
94	0x3bc07684	0.005873503
95	0xbbda1a29	-0.0066559506
96	0x3c7c8efa	0.015414948
97	0x3d68fa1c	0.056879148
98	0xbbda6538	-0.0066648982
99	0x3a6c5b12	0.0009016256
100	0x3c215867	0.009847737
101	0x3da5994f	0.08085882
102	0x3d08db79	0.03341243
103	0xbba47122	-0.0050183693
104	0xbd6a474d	-0.057196904
105	0x3d761341	0.060076956
106	0xbd02de1e	-0.03195011
107	0xbcdcec9f	-0.026968298
108	0xbcc30a96	-0.023808759
109	0xbc6d7f70	-0.0144957155
110	0x3bd7fea7	0.006591636
111	0xbd9c215e	-0.07623552
112	0xbd2acd3c	-0.041699633
113	0xbcd995cb	-0.026560685
114	0xbda713cf	-0.08158075
115	0xbd578fe3	-0.052627455
116	0x3ce661f5	0.028122881
117	0x3ce96b00	0.028493404
118	0x3c8fd3d7	0.017557068
119	0x3d7c9654	0.0616668
120	0x3bac97a6	0.0052671013
121	0xbbbbecbf	-0.0057350094
122	0x3d11fcc9	0.035641465
123	0x3d68bdea	0.05682174
124	0x3c9ea02d	0.019363487
125	0x3ca62c92	0.020284925
126	0xbc5dfe43	-0.01354939
127	0xbca1492a	-0.019688208
128	0x3d64fac0	0.055903196
129	0xbc3e2676	-0.0116058495
130	0xbc4cce8a	-0.012500415
131	0x3c759bb6	0.014990738
132	0xbd735c70	-0.059414327
133	0xbd87ee2d	-0.06637225
134	0x3ba013d6	0.004885177
135	0xbcb6e128	-0.02232416
136	0x3d8a9b07	0.0676785
137	0xbd4793d4	-0.048724964
138	0x3d8d5aab	0.06902059
139	0xbd98e81b	-0.074661456
140	0xbc162e07	-0.009166247
141	0x3ca090ca	0.01960029
142	0x3cedca2c	0.029027067
143	0xbc4f2191	-0.01264228
144	0xbd908bd6	-0.070579216
145	0xbd5a68ca	-0.05332259
146	0xbd048314	-0.03235157
147	0xbd8733f8	-0.06601709
148	0x3b945566	0.004526782
149	0x3bf9b37d	0.0076202736
150	0xbd4686f8	-0.04846856
151	0x390edd1e	0.00013624548
152	0xbd37d8c5	-0.044884462
153	0x3c914ba1	0.017736258
154	0xbd5b1baf	-0.053493198
155	0xbd899cd7	-0.06719368
156	0x3cf92cd7	0.03041689
157	0xbd049b13	-0.032374453
158	0x3b851a30	0.0040619597
159	0xbd19f7a2	-0.037589677
160	0xbd35cbf1	-0.044383947
161	0x3d164432	0.03668613
162	0xbd297938	-0.04137537
163	0x3d8717d4	0.06596342
164	0x3c858dbd	0.016302938
165	0x3d97c35e	0.0741031
166	0x3c050663	0.0081191985
167	0x3dad09a8	0.084491074
168	0x3db4dddb	0.08831378
169	0x3d188142	0.037232645
170	0xbd0f4c27	-0.034984734
171	0xbcc56498	-0.024095818
172	0x3d8e4660	0.06947017
173	0x3d0788be	0.033089392
174	0x3d20c646	0.03925159
175	0x3d8aadcb	0.0677143
176	0xbd8b4dc8	-0.06801945
177	0xbd31ad7d	-0.043378342
178	0x3da13850	0.07872069
179	0xbd85cd74	-0.06533328
180	0x3cd2d441	0.025735976
181	0xbc2a6566	-0.010400152
182	0x3d952542	0.07282497
183	0x3c501f29	0.012702742
184	0xbd84870b	-0.0647107
185	0xbd57f589	-0.052724395
186	0x3d801969	0.062548466
187	0xbd3a8221	-0.045534257
188	0x3c99a644	0.01875604
189	0x3d05eaa4	0.032694474
190	0x3d666287	0.056246307
191	0x3cb10b69	0.021611886
192	0x3d201300	0.03908062
193	0x3d60719c	0.054795846
194	0xbd308527	-0.043095734
195	0xbcab5a28	-0.020917013
196	0xbd44ecea	-0.0480775
197	0xbd17c10f	-0.03704935
198	0x3daedb61	0.08537937
199	0xbcc1d11f	-0.023659287
200	0xbd929b19	-0.07158489
201	0xbd35633c	-0.04428409
202	0x3d941531	0.072306044
203	0xbd1b4dd9	-0.03791604
204	0x3d807de6	0.06274013
205	0x3d978d3a	0.07399984
206	0xbd442bc5	-0.047893304
207	0x3b3e2bae	0.0029017734
208	0xbc1d3bb9	-0.0095967585
209	0x3c6774f4	0.014127005
210	0x3bb292c0	0.005449623
211	0x3c98d38d	0.018655563
212	0x3d5dee9b	0.05418263
213	0xbd738f55	-0.059462864
214	0x3d778145	0.060426015
215	0xbd773b46	-0.060359262
216	0xbd50e8d0	-0.051003277
217	0xbc4ec1e5	-0.01261947
218	0x3d14ddf3	0.03634448
219	0x3c18e4a1	0.009331853
220	0x3d82fee6	0.06396274
221	0xbc26b67b	-0.010175343
222	0xbd1caa47	-0.038248327
223	0x3c000b5c	0.007815208
224	0x3d03f35a	0.0322145
225	0xbd949f5c	-0.07256958
226	0x3d7f5774	0.06233926
227	0x3d8b18a2	0.06791808
228	0xbd202bfb	-0.039104443
229	0x3b6a50e8	0.003575379
230	0xbd7cf985	-0.061761398
231	0x3db4b2ff	0.08823203
232	0xbd57058c	-0.052495524
233	0xbd7b4df1	-0.061353628
234	0x3d2ebe48	0.042661935
235	0x3b694748	0.0035595465
236	0xbd82b994	-0.063830525
237	0x3cf5fd9a	0.030028153
238	0x3d9abb57	0.075552635
239	0xbc8957fc	-0.016765587
240	0x3cd94fd2	0.02652732
241	0xbdabb054	-0.08383241
242	0x3bb3d0d2	0.00548754
243	0xbd6accad	-0.0573241
244	0x3d1cb7d0	0.038261235
245	0x3d9896fd	0.07450674
246	0xbd8d65fd	-0.06904218
247	0xbc3e8d02	-0.011630299
248	0x3c967573	0.018366551
249	0x3d91f84b	0.07127436
250	0x3c6514fc	0.013982054
251	0x3d441b6c	0.047877714
252	0x3d762f5f	0.06010377
253	0x3d23c930	0.03998679
254	0x3bff7937	0.0077964324
255	0x3d9da0a9	0.07696659

mlp1.2.bias f4 [100]
0	0xbd93badb	-0.07213374
1	0xbbdf351b	-0.0068117506
2	0x3d5e5237	0.054277625
3	0xbc8666e6	-0.016406488
4	0x3cb25526	0.021769118
5	0xbd34cca5	-0.044140477
6	0x3d3fb017	0.04679879
7	0x3d7622a7	0.06009164
8	0x3c499768	0.0123041645
9	0x3c13b933	0.009016323
10	0xbce5ee50	-0.028067738
11	0xbc941ce4	-0.018080182
12	0xbd88c6c0	-0.066785336
13	0xbd54776e	-0.05187171
14	0xbc7890cf	-0.015171244
15	0xbd8688f7	-0.06569093
16	0xbd9d0c40	-0.07668352
17	0xbca9791e	-0.020687636
18	0x3c8bca3e	0.01706421
19	0x3b8ed3d0	0.004358746
20	0x3d06d755	0.0329202
21	0xbc6175ce	-0.013760997
22	0x3cc64656	0.02420346
23	0xbd73a111	-0.059479777
24	0x3c84e797	0.016223712
25	0xbc67891b	-0.01413181
26	0xbd0f9006	-0.03504946
27	0x3d539270	0.051653326
28	0xbd682e78	-0.05668494
29	0xbc77b1ab	-0.015118043
30	0xbd3ac5e3	-0.045598876
31	0x3ddb0cc0	0.10695791
32	0x3d55ac10	0.052166045
33	0xbb34a387	-0.002756329
34	0x3d0fba68	0.03508988
35	0xbbf8ad1d	-0.007588996
36	0xbda4d970	-0.080492854
37	0x3c425283	0.011860493
38	0xbba4cf20	-0.005029574
39	0x3d6f4f9f	0.058425542
40	0x3ce7a7b6	0.028278213
41	0x3d8ba287	0.06818109
42	0x3d65ff41	0.056151632
43	0x3d1b9c3a	0.037990786
44	0xbcfb0a6e	-0.030644622
45	0x3c889eb6	0.016677242
46	0xbc2f40d9	-0.010696613
47	0x3d6efda3	0.058347356
48	0xbd3c451d	-0.04596435
49	0x3d3b3f64	0.04571475
50	0xbdb899aa	-0.09013684
51	0x3d80e3be	0.062934384
52	0xbc8b4b00	-0.017003536
53	0xbd71090e	-0.058846526
54	0x3d25c585	0.040471572
55	0xbc78a192	-0.01517524
56	0xbd206052	-0.03915436
57	0x3db1fb9f	0.08690571
58	0xbcbba3b7	-0.022905214
59	0x3d8a8129	0.067629166
60	0xbd551c78	-0.052029103
61	0x3cd841bf	0.026398538
62	0x3ca04185	0.019562492
63	0xbdbd8fbe	-0.09255932
64	0xbdaad638	-0.0834164
65	0xbd1d8a08	-0.038461715
66	0x3dd28171	0.10278595
67	0xbbae45c3	-0.005318375
68	0xbd5fbe89	-0.054625068
69	0x3d50b346	0.05095222
70	0xbd36427d	-0.044497002
71	0x3cb01291	0.021493228
72	0x3d6e7424	0.05821623
73	0xbcc1fc49	-0.02367987
74	0x3d9b9d62	0.07598378
75	0x3c5590c9	0.013035008
76	0xbd8029b0	-0.06257951
77	0xbb97677c	-0.0046204906
78	0xbd8ba7e3	-0.06819131
79	0xbc96730c	-0.018365405
80	0x3d6f5942	0.058434732
81	0xbd52c7c1	-0.05146003
82	0xbdeefaa4	-0.116689
83	0x3d4a871a	0.04944525
84	0x3d8ab17b	0.06772133
85	0x3ae0d2ac	0.0017152629
86	0xbc6398f4	-0.013891447
87	0xbdb210a8	-0.08694583
88	0xbda1fb61	-0.07909275
89	0xbd78127b	-0.0605645
90	0xbbe4a71e	-0.0069779297
91	0x3dbfa71e	0.09358047
92	0xbd0a234f	-0.03372508
93	0xbc3caaf2	-0.011515366
94	0xbb9dae9e	-0.0048120758
95	0x3ce46ff1	0.02788541
96	0x3d437676	0.047720395
97	0xbd99e92b	-0.075151764
98	0x3cfc79e8	0.030819848
99	0xbd4b183a	-0.04958365

mlp2.0.weight f4 [100, 100]
0	0x3b966b99	0.0045904634
1	0x3ddd109d	0.10794184
2	0xbced6d00	-0.02898264
3	0x3d0f56ea	0.034994997
4	0xbdca87af	-0.09889161
5	0x3dc3d0f1	0.09561337
6	0x3d53805a	0.051636077
7	0xbd66ec96	-0.05637797
8	0xbd7182e4	-0.058962718
9	0x3dc29d21	0.09502626
10	0xbc62e9ea	-0.013849715
11	0x3d609973	0.05483384
12	0x3dcdf777	0.10056966
13	0xbd1ddc16	-0.03853997
14	0x3dd4a019	0.10382099
15	0xbd623567	-0.05522671
16	0xbdc27a4d	-0.09495983
17	0xbda0f26b	-0.078587376
18	0x3c98eb4a	0.018666882
19	0xbdbec5b2	-0.09315051
20	0xbb0d5c8a	-0.002157005
21	0xbc19fbf7	-0.009398452
22	0x3a8c4d33	0.001070416
23	0x3d946d78	0.07247442
24	0x3df1b6ba	0.118024305
25	0x3b13d3cd	0.0022556663
26	0xbdbfde9d	-0.09368632
27	0x3d36d44b	0.044636052
28	0x3e5cc2cf	0.21558689
29	0x3c2ae15a	0.010429705
30	0xbd895292	-0.06705202
31	0xbdef4a5e	-0.11684106
32	0x3d377ce3	0.044796836
33	0xbd76bc1e	-0.060237996
34	0xbdbc44c1	-0.09192801
35	0xbdc0be08	-0.094112456
36	0x3d49686c	0.04917185
37	0x3d95f432	0.07321967
38	0x3d932f03	0.07186701
39	0xbd8b1823	-0.06791713
40	0xbcfd8ef5	-0.030951956
41	0x3dfce41d	0.12348197
42	0xbd002027	-0.031280663
43	0xbdeae35f	-0.11469149
44	0xbdbe738b	-0.09299382
45	0x3d96c3b3	0.073615454
46	0xbd867a6c	-0.06566319
47	0xbca5c57c	-0.02023577
48	0x3cd1acfa	0.025595177
49	0x3d2c5dda	0.04208169
50	0xbd940bc4	-0.072288066
51	0x3dd2af55	0.10287348
52	0x3da9d4d9	0.082925506
53	0x3c481435	0.012211849
54	0x3d8a2592	0.06745447
55	0x3b910135	0.0044251927
56	0x3c8ee3cf	0.017442612
57	0xbdbf2f6c	-0.09335217
58	0x3c9c8eb0	0.019111007
59	0xbd920f64	-0.07131842
60	0x3d17d975	0.037072618
61	0xbcdad746	-0.026713978
62	0xbb8ee007	-0.0043602022
63	0x3dfa1518	0.122110546
64	0x3e104661	0.14089347
65	0xbce23a7f	-0.027615784
66	0xbd68fedd	-0.05688368
67	0xbda29fcf	-0.07940637
68	0xbd90c968	-0.07069665
69	0x3d97f1cd	0.07419167
70	0x3c3db243	0.011578145
71	0xbd89cf4f	-0.06728994
72	0x3d9a30b2	0.07528819
73	0x3d2adc0b	0.041713756
74	0xbbe56b28	-0.0070012994
75	0xbe1b45cf	-0.15163349
76	0xbd7e035b	-0.06201492
77	0x3cac893c	0.021061532
78	0xbc1f220d	-0.009712708
79	0xbd03d83a	-0.03218863
80	0xbb470383	-0.0030367083
81	0x3dcb8cec	0.09938988
82	0x3dabb8ce	0.08384858
83	0x3ddb49d3	0.1070744
84	0xba8a54c9	-0.0010553832
85	0x3d0be533	0.03415413
86	0x3dde7dd1	0.10863841
87	0x3caf3c7f	0.021391151
88	0xbd053a7d	-0.032526482
89	0x3dbe630b	0.09296235
90	0xbd48f365	-0.049060244
91	0xbdd75fe9	-0.1051634
92	0xbda12ab0	-0.0786947
93	0x3e08753f	0.13325976
94	0xbc4c243b	-0.01245981
95	0x3c402c46	0.011729306
96	0xbd161fbe	-0.036651365
97	0xbd50e4a5	-0.050999302
98	0xbda86c91	-0.082238324
99	0x3d52c1a8	0.051454216
100	0x3c559b3f	0.013037502
101	0x39e4fafd	0.0004367455
102	0xbbf63d53	-0.0075146346
103	0xbdc5be85	-0.09655479
104	0x3d7b7d1e	0.061398618
105	0xbd1d587a	-0.038414456
106	0xbcb74646	-0.022372376
107	0x3cd4e10b	0.025986215
108	0x3cb2ba38	0.021817312
109	0x3d5017ea	0.050804056
110	0x3d9e91b0	0.077426314
111	0x3ccbf84b	0.024898669
112	0xbdbee473	-0.09320917
113	0x3db8396d	0.08995328
114	0xbd6c6cc8	-0.05772093
115	0x3da4b8b3	0.08043041
116	0xbce7797c	-0.02825617
117	0xbb90eca2	-0.00442274
118	0x3c80c876	0.015720587
119	0xbd99d344	-0.07510999
120	0xbda8c2d6	-0.08240287
121	0xbcd070b7	-0.025444372
122	0x3db3486b	0.08754047
123	0xbd7b54e2	-0.061360247
124	0x3d99035f	0.07471346
125	0xbce533e2	-0.027978841
126	0xbd561175	-0.052262742
127	0x3d45be8f	0.048277434
128	0x3c4d8140	0.012543023
129	0xbc18dec1	-0.009330452
130	0xbd4661a6	-0.04843297
131	0xbd2f4f77	-0.042800393
132	0x3d70d365	0.05879535
133	0xbc57026f	-0.013123139
134	0xbdbdf619	-0.09275455
135	0x3d0ea704	0.034827247
136	0x3d9a49d9	0.075336166
137	0x3da3ab30	0.07991636
138	0xbd8fd7dc	-0.07023594
139	0x3da873e1	0.08225227
140	0xbd9a2350	-0.075262666
141	0xbd8a0fa4	-0.067412645
142	0x3dae413f	0.085085385
143	0x3ca98d79	0.020697342
144	0xbba18633	-0.004929328
145	0xbd9ff202	-0.07809831
146	0xbcdd34f2	-0.027002785
147	0xbd7c3815	-0.06157692
148	0x3d307a16	0.04308518
149	0xbd153eac	-0.03643672
150	0x3d6f000d	0.058349658
151	0x3db8e078	0.09027189
152	0x3c998b0a	0.018743057
153	0x3c9b1967	0.018933011
154	0x3d5ea8fc	0.054360375
155	0x3a9962a4	0.0011702371
156	0xbdbb1310	-0.09134495
157	0x3dd86493	0.10566058
158	0x3d88066d	0.066418506
159	0xbce55dad	-0.02799877
160	0xbdb3539e	-0.08756183
161	0xbda2c53e	-0.07947777
162	0x3b3d727c	0.002890735
163	0x3cb09c85	0.02155901
164	0xbd6d6030	-0.05795306
165	0x3c4576c5	0.012052243
166	0xbd95bd6c	-0.0731152
167	0xbda769c8	-0.08174473
168	0x3d9ae53c	0.07563254
169	0x3da8e665	0.08247069
170	0x3c8a33ce	0.016870406
171	0xbc8d4c1c	-0.017248206
172	0xbd3ae82d	-0.045631576
173	0x3dad5951	0.084643014
174	0x3d883859	0.066513725
175	0x3d07241b	0.032993417
176	0x3dc84935	0.09779588
177	0x3d778a6b	0.06043474
178	0xbd840238	-0.06445736
179	0x3cae8f3b	0.021308532
180	0x3cb0efaf	0.021598665
181	0xbc2b25ed	-0.010446054
182	0xbb8253d9	-0.0039772806
183	0x3d07f3f1	0.033191625
184	0x3dcb9402	0.099403396
185	0x3ca54270	0.020173281
186	0x3dbc36c5	0.09190134
187	0x3ced3faa	0.028961021
188	0xbdc43d75	-0.095820345
189	0x3cbfb5bf	0.023402093
190	0xbda93c3d	-0.08263443
191	0xbda968a2	-0.0827191
192	0xbd7123a4	-0.05887188
193	0xbcd531c9	-0.026024716
194	0xbd952651	-0.07282699
195	0x3d3d61e5	0.046235938
196	0x3d1fe98a	0.03904108
197	0xbd3a13a2	-0.04542888
198	0xbc41ca85	-0.01182807
199	0xbd4e0dab	-0.050306004
200	0xbdb1f3a2	-0.086890474
201	0x3d3b52f0	0.045733392
202	0x3da26c50	0.07930815
203	0xbd352d99	-0.04423294
204	0xbcd7bd99	-0.026335524
205	0x3da8649c	0.08222315
206	0xbd503b16	-0.0508376
207	0xbddad89f	-0.106858484
208	0xbdf386fe	-0.11890982
209	0xbddbdc3c	-0.10735366
210	0xbe0a9779	-0.13534345
211	0x3d574527	0.052556183
212	0x3c749bd7	0.014929733
213	0xbdaeceab	-0.085355125
214	0xbe680eac	-0.22661847
215	0xbdc4b7a1	-0.09605337
216	0xbbcf05ec	-0.0063178446
217	0x3d7f9033	0.06239338
218	0x3cb9fb07	0.022702707
219	0x3dd51b7e	0.10405634
220	0x3c3bf263	0.011471364
221	0x3d7b8961	0.06141031
222	0x3dd2f327	0.10300284
223	0xbdeef123	-0.11667087
224	0xbae7ccec	-0.0017684973
225	0x3d0d7925	0.03453936
226	0x3c55dc19	0.013052964
227	0xbd911493	-0.07084002
228	0xbe2f4fdd	-0.17120309
229	0x3ca1359c	0.019678883
230	0xbcb77ce7	-0.022398425
231	0x3deb2a7b	0.11482712
232	0xbe87e490	-0.26541567
233	0x3de895a8	0.1135667
234	0x3b8aaa9f	0.0042317654
235	0xbd25f3cd	-0.04051571
236	0xbdb01ed8	-0.08599633
237	0x3da38e5a	0.07986136
238	0x3da057d6	0.078292534
239	0xbce18ab8	-0.027531967
240	0x3d618761	0.055060748
241	0x3dacaf12	0.084318295
242	0xbca73a02	-0.020413402
243	0xbcbd0d4b	-0.023077628
244	0xbdb8c472	-0.09021844
245	0xbdf691d7	-0.120395355
246	0x3c9fc574	0.019503333
247	0x3dbbdf68	0.09173471
248	0x3da1efa9	0.0790704
249	0x3d510db9	0.051038478
250	0xbdeaecbc	-0.11470935
251	0x3d65734d	0.056018163
252	0xbd83cc29	-0.06435425
253	0xbe3fd54b	-0.18733709
254	0x3e093f80	0.1340313
255	0xbe408eac	-0.18804425

mlp2.0.bias f4 [100]
0	0xbd979c8f	-0.07402908
1	0xbcd9b419	-0.026575135
2	0x3e82039b	0.25393376
3	0x3d0c2534	0.034215167
4	0x3d8bdd1d	0.068292834
5	0xb8f688a4	-0.000117556454
6	0x3da5f949	0.08104188
7	0x3d402847	0.04691341
8	0xbd09e6cd	-0.033667374
9	0xbd4d0710	-0.050055563
10	0xbd9d0f6a	-0.076689556
11	0xbdb43866	-0.0879982
12	0x3db1dcd7	0.086847
13	0xbdc0340c	-0.09384927
14	0x3c72deff	0.014823674
15	0xbbb7b367	-0.005606103
16	0x3df6e373	0.12055101
17	0xbd5f3e6a	-0.054502882
18	0xbdbf8f77	-0.093535356
19	0xbd7863d6	-0.060642086
20	0xbb45daf0	-0.0030190311
21	0xbc809ec6	-0.01570071
22	0xbd08cf18	-0.033400625
23	0xbcbb5b8e	-0.022870805
24	0xbd8474a7	-0.06467562
25	0xbcac0807	-0.020999921
26	0xbd9d2110	-0.07672322
27	0xbc99e959	-0.018788027
28	0x3c970ae1	0.018437805
29	0xbd32285d	-0.043495525
30	0xbba95dac	-0.0051686373
31	0xbda30d91	-0.07961572
32	0x3db3be76	0.08776562
33	0xbd78348e	-0.060596995
34	0xbd7a4bb4	-0.061107352
35	0x3d7c6e4d	0.06162863
36	0xbddbed0e	-0.10738574
37	0xbcf56c5d	-0.029958898
38	0x3d0e5682	0.03475047
39	0xbb6220ef	-0.0034504493
40	0xbd660549	-0.056157384
41	0xbd8b309c	-0.06796381
42	0x3df7eff0	0.12106311
43	0xbb3c1bba	-0.002870305
44	0x3c96a628	0.018389776
45	0xbdaaa564	-0.08332327
46	0x3ccbd8e0	0.024883687
47	0xbd87c863	-0.066300176
48	0xbc0b0955	-0.008486112
49	0xbca43f78	-0.020049796
50	0xbd8d87d7	-0.06910675
51	0x3dcf534a	0.10123308
52	0x3cb98ce4	0.02265019
53	0xbafa8c8e	-0.0019115375
54	0x3c2b7e12	0.010467069
55	0x3d8b176e	0.06791578
56	0x3d37807b	0.044800263
57	0x3d5ac9f7	0.053415265
58	0x3c1fd275	0.009754767
59	0x3c8b33ea	0.016992528
60	0xbc89590f	-0.0167661
61	0xbd066f24	-0.032820836
62	0x3d983195	0.07431332
63	0x3cd9e7f9	0.026599871
64	0xbb8b153e	-0.0042444756
65	0xbab0506c	-0.0013451702
66	0x3ca7b99c	0.020474248
67	0xbd325312	-0.043536253
68	0xbd97f3a8	-0.074195206
69	0x3d1a316e	0.037644796
70	0xbd91c097	-0.07116812
71	0x3dc23a3d	0.09483764
72	0xbc6641a5	-0.014053737
73	0x3dae1d7d	0.08501718
74	0x3dbf6b49	0.09346635
75	0xbd9c7f45	-0.07641462
76	0x3d6aff0e	0.057372145
77	0x3cfa2886	0.030536901
78	0xbd2e829e	-0.042605035
79	0x3c9fae4c	0.01949229
80	0x3c468732	0.012117194
81	0xbd98fadc	-0.07469723
82	0xbd8583f3	-0.06519308
83	0x3daf754f	0.08567297
84	0x3d84f66c	0.06492314
85	0x3e001cc7	0.12510978
86	0x3d92d966	0.07170372
87	0x3c903733	0.017604446
88	0x3d682c72	0.05668301
89	0x3d3ad067	0.045608904
90	0xbde8a38a	-0.113593176
91	0x3dbf281b	0.093338214
92	0x3dcc6edb	0.099820815
93	0xbc67998c	-0.0141357295
94	0xbd75ead4	-0.060038403
95	0xbd7b276a	-0.061316885
96	0xbd196392	-0.037448473
97	0xbb8e066b	-0.004334261
98	0x3c82d88e	0.015972402
99	0x3d59b2f5	0.053149182

mlp2.2.weight f4 [50, 100]
0	0xbdd898ee	-0.10576044
1	0xbc3d6f93	-0.011562246
2	0x3e39f1b1	0.18158604
3	0xbd8ad096	-0.06778066
4	0x3d447deb	0.047971647
5	0x3d215ad9	0.03939328
6	0x3cd1b229	0.025597649
7	0x3d984721	0.07435442
8	0xbda0951d	-0.07840941
9	0xbd52eabc	-0.05149339
10	0x3c9a9e34	0.018874265
11	0x3dcbcc93	0.09951129
12	0x3e03b559	0.12862147
13	0xbbe9ae23	-0.0071313544
14	0x3adceffa	0.0016856187
15	0xbded7059	-0.11593694
16	0x3e2590b3	0.1616848
17	0xbe020ad5	-0.12699445
18	0x3c8c92a3	0.017159766
19	0xbda2156f	-0.079142444
20	0x3dde57e3	0.10856607
21	0xbd3af1e4	-0.04564084
22	0xbd9fa559	-0.077952094
23	0x3d4e4795	0.050361235
24	0xbc0bad71	-0.008525238
25	0x3dc3739b	0.09543534
26	0xbdca5700	-0.09879875
27	0x3e0ca668	0.13735354
28	0xbda61bd9	-0.0811078
29	0xbd3a7310	-0.04551989
30	0xbc80b078	-0.015709147
31	0xbd7c9704	-0.061667457
32	0xbcdb391b	-0.026760628
33	0xbda7f94d	-0.08201847
34	0x3d0c7791	0.034293715
35	0xbda8c959	-0.08241529
36	0xbd70974c	-0.058738038
37	0xbc334e2c	-0.010943931
38	0x3d83995c	0.06425735
39	0x3b8d4f2e	0.0043124175
40	0x3c90a75b	0.017657926
41	0x3d8c603c	0.06854293
42	0x3dba1461	0.09085918
43	0x3d9a3715	0.07530037
44	0x3d922d48	0.07137543
45	0xbda0ea12	-0.07857145
46	0x3971cc67	0.00023059697
47	0xbd7bd979	-0.061486695
48	0xbd069a72	-0.032862134
49	0x3e14893f	0.1450548
50	0x3dc694b1	0.096963294
51	0xbc752428	-0.014962234
52	0xbe1af526	-0.15132579
53	0x3bfe4aeb	0.0077603958
54	0x3c84b379	0.01619886
55	0xbd6e56ec	-0.058188364
56	0xbdb7fe82	-0.089840904
57	0xbd2dcf7b	-0.042434197
58	0x3dd2b46d	0.1028832
59	0xbc59a1e6	-0.0132832285
60	0x3cce7673	0.025202965
61	0x3db67ccb	0.08910521
62	0xbd908c8d	-0.07058058
63	0xbc152fce	-0.009105636
64	0xbd0ac52c	-0.033879444
65	0xbd78b578	-0.060719937
66	0x3d9c29f6	0.07625191
67	0xbc95dff2	-0.018295262
68	0xbced68ba	-0.028980602
69	0xbcec2457	-0.028825922
70	0xbd6c3831	-0.057670776
71	0x3ca91821	0.020641388
72	0x3daca2e3	0.08429506
73	0x3e03ad1b	0.12859003
74	0xbcdd1ad1	-0.026990326
75	0xbd64b07c	-0.05583237
76	0xbdc3d9b6	-0.095630094
77	0xbce8f33c	-0.028436296
78	0xbd802f0a	-0.06258972
79	0xbd0faa22	-0.03507436
80	0xbd7669ae	-0.060159378
81	0xbd0552dd	-0.032549728
82	0xbd01a4bf	-0.031651255
83	0xbcab1836	-0.020885568
84	0xbdaa3bf7	-0.08312219
85	0x3d2fd926	0.0429317
86	0x3c831c4a	0.0160047
87	0xbda68761	-0.0813129
88	0xbdd482ec	-0.10376534
89	0xbc28835d	-0.010285226
90	0xbe269c79	-0.16270627
91	0x3cc81517	0.024424119
92	0x3d05d442	0.032673128
93	0xbb25050a	-0.0025180005
94	0xbc4d094d	-0.0125144245
95	0x3cfeb07f	0.03109002
96	0xbd50fde1	-0.051023368
97	0xbb9ababe	-0.0047219684
98	0xbc8b3a12	-0.016995464
99	0x3d8392c6	0.06424479
100	0x3dc3436e	0.095343456
101	0xbd833d2f	-0.06408154
102	0xbe4e6b29	-0.20158066
103	0x3d360dc4	0.04444672
104	0xbd913cf6	-0.070917055
105	0xbdff9d92	-0.12481226
106	0x3d88bdab	0.06676801
107	0x3d5caeda	0.05387769
108	0xbbe5e50c	-0.00701583
109	0x3d83f694	0.064435154
110	0xbc561e8e	-0.013068808
111	0x3bc887f9	0.006119725
112	0xbcf37e4f	-0.029723315
113	0x3d83e0c0	0.06439352
114	0x3db4d35b	0.08829375
115	0x3d035f78	0.032073468
116	0xbca701a9	-0.020386534
117	0x3e035e73	0.12828998
118	0x3b36f4b9	0.0027916862
119	0xbdd87eaa	-0.10571034
120	0xbc9ef12c	-0.01940211
121	0xbb3f0d0a	-0.002915206
122	0xbdacf0f3	-0.08444395
123	0x3cbada0d	0.022809053
124	0x3e0f7fbe	0.14013574
125	0x3d27b637	0.040945258
126	0x3db71aa0	0.08940625
127	0xbddd0d7e	-0.10793589
128	0x3d9333fa	0.07187648
129	0x3dc108bb	0.09425493
130	0x3dd2f5da	0.10300799
131	0x3bf53e28	0.0074842162
132	0xbdc4e8c8	-0.09614712
133	0xbcd5b988	-0.026089445
134	0x3bc3466d	0.005959323
135	0x3d88256e	0.06647764
136	0x3cf62852	0.030048523
137	0xbb4e0af5	-0.0031439636
138	0x3de64da5	0.11245278
139	0x3d9133c2	0.0708995
140	0x3d1acd08	0.03779319
141	0x3dbf188f	0.09330856
142	0xbde30574	-0.110850245
143	0x3d444655	0.047918636
144	0x3b252d04	0.0025203833
145	0xbd7cf729	-0.061759148
146	0xbd081223	-0.03322042
147	0xbc0c937c	-0.008580085
148	0xbcff1e26	-0.031142306
149	0xbd09b9c1	-0.033624414
150	0xbc470305	-0.012146716
151	0xbd015f1d	-0.031584848
152	0x3e01025e	0.1259856
153	0x3d0ed22f	0.034868415
154	0x3cfbd225	0.030739853
155	0xbb32ec08	-0.002730133
156	0xbcc08c54	-0.023504414
157	0x3d05edaa	0.032697357
158	0x3d897903	0.06712534
159	0xbd127c4d	-0.035763074
160	0xbd434cb4	-0.04768057
161	0xbd500ea6	-0.05079522
162	0xbcc834f3	-0.02443931
163	0x3da32c15	0.07967392
164	0x3dae56c7	0.08512645
165	0xbd971511	-0.07377065
166	0xbd123878	-0.035698384
167	0x3df5e327	0.120062165
168	0xbd280b11	-0.04102618
169	0x3cc26a49	0.023732321
170	0x3dcfab29	0.10140068
171	0xbde1f2a4	-0.11032608
172	0xbd8593ef	-0.06522357
173	0xbc3c5988	-0.011495955
174	0x3b02add3	0.0019940033
175	0xbdba624c	-0.0910078
176	0x3d7ca043	0.061676275
177	0xbcb41bb0	-0.021985859
178	0xbc413c2b	-0.01179413
179	0xbdc2ad40	-0.09505701
180	0xbd7faae1	-0.062418822
181	0x3dc5c7d7	0.09657257
182	0x3d046133	0.03231926
183	0x3d70591b	0.058678728
184	0x3da90f38	0.08254856
185	0x3cdd392d	0.027004803
186	0x3dbe81ad	0.093020774
187	0x3d1a32fa	0.03764627
188	0x3c915a6d	0.017743314
189	0x3c3d2c42	0.011546196
190	0x3dbf10f6	0.09329407
191	0xbdcd483b	-0.100235425
192	0x3c820359	0.015870737
193	0xbd676212	-0.05649001
194	0xbc80240f	-0.015642194
195	0x3cf1c97b	0.029515019
196	0x3d673ae2	0.05645264
197	0x3daf7232	0.08566703
198	0x3df366d5	0.11884848
199	0xbc7ba38d	-0.015358818
200	0xbd381e54	-0.0449508
201	0x3dc5b1a6	0.096530244
202	0x3e07a910	0.13248086
203	0xbd42754f	-0.047475155
204	0x3dc71c83	0.09722235
205	0xbd70e56c	-0.058812544
206	0x3d87a0ac	0.066224426
207	0xbdc74f46	-0.09731917
208	0xbcd782c9	-0.02630748
209	0xbd0f1f02	-0.03494168
210	0x3da8be9f	0.08239483
211	0xbda82091	-0.082093365
212	0x3d4173e8	0.047229677
213	0xbb486979	-0.0030580445
214	0xbdabae01	-0.08382798
215	0x3d912c5c	0.07088539
216	0x3dcca507	0.09992414
217	0xbd854ed4	-0.06509176
218	0x3d902ddd	0.07039998
219	0x3ce94bc6	0.028478514
220	0xb9b22d0a	-0.00033984362
221	0x3d4f3288	0.0505853
222	0x3dbeaf24	0.09310749
223	0x3a128d70	0.0005590534
224	0xbdcca0b8	-0.09991592
225	0x3d787ab7	0.060663905
226	0x3db6a02f	0.08917271
227	0x3dd346cb	0.10316237
228	0xbd92d015	-0.07168595
229	0xbd82b787	-0.06382661
230	0xbd45f739	-0.048331473
231	0x3c3faada	0.011698449
232	0x3df16a4c	0.11787853
233	0xbd0a9d44	-0.033841386
234	0xbd85f09d	-0.06540034
235	0x3c678cf8	0.014132731
236	0x3cad1c78	0.021131739
237	0xbd351432	-0.044208713
238	0x3ac6ab83	0.0015157316
239	0x3da033f3	0.078224085
240	0xbd7f484a	-0.0623248
241	0x3d5607f2	0.05225367
242	0xbd03cdcc	-0.032178685
243	0x3d6fe1b9	0.058564875
244	0xbd8cbb0e	-0.06871615
245	0xbd7560a0	-0.059906602
246	0xbd418737	-0.04724809
247	0x3dffe8ba	0.12495561
248	0x3d029e73	0.03188939
249	0x3dd5c94d	0.10438786
250	0x3d879342	0.06619884
251	0xbd20a5e2	-0.0392207
252	0xbd9d77f9	-0.076888986
253	0x3d2b4862	0.041817077
254	0x3dd12868	0.10212785
255	0xbce10bd7	-0.027471466

mlp2.2.bias f4 [50]
0	0x3d2977f8	0.041374177
1	0x3c2b9bad	0.010474128
2	0x3d9a5eb4	0.075375944
3	0x3d3e97ef	0.046531614
4	0x3d8439a3	0.06456306
5	0xbd978838	-0.073990285
6	0xbda2b930	-0.07945478
7	0x3dcc8339	0.09985966
8	0x3deaa17b	0.11456581
9	0xbd9218fd	-0.071336724
10	0xbdd68da3	-0.10476234
11	0xbda3f132	-0.08004989
12	0xbd24175f	-0.04006135
13	0xb9e8a895	-0.00044376092
14	0xbcd382ba	-0.025819171
15	0x3e0eb003	0.1393433
16	0x3c421e0c	0.011847984
17	0xbde0087a	-0.10939117
18	0xbcca04a1	-0.02466041
19	0xbd980034	-0.07421914
20	0x3d82f136	0.063936636
21	0xbdcce1ce	-0.10004006
22	0x3da54877	0.08070462
23	0x3d889070	0.06668174
24	0x3d8f3aa9	0.069936104
25	0xbdd2d6f9	-0.10294909
26	0x3d25285b	0.04032169
27	0x3d14492a	0.036202587
28	0x3da23f26	0.07922201
29	0xbd1e3041	-0.038620237
30	0x3e0b09de	0.13577983
31	0x3cd7b689	0.026332157
32	0xbd4b280c	-0.04959874
33	0x3d4af5f5	0.04955097
34	0x3c19c56f	0.009385451
35	0xbc9907ac	-0.018680416
36	0xbde56368	-0.11200601
37	0xbaf8814f	-0.0018959435
38	0x3d650acd	0.055918504
39	0xbd6bf3c7	-0.05760553
40	0x3def445a	0.11682959
41	0x3c3a0378	0.011353366
42	0x3bbe317b	0.0058042384
43	0xbd10fd24	-0.035397664
44	0x3d161916	0.036645018
45	0xbdd41195	-0.10354916
46	0xbda08577	-0.078379564
47	0x3d256d8e	0.040387683
48	0x3c706e1d	0.014674691
49	0xbd0a925d	-0.03383099

attention.0.weight f4 [100, 200]
0	0x3d7c04d9	0.06152806
1	0x3d181eb3	0.037138652
2	0x3d3fb0e7	0.046799567
3	0xbd0f5d1c	-0.035000905
4	0xbd4c0c5b	-0.04981647
5	0xbc2f7b53	-0.010710555
6	0x3b1d1425	0.0023968306
7	0xbbc133b1	-0.0058960547
8	0x3cacefc8	0.02111043
9	0x3d82427d	0.06360338
10	0xbd4bce40	-0.049757242
11	0xbcc02c52	-0.023458634
12	0x3cecb875	0.02889655
13	0x3d4407ca	0.04785899
14	0xbc2db058	-0.010601126
15	0xbd5baef8	-0.05363366
16	0x39be8c63	0.0003634422
17	0x3ce01550	0.027353913
18	0x3d4a32ea	0.04936496
19	0xbc1036fa	-0.00880217
20	0x3cd69886	0.026195776
21	0x3d7f74a6	0.062367104
22	0xbd60bc5d	-0.054867137
23	0x3d5a4196	0.053285204
24	0x3cd0de4e	0.025496628
25	0x3d3a5998	0.0454956
26	0xbd84d6d9	-0.064862914
27	0x3d06afdd	0.03288256
28	0xbd1c71b6	-0.03819438
29	0x3cae77c0	0.021297336
30	0xbcb85429	-0.022501068
31	0x3d018deb	0.031629484
32	0xbd93d858	-0.07218999
33	0x3d8ebf7f	0.06970119
34	0xbd60ea71	-0.05491108
35	0x3ca9b76a	0.020717341
36	0xbc1ab3e7	-0.009442306
37	0x3d7d0e67	0.061781313
38	0xbc92b3fb	-0.017908087
39	0x3da0069c	0.07813761
40	0x3d235769	0.039878283
41	0x3d25f126	0.04051318
42	0x3c650f8e	0.013980759
43	0x3d813a64	0.06309965
44	0xbd27a2b1	-0.04092664
45	0xbd4f3c22	-0.050594456
46	0xbc3934fe	-0.011304138
47	0x3cff4227	0.031159474
48	0xbd356c1b	-0.04429255
49	0xbd539264	-0.05165328
50	0x3d81f402	0.06345369
51	0xbd7edaf5	-0.062220532
52	0x3d68c8fa	0.05683229
53	0xbcfd5255	-0.030923048
54	0xbcc390a4	-0.023872681
55	0xbbae705f	-0.0053234543
56	0x3c7c12b0	0.015385315
57	0x3d6b3d28	0.05743137
58	0x3d345368	0.044024855
59	0xbca14c26	-0.01968963
60	0xbced4a29	-0.028966026
61	0x3d60321c	0.054735288
62	0x3d767a9f	0.060175534
63	0xbcfe7c69	-0.031065183
64	0xbd01217a	-0.031526066
65	0x3c1f189d	0.009710458
66	0xbd402fe1	-0.04692066
67	0x3c30e0a6	0.010795748
68	0x3d28d38b	0.041217368
69	0xbd8cb836	-0.06871073
70	0x3d1378de	0.03600394
71	0xbd614f0f	-0.055007037
72	0x3c870ab5	0.016484598
73	0x3cbb3bf1	0.02285573
74	0x3d426254	0.047457054
75	0xbc9dd7ad	-0.019267881
76	0xbc202d55	-0.009776433
77	0xbad4bdbb	-0.001623086
78	0x3d197489	0.037464652
79	0x3c466103	0.01210809
80	0xbd031d28	-0.032010227
81	0x3c82a9b1	0.015950056
82	0xbcddb887	-0.027065529
83	0xb9832c3f	-0.00025019233
84	0x3d8ec609	0.06971366
85	0xbce02d38	-0.027365312
86	0xbd85f580	-0.06540966
87	0xbce9ed9a	-0.02855568
88	0x3c974ee9	0.018470244
89	0xbc970f2e	-0.018439855
90	0x3c5934e4	0.013257239
91	0x3d54ac22	0.05192197
92	0xbb0be383	-0.0021345324
93	0x3a9acf02	0.0011810961
94	0xbccceb38	-0.025014505
95	0x3b77e20d	0.0037823946
96	0x3da802d1	0.08203662
97	0x3d81a259	0.063297935
98	0xbd4bc84d	-0.04975157
99	0x3da66cc3	0.081262134
100	0x3c9aa779	0.018878685
101	0x3bd6c218	0.0065538995
102	0xbd1b8959	-0.03797278
103	0xbc1cdff2	-0.009574877
104	0xbd05f3c6	-0.032703184
105	0xbd432672	-0.047644086
106	0xbd3d68d8	-0.046242565
107	0x3d2fbb4a	0.042903222
108	0xbd4adf61	-0.049529437
109	0xbd05195c	-0.032494888
110	0xb98c18f0	-0.0002672146
111	0x3c997275	0.018731335
112	0xbd34a802	-0.044105537
113	0x3d90fc75	0.07079402
114	0x3cc47d44	0.023985513
115	0xbd5b6622	-0.0535642
116	0x3ca70cbc	0.020391814
117	0xbd244e44	-0.040113702
118	0x3d8fa2fa	0.07013507
119	0x3cf4875a	0.029849697
120	0xbc7c34e1	-0.015393467
121	0x3b98ba43	0.004660876
122	0xbcfc9401	-0.030832293
123	0xbbf69079	-0.0075245467
124	0xbb4168f9	-0.0029512031
125	0x3b1cb78b	0.002391311
126	0xbc7e6806	-0.015527731
127	0x3c7de9ca	0.015497634
128	0x3d02cf55	0.03193601
129	0x3c9b31bc	0.018944614
130	0x3cb0ed3e	0.0215975
131	0xbbbec298	-0.005821537
132	0x3d40a691	0.04703385
133	0xbd55dca3	-0.05221237
134	0xbd479dce	-0.04873448
135	0x3d17c7bd	0.03705572
136	0xbc1ed20c	-0.009693634
137	0x3d87e09c	0.06634638
138	0xbd3e167a	-0.046408154
139	0xbbb34824	-0.0054712463
140	0x3d7e9468	0.06215325
141	0x3d182e7e	0.037153713
142	0xbd8269af	-0.06367814
143	0xbd1874a1	-0.0372206
144	0xbd23b056	-0.03996309
145	0xbd08e7a3	-0.03342403
146	0xbd495e28	-0.04916206
147	0x3c848ecc	0.016181372
148	0xbd7ef2ec	-0.062243387
149	0xbd07d5a1	-0.033162717
150	0xbd41faa1	-0.04735816
151	0xbbf647b3	-0.0075158714
152	0x3c9d18dd	0.019176895
153	0xbcb83644	-0.022486813
154	0xbd0423d5	-0.032260735
155	0x3d8a1a6b	0.0674332
156	0x3c88543c	0.016641729
157	0xbd5f6aaa	-0.054545082
158	0xbd489a4e	-0.04897528
159	0x3b3b79a0	0.002860643
160	0x3caf01b9	0.021363126
161	0xbd0df965	-0.03466167
162	0x3d02677f	0.031836983
163	0xbd2c0725	-0.041999
164	0xbd09e36f	-0.033664163
165	0x3b8d8ff1	0.0043201377
166	0xbd556c8b	-0.052105468
167	0xbd222f45	-0.03959586
168	0xbd42ac6d	-0.04752772
169	0xbd8c32b3	-0.068456076
170	0x3d4a12ef	0.049334463
171	0x3d12b23c	0.03581451
172	0x3c905b50	0.017621666
173	0x3cac16f1	0.021007033
174	0xbcc37232	-0.023858164
175	0xbcb9e37b	-0.022691479
176	0x3d54422f	0.05182093
177	0x3d66d32f	0.056353744
178	0xbcb647e8	-0.022251084
179	0x3d98291d	0.07429717
180	0xbcb368cb	-0.021900555
181	0xbaacd749	-0.0013186719
182	0xbae672b2	-0.0017581789
183	0x3d7bdd9a	0.061490633
184	0xbc33fb27	-0.010985172
185	0xbc1457d4	-0.009054143
186	0x3d095bff	0.033535
187	0xbd3776cc	-0.044791028
188	0x3c279039	0.010227256
189	0xbc0ec30a	-0.008713493
190	0xbb9b4e1d	-0.0047395364
191	0xbc1e83bb	-0.009674962
192	0x3d8c04de	0.06836866
193	0xbd0815e4	-0.033224
194	0xbcfed038	-0.031105146
195	0xbd502580	-0.050817013
196	0x3d8b74de	0.068094
197	0x3d771f67	0.060332682
198	0xbd8b62e6	-0.06805973
199	0x3c5e362d	0.013562721
200	0xbd8558e4	-0.06511095
201	0xbd45bb75	-0.048274476
202	0xbd408c6d	-0.04700892
203	0x3d420f82	0.04737807
204	0xbcec85f5	-0.02887247
205	0xbd177136	-0.0369732
206	0x3d0539ba	0.032525755
207	0x3d0dab1c	0.03458701
208	0xbc0f2ad9	-0.008738243
209	0x3d019e5e	0.03164517
210	0xbc050f41	-0.008121313
211	0x3c47f1c7	0.01220364
212	0xbcd1c370	-0.025605887
213	0xbd4c700c	-0.049911544
214	0x3ceb4c96	0.028723042
215	0x3cf240e1	0.029571952
216	0x3d42f3cb	0.04759578
217	0xbb8cfedd	-0.004302843
218	0xbd7cfa35	-0.061762054
219	0x3d20f19c	0.039292917
220	0x3c5ba6fe	0.013406513
221	0x3d4abd97	0.049497213
222	0xbd3d0d71	-0.046155397
223	0xbbf6316d	-0.007513216
224	0xbd4c47f3	-0.049873304
225	0x3d31910e	0.043351226
226	0x3b7b3d1e	0.003833599
227	0x3d26e9bb	0.040750246
228	0xbd03be8b	-0.032164138
229	0xbd503748	-0.05083397
230	0xbd2ffc35	-0.042965133
231	0x3d8b2aaf	0.067952506
232	0xbd91c74a	-0.071180895
233	0x3d2544ee	0.04034894
234	0x3cb1c534	0.02170048
235	0x3ca183b8	0.019716129
236	0x3d755ea9	0.059904728
237	0x3d30d23b	0.04316924
238	0xbcbcc1de	-0.023041662
239	0xbd06c2b2	-0.03290052
240	0xbb450abd	-0.0030066215
241	0xbd7465a4	-0.059667245
242	0xbd8851c0	-0.066562176
243	0x3d460ad9	0.04835019
244	0xbd4f5068	-0.05061379
245	0xbcf01680	-0.029307604
246	0xba13295e	-0.0005613769
247	0x3afe43c3	0.0019398857
248	0xbd0dcd41	-0.034619574
249	0xbd861a7a	-0.06548019
250	0x3d252cd7	0.040325966
251	0xbc9b4a51	-0.018956335
252	0x3bfab259	0.007650655
253	0x3c4f2633	0.012643385
254	0x3d8c9e74	0.0686616
255	0xbc76ec7f	-0.0150710335

attention.0.bias f4 [100]
0	0x3cef696c	0.029225074
1	0x3d242b7e	0.04008054
2	0x3d771adf	0.06032836
3	0x3ce9236f	0.028459279
4	0xbd4aa74a	-0.049475946
5	0x3d4e0a59	0.050302837
6	0xbd7b3077	-0.061325517
7	0xbd6e55ed	-0.058187414
8	0xbcc14290	-0.02359131
9	0xbd93846a	-0.0720299
10	0xbb2f5bf3	-0.0026757687
11	0x3c91e8cf	0.017811207
12	0x3d335220	0.043779492
13	0xba0c7159	-0.0005357466
14	0x3cd4b57a	0.025965441
15	0x3d732409	0.059360538
16	0xbc959f3e	-0.01826441
17	0x3b7a4db2	0.0038193283
18	0xbce3ed13	-0.027823007
19	0x3cdf2a84	0.027241953
20	0x3d06c3ec	0.03290169
21	0xbd74dbe3	-0.059780013
22	0xbd9754bf	-0.07389211
23	0x3d1c8a15	0.038217623
24	0x3d1ac8be	0.0377891
25	0x3d8347d4	0.064101845
26	0x3ceb2e76	0.028708678
27	0xbbc6061c	-0.0060432088
28	0x3d6e0cbe	0.05811762
29	0xbb1192f5	-0.0022212837
30	0x3d69bf1a	0.057067014
31	0x3b5c7112	0.003363673
32	0xbd2d7fe9	-0.042358313
33	0x3d67b6da	0.056570865
34	0x3c6327b4	0.013864446
35	0x3ccea108	0.02522327
36	0xbd930948	-0.07179505
37	0xbb8b38c8	-0.004248712
38	0xbd78f827	-0.06078353
39	0x38c8100a	9.539731e-05
40	0xbd886d14	-0.0666143
41	0xbc87a3cf	-0.016557602
42	0x3d99e390	0.07514107
43	0xbd5357ce	-0.05159741
44	0xbc9446ba	-0.018100131
45	0xbd819d8e	-0.06328879
46	0xbc65f42a	-0.014035264
47	0xbcaa5129	-0.020790653
48	0xbd4b42cc	-0.04962425
49	0x3d2f5aa7	0.042811062
50	0x3d8716c4	0.06596139
51	0xbcced04c	-0.025245808
52	0xbd029551	-0.03188068
53	0xba45ecb2	-0.0007550224
54	0xbbdc3963	-0.006720708
55	0x3d0a5fb9	0.033782694
56	0x3da6800c	0.08129892
57	0xbd5ec2fa	-0.054385163
58	0x3d7b96e9	0.061423216
59	0xbd6e9922	-0.058251508
60	0x3d3b05cb	0.04565982
61	0xbd8ae2b2	-0.0678152
62	0xbd7c31aa	-0.0615708
63	0x3cf2ea91	0.029652866
64	0x3c351b2d	0.0110538425
65	0xbd4164ad	-0.047215153
66	0x3c033903	0.008009198
67	0xbc8f1434	-0.017465688
68	0xbd02740c	-0.031848952
69	0xbb933aee	-0.004493109
70	0x3b8757fa	0.0041303607
71	0x3c6847d5	0.014177282
72	0x3d9e0991	0.077166684
73	0x3d452b89	0.04813722
74	0x3c847377	0.01616834
75	0x3ce0a304	0.027421482
76	0xbd44bc40	-0.04803109
77	0xbd429a76	-0.047510587
78	0x3d46d081	0.04853869
79	0xbc36d929	-0.011160173
80	0x3ce46ac5	0.027882943
81	0x3b6aff8b	0.0035857882
82	0xbc953dd9	-0.018217968
83	0x3bac7563	0.005263017
84	0xbae9657e	-0.0017806736
85	0x3d38219f	0.04495394
86	0xbd645815	-0.055748064
87	0x3d28a124	0.0411693
88	0x3d88cdc9	0.066798754
89	0xbd51e929	-0.05124775
90	0xbd9735b2	-0.073832884
91	0x3d7b8ed6	0.061415516
92	0x3c5a18b4	0.013311554
93	0x3d17b46e	0.037037306
94	0x3c264c0f	0.01014997
95	0xbd834e48	-0.06411415
96	0xbd22a267	-0.03970566
97	0xbd55c457	-0.052189197
98	0xbc91f4c8	-0.017816916
99	0x3cc2b695	0.023768703
